Week7/model_T0.010S.pth (torch, 4544 bytes, 3 tensors)

network.fc1.weight f4 [100, 4]
0.30200067 0.035356082 0.08900683 -0.45159963 -0.2775997 -0.108620584 0.41757822 0.13600057
-0.29100528 -0.23343968 -1.2526767 -0.228226 0.17754495 0.27989095 0.010164976 -0.22675878
0.40947884 0.32016575 -1.7058446 0.35743627 -0.13855776 0.13642468 -0.40393394 -0.10953801
-0.43508828 -0.427606 -0.2089414 -0.20983946 -0.3472244 0.14013173 -0.7806821 0.36796314
0.36898613 -0.06734405 0.4313263 -0.37684166 -0.38869846 -1.6223061 -0.057868116 -0.30708158
-0.3641954 -0.1969204 -0.060499847 -0.047293663 -0.25926468 0.34550217 0.1147465 0.08775454
0.07857928 -0.36246362 -9.800099 0.026406374 0.38985646 -0.09934044 -1.7845834 -0.5216385
0.05875081 0.20531219 -0.21859479 -0.0742715 -0.10683501 -0.32224566 -0.2996474 -0.48159885
0.15364496 -1.386126 -0.6709725 -0.4077455 -0.082706764 -0.2652231 0.1386667 -0.030829592
-0.34608817 -0.0314793 0.060780942 -0.07842624 0.18746106 0.94731045 0.53384703 0.05507373
-0.4816054 0.09405804 -0.44549322 0.3064645 0.44642478 0.30641803 0.59287184 0.008651263
-0.08083421 -0.26914018 0.47477686 -0.48864645 -0.14148937 -0.5606927 -0.91994804 -0.122287
-0.41981882 -0.95863706 -0.84862393 -0.54034126 -0.41286597 0.5038091 -4.055691 -0.08154975
-0.3380761 0.21564823 -0.22820002 0.41441023 -0.027340043 -1.4540157 -3.1942635 -0.21307875
-0.19084015 0.5898415 0.1316064 -0.096220724 -0.1473441 0.09354225 -2.0342357 -1.0393978
0.42363226 -0.41815555 -0.2789266 -0.35972756 -0.5535713 0.124602474 -0.7193334 0.16228943
-0.26095474 0.27437288 0.20051396 0.086043 -0.4518883 -0.0020613556 0.9461111 -0.14602657
-0.16570158 -0.13549761 -0.3110984 0.11698155 -0.17354846 0.0444448 0.33198553 0.28454632
-0.30017635 -0.27911848 -1.1072434 -0.18318287 0.62635815 -0.06962658 0.10230628 -0.020008879
-0.46450028 0.20434959 0.4018638 0.25912085 -0.16230199 0.13600957 -0.34320265 0.08959513
0.1929208 0.18102348 0.025504112 -0.4149204 0.04010594 -0.022608161 0.107837975 -0.09727502
0.19976547 -0.07652599 -5.026035 0.7077353 -0.16658066 -0.3381144 -0.16188335 -0.33135754
-0.26054817 -0.29780132 -3.5596333 0.21821938 -0.19068837 0.26319814 -0.082342386 0.2862807
-0.08594006 0.49677658 -0.44912773 -0.23697144 0.31480572 -1.645288 0.01021984 -0.27628648
0.3386318 -0.36245978 -0.12310135 0.0625307 -0.7032425 -0.012823547 0.7678509 -0.010652409
-0.4199661 -0.4238267 -0.4399348 -0.2223537 -0.012432873 -0.47447908 -0.2901535 -0.09302133
0.15321365 -1.4977211 -1.3075621 -1.0599447 -0.14241917 0.15424682 -0.9342544 -0.21660759
-0.041063208 -0.03548852 0.528561 -0.253201 0.12848713 -0.22379015 0.36728212 -0.5048014
0.14692521 -0.19179237 -0.12871295 0.0600788 -0.30407518 -0.12422204 -0.16342467 -0.2171871
0.49140123 0.061571434 -3.4086335 -0.046300076 0.13021769 -0.481467 -1.0586672 -0.43822673
-0.3242104 -0.49569172 0.34885168 -0.41561937 -0.20086843 -0.26380956 0.10253608 0.44073159
-0.43921483 0.020085275 -0.3924551 -0.056949317 -0.23446035 -0.06589046 -0.09993877 -0.24350516
00000000: d59f 9a3e 8ad1 103d 3649 b63d 1138 e7be
00000010: 8c21 8ebe 7874 debd d0cc d53e bc43 0b3e
00000020: a5fe 94be d00a 6fbe b657 a0bf 14b4 69be
00000030: 58ce 353e de4d 8f3e 008b 263c 7433 68be
00000040: 36a7 d13e c4ec a33e 1e59 dabf e301 b73e
00000050: 16e2 0dbe e9b2 0b3e 6ed0 cebe 7755 e0bd
00000060: e4c3 debe 2cef dabe bcf4 55be 28e0 56be
00000070: 66c7 b1be b17e 0f3e c8da 47bf aa65 bc3e
00000080: c0eb bc3e adeb 89bd cdd6 dc3e 64f1 c0be
00000090: 7c03 c7be baa7 cfbf 1e07 6dbd cc39 9dbe
000000a0: d277 babe 80a5 49be b0ce 77bd 00b7 41bd
000000b0: 57be 84be a9e5 b03e 3700 eb3d a7b8 b33d
000000c0: 2cee a03d d594 b9be 35cd 1cc1 2e52 d83c
000000d0: 449b c73e 0073 cbbd 3b6d e4bf 1a8a 05bf
000000e0: b0a4 703d 5c3d 523e 50d7 5fbe a81b 98bd
000000f0: 50cc dabd 62fd a4be 626b 99be 2094 f6be
00000100: 1b55 1d3e 946c b1bf dbc4 2bbf 05c4 d0be
00000110: 2a62 a9bd 52cb 87be a5fe 0d3e 578e fcbc
00000120: 7832 b1be 70f0 00bd 70f5 783d f09d a0bd
00000130: cbf5 3f3e f082 723f 33aa 083f fe94 613d
00000140: fc94 f6be 80a1 c03d b017 e4be eae8 9c3e
00000150: ca91 e43e d3e2 9c3e 73c6 173f 07be 0d3c
00000160: 688c a5bd becc 89be f415 f33e de2f fabe
00000170: 97e2 10be 8f89 0fbf b781 6bbf 9b71 fabd
00000180: 7ef2 d6be 3d69 75bf 6b3f 59bf ce53 0abf
00000190: 2b63 d3be a2f9 003f 38c8 81c0 8e03 a7bd
000001a0: 5018 adbe e4d2 5c3e 44ad 69be 942d d43e
000001b0: 3af8 dfbc 301d babf d06e 4cc0 5131 5abe
000001c0: 9a6b 43be daff 163f d4c3 063e 5f0f c5bd
000001d0: 5fe1 16be 1493 bf3d eb30 02c0 fd0a 85bf
000001e0: 54e6 d83e 7c18 d6be 78cf 8ebe 362e b8be
000001f0: d9b6 0dbf 952f ff3d 3c26 38bf 332f 263e
00000200: dc9b 85be 9a7a 8c3e 8853 4d3e 5037 b03d
00000210: e75d e7be cf17 07bb 5634 723f fd87 15be
00000220: adad 29be e3bf 0abe 4a48 9fbe 0694 ef3d
00000230: b0b6 31be c00b 363d 02fa a93e 0eb0 913e
00000240: b7b0 99be 9ee8 8ebe 27ba 8dbf 4a94 3bbe
00000250: 0259 203f 6198 8ebd f485 d13d a9e9 a3bc
00000260: fbd2 edbe 0541 513e 18c1 cd3e 7dab 843e
00000270: 7e32 26be 1846 0b3e 42b8 afbe a77d b73d
00000280: 088d 453e 385e 393e 00ee d03c 7270 d4be
00000290: 2046 243d c034 b9bc 28da dc3d 2038 c7bd
000002a0: 528f 4c3e a9b9 9cbd 47d5 a0c0 242e 353f
000002b0: 1f94 2abe 551d adbe c0c4 25be b2a7 a9be
000002c0: 9266 85be 6a79 98be 08d1 63c0 e774 5f3e
000002d0: d043 43be e8c1 863e 20a3 a8bd 6293 923e
000002e0: 5801 b0bd 8059 fe3e 12f4 e5be a4a8 72be
000002f0: 372e a13e cc98 d2bf 1e71 273c 6c75 8dbe
00000300: 2661 ad3e 5494 b9be 901c fcbd 1810 803d
00000310: b307 34bf db19 52bc e091 443f 7187 2ebc
00000320: cc05 d7be d0ff d8be 223f e1be b0b0 63be
00000330: 40b3 4bbc ecee f2be 008f 94be f881 bebd
00000340: 0ae4 1c3e 53b5 bfbf 325e a7bf 45ac 87bf
00000350: 55d6 11be e1f2 1d3e 4c2b 6fbf 61ce 5dbe
00000360: e531 28bd 695c 11bd c64f 073f 90a3 81be
00000370: 2192 033e 3f29 65be 670c bc3e aa3a 01bf
00000380: 9073 163e 3865 44be 54cd 03be 3015 763d
00000390: beaf 9bbe 2068 febd cc58 27be 4c66 5ebe
000003a0: f198 fb3e 5432 7c3d 0d27 5ac0 26a5 3dbd
000003b0: c957 053e d882 f6be 6882 87bf 415f e0be
000003c0: e8fe a5be 4ecb fdbe b09c b23e 10cc d4be
000003d0: 74b0 4dbe 0c12 87be 70fe d13d 92a7 e13e
000003e0: c4e0 e0be e089 a43c e0ef c8be b043 69bd
000003f0: 6016 70be 94f1 86bd b3ac ccbd 6b59 79be

network.fc1.bias f4 [100]
-0.35799977 -0.39446938 0.07041742 -0.3745365 -0.42445117 -0.010936298 -0.02920258 0.22490855
-0.47491315 0.303291 -0.4104271 -0.29039058 0.034201086 -0.020952372 -0.43091875 -0.22794002
0.18823445 -0.038786627 -0.28224307 -0.3038187 -0.112772286 -0.46264002 -0.3215152 0.039955664
0.29414502 0.1376827 -0.31123573 0.1555863 -0.17445089 0.26749554 -0.41796315 0.3736322
-0.43817514 0.31382528 -0.031688876 -0.34492195 0.053764045 -0.44965136 -0.29192227 -0.06861047
-0.44163406 -0.47463572 -0.5281688 0.057621274 -0.036361087 -0.26025885 -0.46375787 -0.03272486
-0.48323524 0.5200341 -0.065678775 -0.17209405 0.16016717 0.02049696 -0.4707635 -0.41561761
-0.45228493 -0.0838545 -0.3826347 -0.052818805 -0.45471376 -0.27910018 -0.0952304 0.050199308
-0.3876788 -0.0026441303 -0.1675296 0.07741165 -0.49768683 -0.06991332 0.060825393 -0.38309127
0.0033377202 0.047284056 0.23035239 0.41797182 0.089897394 0.06912706 0.013721289 -0.24771953
-0.26361185 -0.10938937 -0.07139 -0.043752164 0.3064115 0.3824415 -0.16160037 -0.51693994
-0.31994528 0.2050722 0.0033952142 -0.20750856 0.21034953 -0.37360626 -0.10224412 -0.53493655
-0.065271996 -0.047629382 0.040761866 0.1465898
00000000: bf4b b7be e4f7 c9be 0237 903d 40c3 bfbe
00000010: aa51 d9be 292e 33bc 403a efbc 6d4e 663e
00000020: d127 f3be f548 9b3e 8023 d2be 13ae 94be
00000030: 7016 0c3d 4fa4 abbc 62a1 dcbe 1c69 69be
00000040: 88c0 403e bade 1ebd 2a82 90be 208e 9bbe
00000050: 28f5 e6bd 27df ecbe a49d a4be 8da8 233d
00000060: 2d9a 963e b2fc 0c3e 4a5a 9fbe 0452 1f3e
00000070: 41a3 32be 2df5 883e 44ff d5be b84c bf3e
00000080: 7e58 e0be b5ad a03e 32cc 01bd 9c99 b0be
00000090: b037 5c3d b438 e6be d676 95be a583 8cbd
000000a0: dc1d e2be 7403 f3be 1236 07bf 4904 6c3d
000000b0: 5def 14bd a640 85be ac71 edbe 810a 06bd
000000c0: 9c6a f7be f420 053f 9882 86bd 6c39 30be
000000d0: dd02 243e 3ee9 a73c ea07 f1be d5cb d4be
000000e0: e491 e7be e8bb abbd b2e8 c3be 8858 58bd
000000f0: 3ed0 e8be 38e6 8ebe 2808 c3bd ca9d 4d3d
00000100: d67d c6be 2549 2dbb e18c 2bbe 008a 9e3d
00000110: cfd0 febe b72e 8fbd 0c24 793d 8a24 c4be
00000120: a7bd 5a3b edac 413d 7fe1 6b3e 6700 d63e
00000130: 201c b83d 7d92 8d3d 42cf 603c 30aa 7dbe
00000140: 22f8 86be 8907 e0bd ec34 92bd 7835 33bd
00000150: f8e1 9c3e 5fcf c33e 917a 25be 2d56 04bf
00000160: decf a3be 72fe 513e 3e82 5e3b 207d 54be
00000170: de65 573e 5249 bfbe 5d65 d1bd 9af1 08bf
00000180: 53ad 85bd 0717 43bd eaf5 263d a31b 163e

network.fc2.weight f4 [1, 100]
0.010101133 -0.07861116 0.022619741 0.016174376 -0.30426902 0.0023110518 0.020811692 0.09087961
0.21160047 0.057724994 0.016337834 -0.07637648 0.53036344 0.121321335 0.09586581 -0.0295249
-0.1938753 -0.00026951096 -0.003127195 -0.052356 0.022796728 0.13582546 -0.008136451 -0.0064357766
0.057397187 -0.28927428 -0.08890122 -0.46972266 0.2796734 -0.14447004 -0.08373727 -0.14933
-0.026348792 0.26770058 -0.0055537457 -0.07988554 -0.024185788 -0.38734165 -0.025938233 0.0045656543
-0.046115804 -0.04473392 0.65360874 0.0063808043 -0.62148964 -0.06903789 -0.038704824 0.1325776
0.09613266 -0.38752085 0.080098994 0.06415749 0.6457317 -0.029005438 0.0077415323 -0.009791865
-0.025715396 -0.03242016 -1.7724719 0.011505867 -0.015102506 -0.03569957 -0.08532385 0.0033227475
-0.090768136 -0.00709529 -0.0007213472 -0.6091812 -0.011736398 -9.884671e-05 -0.0073224814 0.0017561913
0.7125347 0.00066536764 -1.9021703 0.32154548 0.31219003 0.006430353 0.45966882 -0.06571591
0.8558757 0.002061157 0.004547849 0.0009708489 -0.24032795 0.08316649 -0.09876529 0.38157704
0.07390993 1.9165947 -0.010422137 -0.008800934 0.13216034 0.0028011948 0.0071466933 0.62614244
0.00147966 -0.0051152487 0.083852455 0.12727116
00000000: 397f 253c e3fe a0bd 094d b93c 2080 843c
00000010: 26c9 9bbe 0475 173b 487d aa3c 171f ba3d
00000020: cbad 583e 0b71 6c3d ecd6 853c 466b 9cbd
00000030: e6c5 073f 5277 f83d 4b55 c43d 34de f1bc
00000040: 3f87 46be 264d 8db9 a0f1 4cbb 3f73 56bd
00000050: 34c0 ba3c d415 0b3e c04e 05bc 35e3 d2bb
00000060: 5019 6b3d c21b 94be d811 b6bd 7d7f f0be
00000070: 5a31 8f3e f4ef 13be 727e abbd f7e9 18be
00000080: 6cd9 d7bc 0d10 893e 32fc b5bb 089b a3bd
00000090: 4621 c6bc a551 c6be 6b7c d4bc 7c9b 953b
000000a0: ede3 3cbd ea3a 37bd e752 273f 1116 d13b
000000b0: f219 1fbf bd63 8dbd f388 1ebd 6cc2 073e
000000c0: 33e1 c43d 2269 c6be f10a a43d 0165 833d
000000d0: ac4e 253f d09c edbc aeac fd3b 0f6e 20bc
000000e0: 18a9 d2bc 00cb 04bd 5ce0 e2bf 1b83 3c3c
000000f0: 8070 77bc b639 12bd 45be aebd 74c2 593b
00000100: a5e4 b9bd 9b7f e8bb cb18 3dba 4df3 1bbf
00000110: 054a 40bc ec4b cfb8 6df1 efbb 0030 e63a
00000120: ad68 363f 116c 2e3a 517a f3bf 9ca1 a43e
00000130: 5fd7 9f3e b6b5 d23b b659 eb3e 1096 86bd
00000140: ab1a 5b3f 7a14 073b 1f06 953b 9180 7e3a
00000150: 8818 76be 3153 aa3d 7545 cabd 115e c33e
00000160: 175e 973d fa52 f53f 9cc1 2abc cb31 10bc
00000170: 0a55 073e 4094 373b cf2e ea3b df4a 203f
00000180: 27f1 c13a d19d a7bb d6ba ab3d 5f53 023e
