Week8/PBNN/EPSD plot/EPSD_Data/model_for_FreqEnv_2000epoch.pth (torch, 32080 bytes, 6 tensors)

network.fc1.weight f4 [25, 6]
000000 bd b5 5f bf 00 ff c1 be bd 9c 07 3f df b8 27 3c
       -0.87386686 -0.37889862 0.5297354 0.010236948
000010 ed 84 a4 3f 8b ad 9c 3e 9e 4a 62 bd b8 de c4 bd
       1.2853066 0.30601153 -0.05524694 -0.09612793
000020 ac 98 80 3f c8 53 86 3e b7 9b c6 bd df ca a0 3b
       1.0046592 0.26235795 -0.09697669 0.0049069966
000030 79 6a 65 3f 84 3c 67 bf 68 d9 9e be f0 9c 0d 3f
       0.8961559 -0.90326715 -0.31025243 0.5531759
000040 57 c8 eb bd 21 df a8 bf dc ee 99 3d 30 70 b0 bc
       -0.11512821 -1.3193094 0.07516262 -0.02153787
000050 cc 8a bc be 31 29 38 be c0 c1 43 3c e8 58 c0 be
       -0.36824644 -0.17984463 0.011948049 -0.3756783
000060 cb 77 8e bf 03 04 2f 3d 96 8b 9c 3e c9 b5 a8 bc
       -1.1130308 0.042728435 0.30575246 -0.020594494
000070 6e d8 87 bf a8 45 89 be 65 5f 48 3e 8d c8 48 bf
       -1.0612924 -0.26810956 0.1956764 -0.78431016
000080 ff f2 2d 3f 80 5c 14 bf 5c 27 4c bf 50 2f 0a 3e
       0.6794891 -0.57953644 -0.7974756 0.13494611
000090 88 86 59 3f c7 1f 9b 3f bf ff 9b 3e 5f 8a ec be
       0.84970903 1.2119073 0.30468556 -0.4619932
0000a0 47 fd 59 be 4b dd 47 3d 3f f3 f5 3d 7d 6c ba bf
       -0.21288024 0.048795026 0.12009286 -1.4564358
0000b0 6d b6 6d be 2d 25 49 be ca 95 a4 3e cc a8 97 3f
       -0.23214121 -0.19643088 0.3214553 1.1848388
0000c0 c8 9c ee be 5b e3 bd 3c 36 94 9e 3d 1b 97 34 3e
       -0.4660399 0.0231797 0.07743113 0.17635767
0000d0 39 1c 19 c0 5b c3 e9 3e 6d b0 b3 bd 6e b7 a6 be
       -2.3923476 0.45656857 -0.08773885 -0.3256182
0000e0 36 23 b6 be 65 fa 3d 3f 84 ef 8f 3e 55 02 ad 3e
       -0.3557374 0.74210197 0.28112423 0.33790842
0000f0 34 e7 87 bd 5a 6e 94 3e a0 bd ef bd a6 a2 80 be
       -0.06635895 0.28990442 -0.1170609 -0.2512409
000100 fa 9d b0 3e e6 da 3b be d8 70 15 3f 19 6f 1c 3f
       0.34495527 -0.18345222 0.5837531 0.6110702
000110 ae 89 11 bf 37 11 bb be 3e 5b 4c 3f b0 ca cf bb
       -0.5685071 -0.3653657 0.79826725 -0.006341301
000120 2a dd 7e 3d 88 a4 b4 3e 93 7c b4 be e5 43 9d 3e
       0.062222637 0.35281777 -0.35251293 0.30715862
000130 36 f8 20 be af 8f 51 3e bc 88 ae be a3 c0 f6 bc
       -0.15719685 0.20464967 -0.34088695 -0.030121153
000140 20 34 0b 3e d0 60 3d 3c 97 be bf 3f 05 b9 eb 3e
       0.13594103 0.011558726 1.4980038 0.46039596
000150 1f 94 a0 be c0 2f 67 be 9b d9 d8 bd 23 cd 71 3d
       -0.31363007 -0.22576809 -0.1058838 0.059033524
000160 10 c6 d1 be c2 c2 e8 bd 7c 6f 2a bd e5 19 4b bf
       -0.40971422 -0.11365272 -0.041610226 -0.79336387
000170 da 2f 26 be e7 ee 8a bc b4 f9 e4 3e b1 c2 a7 bd
       -0.16229191 -0.01695962 0.44721758 -0.08191431
000180 5a 9f 8b bd a0 a2 f7 be d1 3c 2c 3f 80 41 13 38
       -0.06817503 -0.4836626 0.672803 3.5108533e-05
000190 10 9b 97 bf 2b e1 05 bf dc 23 94 3f 3e 7e 05 be
       -1.1844196 -0.52296704 1.1573443 -0.13036439
0001a0 f5 b9 cf bd 0c 3a 2c be f9 ab a4 3e d0 5e 1c 3f
       -0.1014289 -0.16819018 0.32162455 0.6108217
0001b0 50 72 81 3c ec 07 4e be 60 10 26 3c d4 36 e3 bd
       0.015801579 -0.2012021 0.01013574 -0.11094442
0001c0 34 3f 92 be 38 d7 82 3d 3d fb ad be a4 43 75 3e
       -0.28563845 0.06388706 -0.33980742 0.23951584
0001d0 14 8b a2 be 50 c5 c1 be 1c e4 a2 3d 64 e0 a2 bd
       -0.31746733 -0.3784585 0.07953665 -0.07952955
0001e0 6a 11 eb 3e 0f 67 5e 3f d5 2e af be 14 39 bc 3e
       0.45911723 0.86876005 -0.34215418 0.36762297
0001f0 8e ee 7b 3f b0 45 aa 3d c2 41 b2 be 80 0d 4a 3c
       0.9841088 0.08314073 -0.34815794 0.01233232
000200 18 f8 47 be c6 03 1c be d8 f3 c5 3d b4 25 55 be
       -0.19528234 -0.15235814 0.0966565 -0.20815164
000210 b4 64 e7 3d 5a c7 82 bd be 10 47 be 0b 76 55 bf
       0.112985045 -0.063856795 -0.1943998 -0.83383244
000220 28 c8 8f bd 02 b1 68 be b1 ff 5a bf 8c 11 95 3f
       -0.07020599 -0.22723773 -0.85546404 1.164598
000230 de c4 10 3f 1a a3 69 3e d7 1b 4c 3e 60 66 6e 3d
       0.56550395 0.22816125 0.19932495 0.0582031
000240 e4 26 f4 bd 33 43 90 bd 7c c0 b7 3e ff ef a5 bf
       -0.1192148 -0.07044067 0.3588904 -1.2963866
000250 f3 54 cb ba 5f 87 06 bd
       -0.0015512988 -0.032843944

network.fc1.bias f4 [25]
000000 c3 96 c9 be 2c f5 2d bf db df 3a 3e 1c 0d 66 be
       -0.39372835 -0.6795223 0.18249457 -0.22465938
000010 1f 1e 89 3f be eb 47 3e 29 22 ea be e0 b6 2b 3e
       1.0712317 0.19523522 -0.45729187 0.1676898
000020 04 c1 3c 3f da 4b 25 3e 22 47 90 be 6d 2b 2c 3e
       0.7373202 0.16142216 -0.2817927 0.1681344
000030 eb fd ca be 6b 77 4c bf 81 a6 6e 3d f7 65 df 3e
       -0.3964685 -0.7986972 0.05826426 0.4363248
000040 11 42 f2 3e 81 0e 90 be 31 bb 7c be 81 a2 7c be
       0.4731603 -0.28136066 -0.24680783 -0.24671365
000050 98 3c 08 bf e4 ae 9b be 30 4a 5a 3f 98 42 8b be
       -0.5321746 -0.30406868 0.8526945 -0.27199244
000060 0e d5 16 3f
       0.58918846

network.fc2.weight f4 [25, 25]
000000 04 fd 6d 3f dd 4d 8d bf 96 22 d6 3d 6c 09 23 bd
       0.92964196 -1.1039387 0.104558155 -0.039803907
000010 6d ac 05 bf b1 f9 b1 3e 59 ec f0 3c ea 83 a4 ba
       -0.52216226 0.34760812 0.029409574 -0.001255152
000020 da 60 12 3f c9 02 2e 3e c6 bf a6 3d 8f 2d 3f 3f
       0.57179034 0.1699325 0.08142047 0.7467889
000030 e4 80 ae bd 47 47 39 bf bc d5 a4 3d 32 23 c0 be
       -0.08520678 -0.72374386 0.08048579 -0.37526852
000040 e7 ab 36 3f d4 32 99 be 11 65 04 3e 42 7e e6 3d
       0.7135605 -0.2992159 0.12929179 0.112545505
000050 3c b1 f7 bb c0 37 73 bd d7 a9 83 be d1 b4 c3 be
       -0.00755897 -0.05937934 -0.25715515 -0.3822389
000060 9a b9 84 be bb 84 a9 3f 9f ae 1c be 64 5a 8e 3f
       -0.25922853 1.3243631 -0.15300988 1.1121335
000070 60 cf cb 3b 20 31 72 3f 97 0f a0 3f f2 a6 23 3f
       0.0062197894 0.9460621 1.2504758 0.63926613
000080 22 e0 99 bf 5f f0 c6 be a6 2b 08 c0 28 cb 0f be
       -1.2021525 -0.38855264 -2.127664 -0.14042342
000090 7a 95 bd bd 40 15 aa bd a0 e7 45 bf d2 9f a0 3d
       -0.09257026 -0.08304834 -0.77306557 0.07842983
0000a0 13 82 9c c0 f0 ef 92 bf 30 dd 26 3f 80 51 e9 3a
       -4.890878 -1.1479473 0.65181255 0.0017800778
0000b0 30 b5 14 bc ff e0 fe be 0e 73 0d be 48 2a f9 bf
       -0.009076402 -0.49781033 -0.13813421 -1.9466028
0000c0 be cc 86 3e 29 70 8f bf b1 1c 6b 3d e5 e8 e7 be
       0.2632808 -1.1206104 0.05740041 -0.45294872
0000d0 cc 8d 10 3e 03 09 30 3e 83 27 55 bf 03 ab ab bd
       0.14116591 0.17190938 -0.83263415 -0.08382227
0000e0 e4 06 2c be 1d 50 7c 3c 55 b8 19 3f a3 63 2f 3e
       -0.16799504 0.01539996 0.60046893 0.17127852
0000f0 80 0e 58 bd 32 69 60 3e c2 bc 3c 3e 9b e8 13 bf
       -0.052748203 0.21915129 0.1843138 -0.577768
000100 61 be e4 bd ac 1f 4b 3e 66 c3 d4 3e 2b 3f bb 3e
       -0.111691244 0.198363 0.41555327 0.3657163
000110 b9 01 19 3e b9 c4 38 3e c1 90 ce 3e e4 87 99 bd
       0.14942063 0.18043794 0.40344813 -0.07496622
000120 de 5d 0d 3f b1 3c 30 be b5 40 ab 3d 98 5f 40 bf
       0.55221355 -0.17210652 0.08361951 -0.75145864
000130 04 c2 09 bf 48 1d f9 3e 56 d8 b6 3d c9 dc 82 3d
       -0.5381167 0.48655152 0.089279816 0.06389768
000140 7d cc a8 3e f3 83 99 3f c6 19 6e 3f 11 ec 59 bf
       0.32968512 1.1993393 0.9300808 -0.85125834
000150 12 b6 9b 3d 98 71 5c bd 38 83 ad bf 63 52 d3 bd
       0.076030865 -0.05381927 -1.355567 -0.103184484
000160 12 94 95 3e d1 7a 26 3e 84 b3 e1 3d 01 4d 0b bf
       0.2921453 0.16257788 0.11020568 -0.54414374
000170 59 0a a7 bf c6 33 f5 3d a0 3b c4 bd 02 fa a9 bf
       -1.3050033 0.119727656 -0.09581685 -1.3279421
000180 9a 25 f1 bd fd cf 28 3f 20 6c 90 bf e7 e1 42 bf
       -0.1177475 0.65942365 -1.1282997 -0.7612595
000190 f2 51 3d be 09 76 1b 3e 8f 90 17 3e 08 cf 4e bd
       -0.18488291 0.15181746 0.14801238 -0.05049041
0001a0 d0 76 b8 bc d0 6e 65 bc 88 b8 db bd fd 27 17 3e
       -0.022517592 -0.014003471 -0.10728556 0.14761348
0001b0 60 7e 44 bd 15 65 3e be 50 ce a6 bc 11 b3 a1 3d
       -0.047972083 -0.18593247 -0.02036205 0.07895482
0001c0 52 1b 0a be 40 2a 36 bd 34 25 2f 3d 4a 3a 27 bd
       -0.13486984 -0.044473886 0.04276009 -0.040827073
0001d0 64 8b 7b 3d 11 df 22 be 58 77 1d be 57 74 ea bd
       0.06141223 -0.15905406 -0.15377557 -0.11447971
0001e0 76 71 30 3e 6d 9e d4 bd 0b 5a 4d bc aa be e5 bd
       0.17230782 -0.1038178 -0.012533675 -0.11218007
0001f0 6c 29 7a bd bd 72 13 be b2 0b 0c be 58 90 fe 3d
       -0.06107466 -0.14399238 -0.13676336 0.12429875
000200 40 bd 95 3b 50 d3 c5 3e 74 f8 8b 3c 43 17 d4 3e
       0.0045696795 0.3863778 0.017086245 0.41423997
000210 fe b9 62 3d 23 d6 c3 be e7 14 64 3d c6 74 0a be
       0.055353157 -0.3824931 0.055683997 -0.13521108
000220 e4 23 d1 3d 13 1f 1c be 0d de b4 3e e9 3a 20 3e
       0.10211924 -0.15246229 0.3532566 0.15647472
000230 48 10 03 be 1a 42 f2 bd ed 0b a1 be 6a d3 8e 3d
       -0.1279918 -0.11829014 -0.3145441 0.06973918
000240 4a 17 ce 3d 83 e0 36 be 50 d4 dd 3c d2 4d e1 be
       0.10063036 -0.17859082 0.027078778 -0.44004685
000250 3d 6b 7b be a0 3b f6 3d 67 f9 de bd b2 58 91 3d
       -0.24552627 0.12023091 -0.108874135 0.070969954
000260 ce 55 9f 3d 25 bb 3a 3e 2e 75 d1 3d be 19 a3 3d
       0.07780038 0.18235452 0.102274284 0.07963894
000270 71 87 4c 3e bd f2 1b be 28 16 9c bc e8 7e 2b bd
       0.19973542 -0.15229316 -0.019053534 -0.041869074
000280 b3 60 b6 bd a1 8e 03 3e b4 8b 19 3d c0 22 97 bc
       -0.08905163 0.12847377 0.037486747 -0.018449187
000290 a0 f4 5a 3c 27 45 a7 bd 88 67 56 bd b0 11 b8 bc
       0.013363987 -0.08167487 -0.05234483 -0.022469372
0002a0 25 b0 3c 3e 8a 48 ba bd f7 44 c2 bd f3 48 16 be
       0.18426569 -0.09095867 -0.0948581 -0.14676265
0002b0 37 46 31 be 90 7b 2e be 68 82 38 bd 82 d5 1f bc
       -0.17311941 -0.17039323 -0.04504624 -0.009755494
0002c0 a7 ce d0 be 2c 16 d7 c0 00 ca 35 3b 7c 77 ba 3e
       -0.40782663 -6.7214565 0.002773881 0.36419284
0002d0 78 b2 28 3f a8 e7 dc bf 6c 62 45 bf 3d b6 de 3d
       0.6589732 -1.7258196 -0.77103305 0.10874603
0002e0 ac 6e eb be 17 a5 29 3e a5 40 fa c0 b2 2c c5 3d
       -0.45982873 0.16566883 -7.820391 0.096276656
0002f0 4a 5b 9f bf 87 a0 f1 bd be b7 4d bf 4b dc ab 3d
       -1.2449734 -0.11798196 -0.80358493 0.08391627
000300 81 55 cf bf f2 82 ee 3d 2c 36 1c 3d 6e 9f 69 3f
       -1.6197969 0.116460696 0.0381376 0.91258895
000310 f3 ed 42 3e b0 ef 1d 3f 35 18 49 3e b9 66 19 c0
       0.19036083 0.6169386 0.1963814 -2.3968947
000320 90 1c e2 bc 59 7d 12 3e ee c8 b5 3d 27 eb 32 3e
       -0.02760151 0.14305629 0.08876215 0.17472516
000330 ec 8d 04 bd ca 3a 8b 3d 3e bf fb 3d 68 d6 3c 3d
       -0.03236191 0.067983225 0.12292336 0.04610291
000340 6a f7 91 bd aa c4 c4 3d dd c2 2a be 28 c5 44 bd
       -0.071272686 0.09607823 -0.16675897 -0.048039585
000350 b2 c0 a7 3d 0c 05 25 3d a8 c0 3c bd 17 e8 30 be
       0.081910506 0.040288016 -0.04608217 -0.17276035
000360 c5 34 23 be 87 3c c2 bd fa d3 3f be 29 94 2b 3e
       -0.15938099 -0.09484201 -0.18733206 0.16755737
000370 74 80 04 3d 9a 32 a1 bd 3d e1 ae bd e8 89 13 bd
       0.032349065 -0.078709796 -0.085390545 -0.03602019
000380 22 a4 a5 3d 3f a3 93 bd d4 83 ba 3d 90 00 a6 bd
       0.080879465 -0.07208871 0.091071755 -0.08105576
000390 fd e3 0b 3e 49 27 13 3e 3b f3 ee 3d 0d 60 76 bd
       0.1366119 0.14370455 0.11667486 -0.060150195
0003a0 bd dd 03 3e d8 a4 d6 bd 5d ff 4b be 40 b5 3b be
       0.12877555 -0.1048066 -0.19921632 -0.1833086
0003b0 45 e7 a9 3d 50 c6 b5 bc 6d 08 00 be d0 a1 0a be
       0.08296064 -0.02218929 -0.12503214 -0.13538289
0003c0 2c 44 8b bd a9 77 dd bd 32 5c 47 be d4 39 6a 3d
       -0.06800112 -0.10813839 -0.19468763 0.057184055
0003d0 c2 c5 d4 3d 15 0e 51 3d 31 4e 4a 3e a1 d8 cb bd
       0.10389282 0.05103882 0.1975639 -0.09953428
0003e0 a2 d2 0a be ab 97 c5 3d 5b 50 17 be 1e 6f 0c be
       -0.13556913 0.09648069 -0.14776747 -0.13714263
0003f0 ce cd 9f bc 58 f6 80 3c 9c dd 3a bd b4 73 72 be
       -0.019507315 0.015742466 -0.0456215 -0.2367695

network.fc2.bias f4 [25]
000000 82 85 89 3e 96 45 82 be bf 18 f0 3e ba 2c 5a 3f
       0.2685967 -0.25443715 0.4689388 0.852245
000010 75 96 f7 bd 89 d0 83 3e e7 4e 4a be 4c c2 59 bd
       -0.12089244 0.25745037 -0.19756661 -0.05316381
000020 5a fe 19 be cc 8b 9a bc d8 4a e2 bd 36 55 f9 be
       -0.15038434 -0.018865488 -0.110494316 -0.48697823
000030 7a 52 b6 3e a1 39 d5 be 8d fb 35 3f 40 95 6e 3e
       0.356098 -0.4164553 0.7108696 0.23299122
000040 60 e3 40 3d 83 d3 4f 3f 2c c8 5e 3e 81 3b 0d 3e
       0.04709184 0.81182116 0.21756047 0.1379223
000050 e8 e2 8b 3d 93 b0 f1 bd 62 be 2e 3f 24 dd 67 bc
       0.06830388 -0.11801257 0.6825925 -0.014151845
000060 c9 61 0c 3f
       0.5483671

network.fc3.weight f4 [250, 25]
000000 f7 70 50 bd 03 95 fd bd 11 bf bd 3e fd 29 52 3d
       -0.05088898 -0.12381937 0.37059835 0.051309574
000010 47 59 6d 3b a6 cf bc 3e c2 fc b3 3d 5e ff 30 be
       0.0036216544 0.36877173 0.08788444 -0.17284915
000020 c0 83 cf bb de 81 d7 bc a5 5b 94 bc a9 d0 ae bd
       -0.0063328445 -0.026307043 -0.018110106 -0.085358925
000030 a1 2a bf bd 53 4d 0e bd ad 82 12 be f5 dc 3d 3d
       -0.09334303 -0.03474171 -0.14307661 0.0463533
000040 32 e7 2e be 8c fc 30 bd ed 80 01 3e 88 16 4c 3d
       -0.17080382 -0.043209597 0.12646838 0.049826175
000050 a5 1f 40 3c d5 e4 90 bd 08 a9 21 3e d1 48 fe bd
       0.011726295 -0.07074896 0.15787137 -0.124162324
000060 f5 05 a4 bd ac 39 a2 bd ad d1 a8 bd f2 55 df 3e
       -0.08008949 -0.07921156 -0.082431175 0.4362026
000070 12 50 a4 3c 27 6f bf bd 7c 4e e4 3e 54 6f 65 bd
       0.020057712 -0.093473725 0.4459113 -0.056014374
000080 11 c9 05 be 54 16 14 bd 04 40 45 be 98 7e 88 3e
       -0.13064982 -0.036154106 -0.19262701 0.26659083
000090 7f b1 79 bd 68 76 5f bd 49 3a 84 bd c6 cb 39 be
       -0.06096029 -0.05455628 -0.064564295 -0.1814414
0000a0 b4 11 58 bc d3 8d 8d 3c d2 a9 7a bd d2 e6 f3 3d
       -0.0131878145 0.017279541 -0.06119711 0.1190926
0000b0 fa 9b 49 3c 65 e2 51 bc 6d 4e 54 bd 90 df 51 3e
       0.012305254 -0.012810324 -0.051832605 0.20495439
0000c0 b1 af e7 bd 12 1b 08 bd f6 cf d3 bd bd 6c ae bd
       -0.11312807 -0.03322894 -0.103424 -0.08516834
0000d0 15 08 e3 3e 66 5f 99 ba 50 ba fb 3d 29 85 ef 3e
       0.44342104 -0.0011701405 0.12291396 0.4678128
0000e0 e1 e5 29 3e dc f7 b2 bd 58 ca 8d bc b3 8e 50 bb
       0.16591598 -0.08738682 -0.0173084 -0.0031823337
0000f0 61 d9 cf 3d 9a 78 82 bd df f7 53 bd 6b f9 84 bd
       0.101488836 -0.06370659 -0.05175006 -0.06492885
000100 93 da 13 be b7 43 03 bd 5b f6 c8 bb 0a ba a9 bd
       -0.14438848 -0.032047 -0.0061328835 -0.08287437
000110 7e 5c 94 3d e3 23 e8 3b 7b 36 3e bc 4b 86 37 bd
       0.07244204 0.007084356 -0.011609669 -0.044805806
000120 47 b2 72 3e 31 d8 ea bd 75 c0 c7 bc bc 0f f7 bd
       0.2370082 -0.114670165 -0.024383763 -0.12063548
000130 c3 2d b1 bd 5d e5 e1 3e e8 61 b0 bb 10 4b b2 bb
       -0.086513065 0.44120303 -0.005382765 -0.005441077
000140 d4 e7 ef 3e 00 f4 e2 3c 85 2d cf bd 58 89 17 bd
       0.46856558 0.027704239 -0.10116104 -0.036996216
000150 ab c4 fb bd 60 c5 4e 3e 17 40 a0 bd dd 2b 84 bd
       -0.12293371 0.2019248 -0.07824724 -0.06453679
000160 ae 09 95 bd 57 7c 10 be fc aa 41 bd c5 3d 7f bd
       -0.07277237 -0.14109932 -0.047282204 -0.062314767
000170 fe 50 9e bd 7c f5 1a 3d ee 0c 2b 3c ff fa 53 bc
       -0.07730292 0.03783177 0.010440094 -0.01293826
000180 d6 92 19 bd 57 b0 84 3e 1b 13 04 be ff ec 66 bc
       -0.03749355 0.25915787 -0.12897913 -0.01409459
000190 3a 4c fe bd ea d5 ae bd f2 eb e5 3e 5c d6 a0 bb
       -0.12416883 -0.085368946 0.44906574 -0.004908366
0001a0 70 0f b5 bd 52 bb f8 3e f7 b6 ac bd b2 1d d6 bd
       -0.08840835 0.48580414 -0.08433335 -0.10454883
0001b0 50 3e 67 3c 88 da 18 3e 4c 9e aa 3d e3 28 a2 bd
       0.014113978 0.14927113 0.08330974 -0.07917955
0001c0 d9 e8 8a bd c2 be be bd bb 99 21 be 7e 8a 8d bd
       -0.067826934 -0.09313728 -0.157813 -0.06911181
0001d0 28 40 56 3e 3a ab a4 bd 86 1e 13 3d a7 a5 bf 3b
       0.20922911 -0.080404714 0.03591778 0.0058486047
0001e0 c8 a8 7f bc 8a 88 0b bd 5e ba 8a 3e 25 4d 12 be
       -0.015604205 -0.03406576 0.27095312 -0.14287241
0001f0 2c c3 bf 3a 6f 93 e2 bd 92 f4 98 bd cd 03 dd 3e
       0.0014630309 -0.11063277 -0.07468523 0.43166962
000200 70 5e 82 bb 73 15 47 3e fe 55 f3 3e eb d2 0c be
       -0.003978543 0.19441776 0.47526544 -0.13752334
000210 ad 7f e8 bd 35 5a 17 3e e5 55 df bd 3f 57 23 bd
       -0.11352477 0.14780505 -0.10905055 -0.039878126
000220 a6 a6 a6 bd 40 4f 88 bd 58 d1 e0 bd 2c 9d 32 be
       -0.081372544 -0.06655741 -0.10977429 -0.17442769
000230 23 5e a7 bd 8b ab 1d be 06 19 ad bd bd 42 24 3d
       -0.08172252 -0.1539747 -0.084520385 0.04010271
000240 c6 bf 05 3a 67 64 21 bc 4b aa 07 bd c0 63 85 3e
       0.0005102124 -0.009850598 -0.03312139 0.26052666
000250 25 70 1e be 2f 96 1f 3c d3 c3 c9 bd b3 0b 8d bd
       -0.15472467 0.009740396 -0.09851804 -0.06886997
000260 cf 61 d6 3e ee cf 0f 3b 91 4b 24 3e a1 3f e7 3e
       0.41871497 0.0021944004 0.16044451 0.45165733
000270 0a f8 d8 bd 9c 94 e0 bd 10 66 a2 3c 6d d2 2f 3e
       -0.10594185 -0.10965845 0.019824058 0.17170115
000280 69 01 ff 3d 5b eb c5 bd 90 62 86 bd f3 79 02 be
       0.12451441 -0.09664031 -0.06561768 -0.12741832
000290 c2 87 42 be 02 c3 aa bd cd 55 c2 3d 61 0c c0 bd
       -0.189971 -0.08337976 0.094890215 -0.09377361
0002a0 7c 57 41 3d 84 79 33 3b cb c6 07 bc bc 89 0e bd
       0.047202572 0.0027385661 -0.008287142 -0.034799322
0002b0 f5 42 89 3e e5 f8 2b be e5 a8 0f 3c 10 cb 95 bd
       0.26808897 -0.16794164 0.008768295 -0.07314122
0002c0 53 8e 84 bd ff 44 c9 3e 02 cc 94 3b b3 70 8d 3d
       -0.06472459 0.39310452 0.004540921 0.06906261
0002d0 8a 32 d1 3e b0 46 c4 bd d6 bd c3 bd 83 8d d9 bd
       0.4085887 -0.09583795 -0.09557693 -0.10622694
0002e0 b3 51 1c be f4 ea 76 bd 44 d1 c7 bd d7 ce 82 bd
       -0.15265541 -0.060282663 -0.09756711 -0.06387108
0002f0 a5 fb 08 be 03 de 40 be c3 69 9c bd d6 7e b0 bd
       -0.13377245 -0.18834691 -0.0763736 -0.08617942
000300 f0 54 be bd 98 bb 3a 3d 67 e6 59 3b aa cc 59 ba
       -0.09293544 0.04558906 0.0033248903 -0.00083083904
000310 49 44 0f bd 36 d0 82 3e e9 58 2d be 9f 26 dd 3b
       -0.03497723 0.25549477 -0.16928448 0.0067489888
000320 36 17 7a bd f5 a6 76 bd 60 a0 c2 3e cd bb 8c 3c
       -0.061057292 -0.060217816 0.3801298 0.017179394
000330 49 67 b3 bd 2f 5f bf 3e 00 27 d1 bd 63 d1 c8 bd
       -0.087599345 0.37377307 -0.10212517 -0.09805562
000340 f0 94 b5 bd 70 2b d7 3d 06 b1 10 3e ea 64 d2 bd
       -0.08866298 0.10506332 0.14130029 -0.10273154
000350 d9 ae 8a bd 95 9e 0a be de 3f 4b be 6c 42 8b bd
       -0.06771631 -0.13537057 -0.19848582 -0.06799778
000360 77 04 eb 3d 1b b2 b6 bd 8e 4d 59 3d 27 b6 82 3b
       0.11475461 -0.0892069 0.053052478 0.0039889994
000370 c0 87 df 35 e3 09 09 bd b1 26 7b 3e ec 1f 34 be
       1.6654303e-06 -0.033456694 0.24526478 -0.17590302
000380 dd b8 7e 3b 9c 26 3a bd 22 74 5c bd 8a 21 bb 3e
       0.0038867511 -0.045446977 -0.05382169 0.36549026
000390 5c a0 a1 3c a3 bf 78 3d 51 2c b0 3e 51 74 11 3e
       0.019729786 0.060729634 0.3440881 0.14204527
0003a0 92 62 d7 bd 3f c5 24 3e c4 48 09 bc 2a d5 2d bc
       -0.10516848 0.16090868 -0.008379165 -0.010609904
0003b0 d4 cc e0 bd a4 11 8f bd 13 19 0e be 97 02 54 be
       -0.10976568 -0.069857866 -0.13876753 -0.20704113
0003c0 60 fd 67 bd 13 26 b1 bd 87 12 b1 bd f5 54 7f 3d
       -0.05663812 -0.0864984 -0.08646112 0.06233688
0003d0 cf 70 9b 3b dc 0f 75 3b 52 bd 0d bd c0 57 71 3e
       0.0047436724 0.0037393486 -0.034604378 0.2356863
0003e0 2c d1 34 be 17 20 92 bb 26 dc 02 bd 6e 07 5e bd
       -0.17657918 -0.004459392 -0.03194823 -0.054206304
0003f0 c2 95 b2 3e ab de cf 3c 30 82 f1 bd 10 4e a6 3e
       0.3487988 0.025374731 -0.117924094 0.32481432

network.fc3.bias f4 [250]
000000 b5 0a ac 3e c8 91 9a 3e 80 a9 93 3e 15 f2 91 3e
       0.3360192 0.30189347 0.28840256 0.28505006
000010 d2 0d 95 3e 54 4c 9b 3e 71 f1 ab 3e 5f fd b3 3e
       0.29112107 0.3033167 0.33582643 0.35154244
000020 d0 34 b8 3e 63 a1 c0 3e 3f c2 c3 3e 72 d6 d0 3e
       0.35977793 0.37623128 0.38234136 0.4078861
000030 7f 03 d1 3e f2 39 d4 3e a1 dc de 3e 8b cb e4 3e
       0.4082298 0.4145046 0.43527701 0.4468654
000040 a3 b8 e2 3e f8 99 e3 3e 1f c4 e6 3e cd 09 ea 3e
       0.44281492 0.44453406 0.45071504 0.45710602
000050 c8 7f f2 3e 1b ca f4 3e 9f b1 f5 3e 35 78 f6 3e
       0.47363114 0.47810444 0.47987077 0.48138586
000060 4b 7a fe 3e cf 2f fd 3e 02 63 00 3f ac 59 05 3f
       0.49702677 0.49450538 0.50151074 0.52089953
000070 2d a7 07 3f ee e4 09 3f 10 a6 09 3f a4 24 0a 3f
       0.52989465 0.53864944 0.53769016 0.5396216
000080 dd 00 0c 3f 09 e5 0c 3f 80 e2 0d 3f d2 d6 0e 3f
       0.5468882 0.5503698 0.55423737 0.5579654
000090 af 77 0e 3f 13 b5 11 3f 95 e6 14 3f 7b a7 14 3f
       0.5565137 0.5691692 0.5816434 0.58068055
0000a0 d8 1b 14 3f 2b b4 14 3f a2 e4 18 3f 07 00 1a 3f
       0.57854986 0.58087415 0.59723866 0.6015629
0000b0 76 77 1b 3f bb 79 1c 3f 31 76 1a 3f 1a d9 1b 3f
       0.6072916 0.61123246 0.60336596 0.60878146
0000c0 f4 1b 1d 3f 63 a5 1c 3f f0 8e 1c 3f ef 3e 1e 3f
       0.6137078 0.6118986 0.61155605 0.6181478
0000d0 ca 49 1f 3f 16 91 1e 3f 3c 8e 1e 3f cc 5b 1f 3f
       0.6222197 0.61940134 0.6193578 0.62249446
0000e0 03 76 1e 3f 70 3d 1e 3f 63 36 20 3f a5 19 21 3f
       0.6189882 0.61812496 0.6258299 0.62929755
0000f0 76 fe 21 3f 84 23 22 3f 30 a3 20 3f 1d 35 20 3f
       0.632789 0.6333544 0.62749004 0.62581044
000100 cc d3 22 3f c4 c1 21 3f 61 90 1f 3f 4f f8 22 3f
       0.63604426 0.6318629 0.6232968 0.6366014
000110 4e 90 23 3f d7 6a 21 3f 04 15 22 3f ee 2f 21 3f
       0.63892066 0.6305365 0.6331332 0.6296376
000120 76 f4 22 3f c9 98 21 3f 16 9c 21 3f 57 d9 21 3f
       0.6365427 0.63123757 0.63128793 0.6322226
000130 b3 ee 1e 3f c6 c6 1f 3f 12 ae 1e 3f 26 7e 20 3f
       0.62082976 0.6241268 0.6198436 0.6269249
000140 ab d4 21 3f 16 aa 1f 3f 02 1f 21 3f dc 23 21 3f
       0.6321513 0.62368906 0.6293794 0.6294534
000150 34 88 21 3f 8e a5 21 3f 7c 60 23 3f 89 92 23 3f
       0.63098454 0.6314324 0.638191 0.6389547
000160 7d 94 22 3f 39 1f 23 3f 30 0c 25 3f e5 f5 23 3f
       0.63507825 0.63719517 0.6447172 0.6404708
000170 44 c6 24 3f 7a 70 21 3f a2 4a 23 3f 51 63 22 3f
       0.6436503 0.6306225 0.63785756 0.63432795
000180 bd 61 22 3f bb 81 1e 3f cc 82 22 3f 2f bb 23 3f
       0.63430387 0.61916703 0.6348083 0.63957494
000190 2a 76 21 3f 76 f2 22 3f da 5b 20 3f 5b 2e 1f 3f
       0.6307093 0.63651216 0.62640154 0.6218011
0001a0 9f 50 22 3f 46 f9 20 3f 22 22 23 3f 6e 73 1c 3f
       0.6340427 0.6288036 0.6372396 0.6111363
0001b0 93 e1 1a 3f 92 c4 1e 3f 4e ac 1f 3f 97 4e 22 3f
       0.6050045 0.6201869 0.6237229 0.6340117
0001c0 52 e3 1c 3f 46 77 1d 3f 4c 46 21 3f f8 a9 1f 3f
       0.61284363 0.6151012 0.6299789 0.62368727
0001d0 e2 b7 1e 3f 89 1f 1c 3f ae 49 1b 3f 2c 1d 1d 3f
       0.6199933 0.6098562 0.606593 0.6137264
0001e0 60 2c 1d 3f 62 61 1d 3f 9f 7b 1c 3f d7 ec 1d 3f
       0.61395836 0.6147672 0.6112613 0.61689514
0001f0 66 ff 1a 3f a8 ce 1b 3f 4c 43 18 3f b1 ee 1a 3f
       0.6054596 0.6086221 0.59477687 0.60520464
000200 f6 cb 19 3f a5 af 1c 3f b2 23 1a 3f 03 14 16 3f
       0.60076845 0.6120551 0.60210717 0.58624285
000210 ac 1f 19 3f 54 a4 19 3f 18 55 1a 3f 53 ba 18 3f
       0.5981395 0.6001637 0.6028609 0.5965931
000220 31 55 1a 3f 91 71 1b 3f 81 fe 1a 3f e9 bc 15 3f
       0.6028624 0.60720164 0.6054459 0.5849138
000230 0b ac 19 3f 97 3f 17 3f 23 37 18 3f 8a 74 18 3f
       0.6002814 0.59081405 0.5945913 0.59552824
000240 3b b4 16 3f b6 d5 16 3f 82 5d 15 3f 65 a0 15 3f
       0.5886876 0.58919847 0.58345807 0.5844787
000250 38 9a 13 3f 79 54 17 3f c8 37 16 3f f2 31 13 3f
       0.57657194 0.5911327 0.58678865 0.57498085
000260 f3 dd 15 3f 8d 2e 13 3f 88 65 12 3f e0 2a 15 3f
       0.5854179 0.57492906 0.57186174 0.5826855
000270 79 d8 11 3f fc 2a 15 3f 5d a4 13 3f 31 5c 12 3f
       0.56970936 0.58268714 0.57672673 0.5717192
000280 94 7e 12 3f 38 29 15 3f cb 50 13 3f 9f 0c 13 3f
       0.5722439 0.5826602 0.57545155 0.57441133
000290 e2 dd 10 3f 63 96 13 3f e7 13 13 3f 66 9e 0e 3f
       0.56588566 0.57651347 0.57452244 0.55710447
0002a0 a1 d8 11 3f e0 7c 13 3f 44 4e 14 3f 1d 67 11 3f
       0.56971174 0.5761242 0.57931924 0.56797963
0002b0 aa 76 15 3f c2 71 11 3f b5 6a 0f 3f e4 33 11 3f
       0.5838419 0.56814206 0.56022197 0.56719804
0002c0 d7 f1 0e 3f f8 9f 0f 3f d8 42 0f 3f 54 c2 0e 3f
       0.5583777 0.5610347 0.5596137 0.5576527
0002d0 93 13 12 3f 34 00 11 3f d7 97 0e 3f cf e3 0b 3f
       0.5706112 0.56640935 0.5570044 0.54644483
0002e0 9d bd 0b 3f 20 1f 0e 3f c7 31 09 3f 71 b5 0d 3f
       0.545862 0.55516243 0.5359158 0.5535498
0002f0 f0 65 0d 3f 7c e3 0f 3f 89 bc 0c 3f 70 5e 10 3f
       0.5523367 0.5620649 0.5497518 0.563941
000300 95 c3 0a 3f 85 5e 10 3f 1a 27 0a 3f 52 d8 0b 3f
       0.54204684 0.56394225 0.53965914 0.54626954
000310 3d 71 0e 3f 4d 2d 0c 3f 34 ac 0b 3f 25 a6 04 3f
       0.5564154 0.54756624 0.54559636 0.51816016
000320 fe 7d 07 3f af 65 51 3f 72 5e 07 3f 53 b8 0b 3f
       0.52926624 0.8179578 0.5287849 0.5457813
000330 65 af 08 3f bc d3 08 3f 68 9e 03 3f 5f 68 07 3f
       0.5339263 0.5344808 0.51413584 0.5289363
000340 cf b6 09 3f 0d 18 07 3f 0a 35 0c 3f 2e bb 07 3f
       0.5379457 0.52771074 0.5476843 0.5301999
000350 a6 fb 07 3f 34 31 05 3f d3 3d 08 3f 4c 6c 04 3f
       0.5311836 0.52028203 0.53219336 0.5172775
000360 cb e3 06 3f 63 7d 05 3f 45 63 03 3f 88 e2 01 3f
       0.52691334 0.5214445 0.5132335 0.50736284
000370 2e 95 07 3f db cb 03 3f 00 b9 07 3f bc 37 02 3f
       0.52962005 0.51482934 0.5301666 0.50866294
000380 06 25 08 3f 8a e9 01 3f 87 1c 09 3f 8f 86 02 3f
       0.53181493 0.5074698 0.53559154 0.5098657
000390 16 99 f9 3e f0 89 06 3f 21 54 05 3f 72 3f 00 3f
       0.48749608 0.52554226 0.52081496 0.5009681
0003a0 c9 00 00 3f 13 00 fe 3e 53 4d fb 3e 47 ad 01 3f
       0.500012 0.49609432 0.4908243 0.50655025
0003b0 df e4 f7 3e 3f de 00 3f bc 0e fd 3e 71 af fd 3e
       0.48416802 0.5033912 0.49425304 0.49547914
0003c0 ff 47 ff 3e 1f fc ff 3e 85 7d f6 3e ca 69 03 3f
       0.49859616 0.4999704 0.4814264 0.51333296
0003d0 e0 c2 ff 3e f3 c8 f7 3e 95 35 f7 3e 70 d1 fa 3e
       0.49953365 0.483955 0.48283067 0.48987913
0003e0 3f a2 01 3f bc e1 f8 3e
       0.5063819 0.48609722
