Week8/PBNN/EPSD plot/EPSD_Data/model_for_TimeEnv_500epoch.pth (torch, 29062 bytes, 6 tensors)

network.fc1.weight f4 [25, 6]
00000000: a229 293f e847 5dbf b934 ed3d d21e 3c3d
00000010: 3098 cd3d bf92 023d 9c7a 13bf 4bed dd3e
00000020: 1b85 8bbe 9b28 f33d e190 443d 2971 5cbe
00000030: 5c09 da3e 1c76 9dbd 7e31 e33d c6ae 863c
00000040: 4be0 533f 8f19 893e 5999 773e 2f05 c43e
00000050: 9c4e a5be 4f5d 3ebe e369 b93d 8ba4 fdbc
00000060: bd17 d43e 2295 dfbe 9b5b 6dba eb01 f93d
00000070: a0d9 623d 662d 2f3d 96d8 63be 22fb a0bf
00000080: abf7 df3c 0e10 fe3c fea8 603e 5d33 86bd
00000090: 8f99 a7be 771b ad3c e9c8 27be 0759 61bc
000000a0: c940 28be 1527 5bbf 8eb4 363e 2423 7a3e
000000b0: b0e8 ac3d 8f52 653b 9696 4dbf 502d 74be
000000c0: f050 513d 8c18 063e 9679 a2bd 75b2 1ebd
000000d0: 9f4a 0abf 7c0e 8d3f c378 923e 7d85 44be
000000e0: 0cf8 21bf ac51 38bd e744 0b3f ae9a 07bf
000000f0: 5c9b 4abf 4201 be3d ece1 9a3c 65dd 52bc
00000100: dfd0 47bf edbf da3e ba1c 7dbe 1faf 02bf
00000110: b199 b2be 041d 433e 5b94 363c 2954 443d
00000120: 0349 b03e 5212 003f 78f9 d0bd eadd ba3c
00000130: de72 d1bd b339 febe 3f14 a9bf 31ba 07be
00000140: fe07 c1bd 67e5 15bd d37f 223f bbd6 d03d
00000150: ab53 ac3d a677 b53e 41f7 5fbd 9f2a c13e
00000160: 91f2 90bd 05a9 843e e156 5dbf 9fdd 6dbd
00000170: 3c33 593d 14bb 3b3c f673 f13e e429 e03e
00000180: 38b1 203e 3afe c9be f03b 69be e53b 7cbe
00000190: 02e9 39be 886a 033f 732a 933f 7bdf 7d3e
000001a0: 79e3 db3c 4375 88bd ddfc a6bd 6a3f 2a3d
000001b0: 455d a2be 811c 043e 94af 01be b66d ab3c
000001c0: 8706 0c3f 5851 b5be f637 a23f 2aeb ff3d
000001d0: cf7b 90bd 8643 11bc eb68 7b3f 1bdd d63d
000001e0: 27ca 36bf 6e7d 86be d9c3 b7bc 336f b1bc
000001f0: 2715 73bf 2a6d c03e 133b 3fbf 61ea 0a3f
00000200: 4b4c 163e b000 8a3d 067c b83e 8032 4bbe
00000210: e290 bbbe a8af bf3e 080f 6abe b6af e8bc
00000220: 594c 1d3c 6a8b 1cbc 95fb 2bbf 2298 193d
00000230: 64f4 1c3e d855 373c 062b 7bbf 06a8 efbe
00000240: 4ddb cd3e df4a 68be 1f56 b23d 7303 db3d
00000250: f82c 70bf e193 f83e
0.6607915 -0.86437845 0.11582322 0.04592783 0.10038793 0.03187823 -0.5760896 0.43345103
-0.2724999 0.11872979 0.04798973 -0.21527542 0.42585266 -0.07688543 0.11093424 0.01644076
0.8276412 0.26777312 0.24179591 0.38285205 -0.32286537 -0.18590282 0.090533994 -0.03096225
0.4142436 -0.43668467 -0.0009054483 0.12158569 0.055383325 0.042767905 -0.2225059 -1.257664
0.027339777 0.031013515 0.21939465 -0.065527655 -0.32734343 0.02113126 -0.16385235 -0.013754136
-0.16430964 -0.8560651 0.17842314 0.24427468 0.08442819 0.0034991836 -0.803079 -0.2384541
0.05110258 0.13095301 -0.07933347 -0.03874441 -0.5402011 1.1020045 0.2860776 -0.19191547
-0.63269114 -0.044999763 0.5440201 -0.529704 -0.7914331 0.09277584 0.018906556 -0.012870167
-0.78053087 0.42724553 -0.2471799 -0.51048464 -0.34882882 0.19054037 0.011143769 0.047931824
0.34430704 0.50027955 -0.102038324 0.022810895 -0.10226987 -0.49653396 -1.3209304 -0.1325462
-0.094253525 -0.03659573 0.63476294 0.101972066 0.08414396 0.35442847 -0.05467916 0.3772783
-0.07077516 0.25910202 -0.8646069 -0.058072682 0.053027377 0.011458177 0.47158784 0.4378196
0.15692604 -0.39451772 -0.2277677 -0.24632223 -0.18155292 0.5133443 1.149733 0.24792282
0.026841866 -0.06662991 -0.081536986 0.041564383 -0.31711784 0.12901498 -0.12664634 0.020926338
0.5469746 -0.35413623 1.2673328 0.12496026 -0.070548646 -0.0088661965 0.9820697 0.10491391
-0.7140221 -0.2626757 -0.022432255 -0.02165947 -0.9495415 0.37583286 -0.74699515 0.54263884
0.14677541 0.067384124 0.36032122 -0.19843483 -0.36633974 0.37438703 -0.22857296 -0.028404098
0.009600722 -0.009554723 -0.6718076 0.0374986 0.15327603 0.0111899 -0.98112524 -0.4680788
0.40206376 -0.22684811 0.087078325 0.10694017 -0.93818617 0.48550323

network.fc1.bias f4 [25]
00000000: 7a32 91be a31f a83e affd ab3e 1b17 6a3e
00000010: c00f 213f 5ed5 0cbf f8de 753e 1cb2 5f3e
00000020: 1b93 eabe 94c3 3b3f ffe3 02be b088 0d3e
00000030: 3752 a9be e0a1 ed3c 9a57 c73e 747d 2c3f
00000040: 872d 8f3e 104a babf 5153 0b3f 633b abbe
00000050: 76ea b4be a30a 4ebf 65b5 ea3e a949 f5bd
00000060: 7143 5fbf
-0.28358823 0.32836637 0.33591983 0.22860377 0.6291466 -0.5501307 0.24010837 0.21845287
-0.45815358 0.73345304 -0.12782286 0.13821673 -0.33070537 0.029007852 0.38934022 0.67378926
0.27964422 -1.4553852 0.54424006 -0.33443746 -0.3533513 -0.8048498 0.45841518 -0.1197694
-0.8721228

network.fc2.weight f4 [25, 25]
00000000: 1e12 10be 7e04 82bf 432d d6bd fadf cbbd
00000010: c226 35bd ce48 babd 2ea0 3e3f 89d7 41be
00000020: ca0d 2bbe 8106 653e 01e2 023f 8774 8a3d
00000030: e26e 833e c2dc 82bf 470f 093e 7d03 293f
00000040: 4c85 f03d 1993 ae3d 6c17 00be 54d1 fc3e
00000050: 88f8 98bf b460 b73d 62fb 163f 5797 e3bf
00000060: 966d 943e 31be 87be b191 eabd fdaa 4f3c
00000070: 774f b03e 7aea 0d3f 8e05 603d ad33 4fbe
00000080: 623e 133f 22b8 e3bb 9c6c 7b3e 25d1 35be
00000090: 7177 d43e 6c85 023e a656 ebbe ebb3 a0bd
000000a0: 5e65 2f3e 5435 73bd e20c cebf 2962 ab3e
000000b0: faba 95bf 5ae2 9f3d 0b43 893e 49b4 d23c
000000c0: a548 82be 0bf8 5dbf 41a4 2abe 4ca5 9fbf
000000d0: b5f4 dfbb 9b33 263d ed01 aa3c 9fd9 cb3c
000000e0: 63f9 f13e 02b6 e83e 4a91 85bf f32c 4abe
000000f0: c8c1 cd3f 0b21 2c3f 9b47 82be 673e 78bf
00000100: d9c9 74be a7b1 e6be 53f4 233e 85f6 7dbf
00000110: 0264 d8be b236 e33e 5d3d 043e ad13 c7bd
00000120: fefc cdbf a43b d0bf 9bb0 9d3e 7c33 293d
00000130: 9fa2 1dbc 032d 103e 4042 813e 0575 d13e
00000140: ae62 a7bd 3cf6 013f b576 39be 9a7e fabd
00000150: bbaf 433f 6a3a 01be e7d2 0abd f424 6dbd
00000160: 8670 25bf bcad 5e3e e812 1dbf 625d e73e
00000170: 327e 24bf f9a2 ebbd 1359 1ebf 9b2b 523e
00000180: 343c c1be 5664 203f 2a0a 363e d603 653e
00000190: 410e 31bd 253c 6bbf 4a6a 1d3f 884f 0fbe
000001a0: 5ce0 acbc 234a 193e 23d1 013f 980f 203e
000001b0: 13bc 6dbe c382 d5bd 49f4 aa3d 5586 09bf
000001c0: 1c4d 133e 061b e7bf d919 843e bd63 84bf
000001d0: ef1a 4f3e ec06 a9be b902 613e 920a 0f3d
000001e0: 2553 833f e2d8 06bf c527 503f 24d2 62bf
000001f0: 067e fbbd 923a 213e 2664 1abf 981d 9abd
00000200: a149 d93e 473b 33be d5d8 793f a85f 0b3e
00000210: 498c 293f ed1b d03e 9626 37be 4c77 3fbe
00000220: 737f 8d3e 3d56 ea3e 4323 fa3e 6ce3 cfbe
00000230: bb24 afbe c565 6d3e 81cc 3fbe 7a7e 233d
00000240: 2d69 213e ec6b 90bd f920 523f 6187 cfbe
00000250: ec40 623d 5359 f33d 4bd4 45bf 9c02 c1bc
00000260: ea2a 06bf 36bc cf3e fc41 00be 2ac0 bc3e
00000270: c229 31be 9da2 993e 2400 d63d 0c83 97be
00000280: 14d9 743e ab12 c8be 4374 003f cd26 703e
00000290: 98de 313d f92c fb3e da27 b6be ec6f d53e
000002a0: dafc b6be dd9e 153f aa22 113e 76cc 703f
000002b0: bdbc a7bd 55c6 9e3d 21f6 c43c 7e3a afbd
000002c0: 4a7f 263e 1b92 b1be 614c f7bd 74cf b53e
000002d0: 8d53 e53e b67e 0f3f a3b3 d6bd d5d8 26be
000002e0: 15fd fd3d 2b5b 8cbe 84c7 923e 5c40 2d3e
000002f0: 638a 67bb 2900 5d3f 12c3 3fbd db5b 84bd
00000300: b2af f4bf 0eff c93e 3ace 9d3c 60e7 e23e
00000310: c881 e13e 28e3 18bd fc92 f0be 29c6 29bf
00000320: d18b a4c0 4963 55be dc6b 973e cc64 833d
00000330: 3afa da3d 0d6b 9d3e 1817 b63e 42d3 a63e
00000340: 0c06 0d3f 71e1 e6be 1528 d23c 0912 fbbd
00000350: 84e4 9ebe 3613 e8bd 838d 15be 80b6 9c3e
00000360: 17f3 20bf 5415 a43f 5b01 b03e e0d2 d53e
00000370: b1fa 523e a62d 4b3f c1c0 9b3c 1ca5 123e
00000380: 0c18 763d 17cf a5be 079e 263d 6554 da3d
00000390: 0801 b0bd b18e 98bd cfb5 8e3e 9379 d9bd
000003a0: a828 273f f647 873d 61bb 86bc 51d7 b2bd
000003b0: 2a3b e13e 9ffa a03e 9bbf 2fbf f684 77be
000003c0: 9da8 103f f9d9 81be 4892 b3bf 49d8 763e
000003d0: 1b02 993d 6c9f 243e b159 b2be dcfe 15bd
000003e0: d964 9abe 7147 85be 71c2 ddbe 69a5 01bf
000003f0: ab0b b63e 5d1a 38be 5428 e53d 8af8 a13d
-0.14069411 -1.0157621 -0.10457852 -0.099548295 -0.044226415 -0.09095918 0.74463165 -0.18929876
-0.16704479 0.22365762 0.51126105 0.06760507 0.25670534 -1.022362 0.13384734 0.6602095
0.11744174 0.085241504 -0.12508935 0.49378455 -1.1950846 0.089539915 0.5897733 -1.778056
0.28989857 -0.26512292 -0.1145357 0.012675044 0.34435627 0.5543591 0.054692797 -0.20234556
0.57517064 -0.0069494406 0.2455315 -0.17755564 0.41497377 0.12746209 -0.45964545 -0.07846817
0.17128512 -0.05937703 -1.6097682 0.33473328 -1.1697686 0.07806845 0.26808962 0.025720732
-0.25446048 -0.8670661 -0.1666422 -1.247232 -0.0068345913 0.04057656 0.020752871 0.024884043
0.4726058 0.4545136 -1.0434964 -0.1974371 1.6074762 0.6723792 -0.25445256 -0.9697022
-0.23905124 -0.45057413 0.16011171 -0.99204284 -0.422638 0.44377667 0.12914033 -0.0972055
-1.6092832 -1.6268201 0.30798802 0.041308865 -0.009621291 0.1407967 0.25245857 0.4090959
-0.081731185 0.5076635 -0.1811169 -0.122311786 0.7644002 -0.1261994 -0.03389254 -0.05789657
-0.6462482 0.21745962 -0.61356974 0.45188433 -0.6425506 -0.11505694 -0.61854666 0.20524447
-0.37741244 0.626531 0.17777315 0.22364745 -0.043226484 -0.9188865 0.6149031 -0.13995183
-0.021103077 0.14969687 0.5070974 0.15630949 -0.23216276 -0.104253314 0.08347375 -0.537206
0.14384884 -1.8055122 0.2580097 -1.0342938 0.20225118 -0.33013093 0.21973695 0.03492219
1.0259749 -0.52674687 0.81310683 -0.886019 -0.122798964 0.15744999 -0.60309064 -0.07525176
0.42438987 -0.17503081 0.97596484 0.13610709 0.66229683 0.40646306 -0.17885813 -0.18697852
0.276363 0.4576892 0.48855028 -0.40603197 -0.3420771 0.23183353 -0.18730356 0.03991554
0.15762778 -0.070518345 0.8208156 -0.40532973 0.055237696 0.118822716 -0.7727706 -0.023560815
-0.5240923 0.4057328 -0.12525171 0.3686536 -0.17301086 0.30006877 0.104492456 -0.29592168
0.23910934 -0.39076743 0.501774 0.23452301 0.043425173 0.4905775 -0.3557728 0.41686952
-0.35739785 0.5844553 0.1417338 0.9406198 -0.08190296 0.077526726 0.024043145 -0.085560784
0.16259494 -0.34681782 -0.12075115 0.35509837 0.44790307 0.5605272 -0.10483482 -0.16293652
0.12401787 -0.27413306 0.28667843 0.16919082 -0.0035330288 0.8632837 -0.046816893 -0.064628325
-1.9116118 0.39452404 0.019263376 0.4431715 0.44044328 -0.037326008 -0.4698714 -0.66317993
-5.1420674 -0.20838656 0.29574478 0.0641571 0.10692258 0.30745736 0.35564494 0.32583052
0.5508735 -0.45093873 0.025653878 -0.12259299 -0.3103372 -0.11331789 -0.14604764 0.30607986
-0.62870926 1.2819009 0.34376034 0.41762447 0.20603444 0.7936653 0.01901281 0.14320797
0.060081527 -0.3238456 0.04067805 0.10660628 -0.08593947 -0.07449091 0.27873084 -0.106188916
0.6529641 0.06605522 -0.016446771 -0.087324746 0.4399045 0.3144121 -0.6865174 -0.24171814
0.56507283 -0.25361612 -1.4029016 0.24105944 0.07471105 0.1607644 -0.34834054 -0.036620006
-0.30155066 -0.26031068 -0.4331241 -0.5064302 0.35555777 -0.17978807 0.111893326 0.07908733

network.fc2.bias f4 [25]
00000000: d05d 303e 3b4c 083f 1d38 8f3d e3aa e83e
00000010: 40a2 cfbd 7823 24bf 57ea 43be 0ead 78bc
00000020: e3e3 1abf 1bf6 1fbe 949a f83d 1424 333e
00000030: f6ba 303e 8501 853d a30a a8bd 028b be3e
00000040: 3678 8d3e 7b58 bb3d c7b1 e93e fca6 ac3e
00000050: b345 113f 9ba5 96bb b003 06bc 0cf6 bf3d
00000060: fbf3 163e
0.17223287 0.5324132 0.06993125 0.45442876 -0.101383686 -0.6411662 -0.19132362 -0.015177978
-0.6050398 -0.15621226 0.121388584 0.17494231 0.1725882 0.064944305 -0.08205154 0.3721543
0.27630776 0.09147736 0.45643446 0.3372115 0.5674698 -0.0045973784 -0.00817959 0.093731016
0.14741509

network.fc3.weight f4 [220, 25]
00000000: 90d8 ee3e 2de2 863e 7c1e 143f bfcf 293e
00000010: 6e6b b43d daf2 d23e f47d 203d dfb0 42be
00000020: afb0 adbe aa39 03be b4a9 b43e 6e05 0dbe
00000030: 76a7 28be 7388 8e3e 9b81 80be 84cc 573d
00000040: 745b c0be 8f72 a4bd 36f1 b3be c5d7 3e3e
00000050: a577 2d3e 77fb 6b3e d3e3 153e 3a64 82be
00000060: d154 17bd 43d3 e53e 7f85 8c3e af18 2a3f
00000070: 3e86 263e b7cd 053e 53e0 d53e 195d 193c
00000080: 73b3 4dbe effb a2be 2e98 c0bd c0e6 b83e
00000090: 99e7 c0bd c72b 2cbe dbcd 893e 158d 94be
000000a0: 9ab2 713d 8bf5 b6be 5d19 acbd d6e9 b1be
000000b0: 92c0 563e 2966 2e3e 1ffb 723e 80f1 8bbd
000000c0: 0a01 82be 2f59 66bd 7062 e63e 53e3 9c3e
000000d0: 2559 373f b54e 1a3e 845e 1b3e e385 d13e
000000e0: 509f 0d3c f678 53be 4455 a5be 725c ecbd
000000f0: 7606 b73e 0a03 a6bd 314e 27be 21ab 873e
00000100: d92c 9dbe d736 a83d ed97 b6be cafd d5bd
00000110: 82d8 afbe 695e 693e 1761 1f3e d391 883e
00000120: c2d8 de3d f14e 7fbe 0dee a2bd 1bd2 e53e
00000130: 09be a93e 823a 423f 119f 0d3e 984a 3a3e
00000140: 946f d43e bf9b 003c cbbd 58be 3e41 a7be
00000150: bb03 15be b1c6 b53e 0c42 99bd 5b9a 1dbe
00000160: 2f5f 843e 34e3 9fbe a39e cb3d 4ffc b7be
00000170: e9e6 fdbd 0619 a9be 5dbe 7a3e 8cd1 0d3e
00000180: bb9f 903e 48dd 64bd e038 7bbe 772d bfbd
00000190: 7c46 e73e 3be6 b03e 73be 4e3f 6918 013e
000001a0: 6484 513e a356 d63e 0548 283c 986f 5dbe
000001b0: 4b53 a9be 7358 2fbe dd21 b43e f1e9 9dbd
000001c0: 04b3 1abe d3c4 7f3e c727 a1be 76e3 cf3d
000001d0: 56f8 b5be a4cb 12be 440b a2be abde 853e
000001e0: 25a6 0a3e 0976 973e 908d 8a3c c2be 73be
000001f0: 93fa d0bd 26d7 e33e da76 bb3e 08fb 5f3f
00000200: e0c3 ef3d e41e 783e d771 d63e f7b5 c03c
00000210: 3406 65be 89de adbe 236e 57be 0046 b23e
00000220: aede adbd d25d 16be 2c9b 7b3e 3736 a3be
00000230: d103 ed3d 882b babe c2ec 2ebe 7fef 9bbe
00000240: 5275 8f3e 1eea e93d c21f 9e3e 16ba e23d
00000250: 82cb 74be 5760 d2bd 22a8 e33e 60e0 c73e
00000260: fdb0 753f 8be6 d13d 7c6a 883e a650 d73e
00000270: 509b 053d c114 6abe 56e5 b1be 0f52 79be
00000280: 1d07 af3e e689 c7bd 6031 0cbe 97bb 783e
00000290: e08a 9ebe 9e3e f73d 51a8 bcbe 724f 46be
000002a0: fe91 96be 24ae 943e af77 d73d 06b7 a43e
000002b0: 4d97 1dbe 6aa2 72be 13a8 d7bd 52f3 e43e
000002c0: 4c79 d63e 082e 823f 0d35 b43d 4e4d 9b3e
000002d0: ea1c d73e d84c 373d a444 70be fd71 b6be
000002e0: f528 95be 66c6 aa3e 81c0 e3bd dcea 02be
000002f0: 3c62 753e 10d8 98be 2e37 0c3e 3a0c c2be
00000300: a9b8 68be e21c 8ebe be2d 9e3e d796 af3d
00000310: 51ad ac3e 300f a3bc b222 6bbe a6e4 dbbd
00000320: 2139 e63e 6bec e03e 8796 8d3f 5a9f 9a3d
00000330: 8b03 a73e 4358 d73e 5489 5c3d 2b21 75be
00000340: 86b2 babe 66e9 a6be 2ee8 a73e 0071 ffbd
00000350: 4197 f9bd 7947 723e f1bf 93be 7fa2 143e
00000360: bc2e c4be 41d8 80be c89d 87be 9f15 a43e
00000370: 2dd0 9d3d 1025 b43e d198 003e 1268 66be
00000380: f369 e4bd beba e53e e1d1 e83e cf60 933f
00000390: 4665 7a3d 47ab b63e bc84 d73e 4555 803d
000003a0: 5400 80be 1937 bfbe 75f6 b4be 4fec a23e
000003b0: a27f 0dbe ff24 ecbd 953a 703e 62bb 91be
000003c0: 5811 1d3e 977d c2be f7d6 8abe 6a7c 79be
000003d0: a70a aa3e 37ea 8f3d cb22 b93e 53bb 0dbe
000003e0: 3753 5dbe c9eb ecbd 3541 e93e 002a f73e
000003f0: 4dcf 9b3f 4b04 4f3d 2d4b bf3e dca2 d63e
0.466496 0.26344433 0.57859015 0.16583155 0.08809553 0.41200906 0.03918262 -0.19012783
-0.3392386 -0.12814966 0.35285723 -0.13771603 -0.16470131 0.27838477 -0.2509888 0.052685276
-0.37569773 -0.08029663 -0.35144967 0.18636997 0.16940172 0.23045145 0.1463769 -0.25467092
-0.03694612 0.44887742 0.274456 0.66443914 0.16262147 0.13066755 0.41772708 0.009360575
-0.20087986 -0.31832835 -0.09404026 0.36113548 -0.09419174 -0.16813575 0.26914868 -0.29013887
0.05900822 -0.3573421 -0.08403275 -0.34748715 0.20971897 0.17031159 0.23728608 -0.06833172
-0.25391418 -0.056237396 0.44996977 0.30642185 0.716204 0.15069087 0.15172774 0.4092246
0.00864394 -0.20651612 -0.32291615 -0.1154107 0.35747117 -0.081060484 -0.16338421 0.26497748
-0.3069828 0.08213585 -0.35662785 -0.10448797 -0.3434487 0.22789921 0.1556438 0.26673755
0.10881187 -0.24932458 -0.07955561 0.4488686 0.33152798 0.75870526 0.1383021 0.18192518
0.41491377 0.007849633 -0.2116615 -0.32666963 -0.14552204 0.35503152 -0.074833006 -0.15390913
0.2585387 -0.3122803 0.09942367 -0.35934684 -0.12397558 -0.33026904 0.2448668 0.13849467
0.28246865 -0.055875093 -0.24533415 -0.093348436 0.45170963 0.34550652 0.8075935 0.12606968
0.2046066 0.41862974 0.010271077 -0.21624601 -0.3307136 -0.17123584 0.35182086 -0.077106364
-0.15107352 0.24977426 -0.3147566 0.101508066 -0.35541028 -0.14335495 -0.3164922 0.26146445
0.13539942 0.2958224 0.016913205 -0.23803237 -0.10204043 0.44500083 0.36614114 0.8749242
0.11707282 0.24230534 0.41883728 0.023524268 -0.22365648 -0.33958843 -0.21038108 0.3481903
-0.084897384 -0.14684227 0.24570912 -0.318773 0.115729935 -0.36361337 -0.17082503 -0.3045616
0.28019196 0.114216074 0.30883604 0.11070649 -0.23905757 -0.102722816 0.44464213 0.39038372
0.9597319 0.10249051 0.2664374 0.42053717 0.03261882 -0.2285948 -0.34745282 -0.24347709
0.34185115 -0.09743099 -0.1369071 0.2429031 -0.30965328 0.1207249 -0.36847165 -0.19366243
-0.29408258 0.2903911 0.10520875 0.32170886 -0.15389748 -0.23694769 -0.105301045 0.4471689
0.41889417 1.0170298 0.08799181 0.30332416 0.42014247 0.04475102 -0.23463684 -0.3563384
-0.2913281 0.3335449 -0.111207016 -0.12784904 0.23963255 -0.29852343 0.13692924 -0.37899953
-0.22726692 -0.2775641 0.30894274 0.08573692 0.3372598 -0.019904703 -0.22962454 -0.107369706
0.4496546 0.43930373 1.1061562 0.07549925 0.3261989 0.42059526 0.053841904 -0.23938434
-0.36464328 -0.32599944 0.32794327 -0.12472725 -0.121870525 0.23660077 -0.28857377 0.14515112
-0.38316905 -0.2516499 -0.26487565 0.32047746 0.07705722 0.35184526 0.12558295 -0.22500637
-0.11153021 0.44869035 0.45472625 1.1513919 0.061131738 0.3567755 0.42093456 0.06266264
-0.2500025 -0.37346724 -0.35344282 0.31820914 -0.1381822 -0.11530494 0.23459847 -0.28463274
0.15338647 -0.37986442 -0.2711713 -0.24363866 0.33211252 0.07027095 0.36159357 -0.1384099
-0.21613775 -0.1156841 0.45557562 0.4827423 1.2172638 0.050541203 0.37362042 0.41921127

network.fc3.bias f4 [220]
00000000: 5d03 e6be 8987 f3be 934b f1be fd6d edbe
00000010: 8c82 e9be fe90 e1be 4220 dabe 3ce4 d3be
00000020: 2f81 cebe e74b cbbe 4e23 c6be 2a10 c2be
00000030: 03fb c2be 8f6d c4be 6555 bfbe 6a84 c0be
00000040: ae4a c4be a265 c3be 431a c3be a012 bdbe
00000050: 146e bfbe f69f c8be ed5c cbbe 4c41 c8be
00000060: 13cf d0be 56dd cdbe 3974 c5be b1fc cdbe
00000070: 4ba2 cfbe f5a7 ccbe 119c bfbe 0eef bcbe
00000080: bb75 b9be 7036 babe a027 b0be f554 b0be
00000090: c68c a8be f221 a5be 17b2 a4be 6ef4 a3be
000000a0: a177 9dbe cceb 8fbe 1b13 8fbe b9b5 8fbe
000000b0: 9c85 89be 3dbd 85be 9896 78be b633 6abe
000000c0: fe35 60be af6e 55be f492 46be b0c8 46be
000000d0: a982 46be 07a4 30be b2c0 1bbe 4eb7 1ebe
000000e0: fbd5 0abe 89ab 03be 7877 e1bd 4a25 bdbd
000000f0: 44ed 8cbd 12db 3bbd 2e2f 75bc 39a3 573c
00000100: dbb7 eb3c 9e7c 873d a9cf 9b3d 828e 963d
00000110: 8898 c83d 6d4e d63d 9f3c f33d 32bb 083e
00000120: aeaa 073e 3adb 0f3e 29e0 053e 255e 113e
00000130: e619 003e 9650 ff3d 56f8 003e d491 d43d
00000140: e543 863d 606a 153d 8638 9dbb ae29 31bc
00000150: 1d09 0bbd 9c0c 35bd d3db 8abd 8943 afbd
00000160: 6ee7 b5bd a068 dabd 5f43 e7bd 1070 fbbd
00000170: 1cb1 23be c438 31be 0c89 40be 8723 59be
00000180: 0d5b 5abe 1ee5 73be 4ea4 73be a237 8dbe
00000190: 41b7 91be 0c85 96be e542 97be 863e a1be
000001a0: 0b2a a0be 630c a7be 1a16 afbe 5864 b8be
000001b0: d6bb bcbe cac8 b9be 5ba6 bbbe be3d bfbe
000001c0: 6779 c4be 6b1f c2be 83db c7be d96a c4be
000001d0: 2ef9 cabe 829f c7be 1531 cabe 4b65 d4be
000001e0: 5e57 cfbe 14e0 d4be 2e27 d0be 3781 cfbe
000001f0: c844 d7be 6124 d3be 676f d8be cf6d dabe
00000200: cd9d dcbe df79 debe 3bf7 d4be f2d2 d6be
00000210: 1553 d2be a018 d4be 0f31 d2be 0004 d4be
00000220: 28fe d3be 0c3f c5be de04 bebe a42e c2be
00000230: 13b4 c2be 1baf c1be 6448 bdbe 2bb0 bebe
00000240: b58d b8be bb7c babe 61a7 b4be 7aab aebe
00000250: 85a4 b3be a043 acbe 2fa9 a6be e7c8 a3be
00000260: 339d 9dbe e307 9dbe f7c9 93be 29ad 8ebe
00000270: 5493 88be 6659 87be 8a32 8bbe 2e7d 84be
00000280: 6b34 82be 143c 75be 93aa 86be bd21 80be
00000290: 6c3c 79be 947f 77be 74c8 7bbe eedb 72be
000002a0: d5c5 71be 6866 5cbe ddf6 63be e6da 73be
000002b0: edb1 73be afd3 61be 396b 54be bd64 59be
000002c0: 9f84 47be bfbb 48be 0d3b 42be cfcd 4cbe
000002d0: 2a78 4dbe 0dcd 4ebe 9055 50be c9b1 4bbe
000002e0: 7669 49be 9546 4fbe 4739 58be c37d 64be
000002f0: c921 6abe 3fba 67be 6c8b 5bbe 6a78 59be
00000300: a80b 65be e8f4 6bbe 1644 68be e54d 70be
00000310: 21dd 65be 069b 6cbe 1715 74be 74fa 69be
00000320: b2c5 74be 7505 7bbe f816 76be 0f76 80be
00000330: 5b6e 81be be11 70be 15d4 7ebe 1cc3 80be
00000340: 4b36 7cbe 8c7c 7ebe 2a61 77be 732f 74be
00000350: 584a 73be 2c6e 76be b527 83be b618 8dbe
00000360: cd19 88be fcee 85be c479 8abe 42f2 8ebe
-0.4492444 -0.47564343 -0.4712797 -0.46372977 -0.45607412 -0.44055933 -0.42602736 -0.41385067
-0.40332934 -0.39706346 -0.3869881 -0.37902957 -0.38082132 -0.38364837 -0.37369838 -0.37601024
-0.38338226 -0.38163477 -0.38105974 -0.36928272 -0.3738867 -0.3918454 -0.39719334 -0.39112318
-0.40782985 -0.40207928 -0.38565233 -0.4023185 -0.40553507 -0.3997189 -0.37423757 -0.36901134
-0.36222634 -0.36369658 -0.3440523 -0.34439817 -0.32919902 -0.3225246 -0.32167122 -0.32022423
-0.30755332 -0.28109586 -0.27944264 -0.2806833 -0.26859748 -0.2612094 -0.24276197 -0.22871289
-0.21895596 -0.20843004 -0.19391996 -0.19412494 -0.1938578 -0.17250071 -0.15210226 -0.15499613
-0.1355819 -0.12858404 -0.11009115 -0.09235628 -0.06881192 -0.04586322 -0.014964862 0.013161474
0.028774193 0.06615566 0.076079674 0.073514 0.09794718 0.10464177 0.11876797 0.1335266
0.13248703 0.14048472 0.13073792 0.1419607 0.1250988 0.124665424 0.12594733 0.10379377
0.065559186 0.0364784 -0.004797998 -0.01081316 -0.033944238 -0.04420148 -0.067802094 -0.08557803
-0.08882032 -0.10664487 -0.11292147 -0.122772336 -0.1598553 -0.1730681 -0.18802279 -0.21204959
-0.21323796 -0.2381787 -0.23793146 -0.27581507 -0.28460124 -0.29398382 -0.29543224 -0.31493014
-0.31282076 -0.32626638 -0.3419655 -0.36014056 -0.36862057 -0.36286002 -0.36650357 -0.37351793
-0.38373873 -0.37914595 -0.39034662 -0.38362768 -0.39643234 -0.38988882 -0.39490572 -0.4148353
-0.40496343 -0.41577208 -0.40654892 -0.4052827 -0.42044663 -0.41238692 -0.42272493 -0.42661902
-0.43089142 -0.43452355 -0.41594872 -0.41957814 -0.41079012 -0.41425037 -0.41053054 -0.41409302
-0.41404843 -0.38524663 -0.37113088 -0.3792621 -0.3802801 -0.37828907 -0.36969292 -0.3724378
-0.36045614 -0.36423287 -0.3528395 -0.341152 -0.35086456 -0.33645344 -0.32550952 -0.31989214
-0.30783996 -0.3067008 -0.28865024 -0.27866486 -0.26674902 -0.26435393 -0.27186996 -0.25876755
-0.25430617 -0.23948699 -0.26302013 -0.2502574 -0.24339455 -0.24169761 -0.24588186 -0.23716709
-0.23610623 -0.2152344 -0.2226214 -0.23813972 -0.23798342 -0.22053407 -0.20744027 -0.21229835
-0.19484185 -0.1960287 -0.18967839 -0.20000385 -0.2006537 -0.20195408 -0.2034514 -0.19892038
-0.19669136 -0.20241769 -0.211156 -0.223136 -0.2286445 -0.22629641 -0.21439904 -0.2123734
-0.22367728 -0.23042643 -0.22682223 -0.23467214 -0.22447635 -0.23106012 -0.2383617 -0.22849447
-0.2390354 -0.245138 -0.240322 -0.25090072 -0.25279507 -0.23444268 -0.2488559 -0.25148857
-0.24630086 -0.24852198 -0.24158159 -0.23846225 -0.23758829 -0.24065465 -0.25616232 -0.27557915
-0.26582184 -0.26158893 -0.27046025 -0.27919203
