Week8/PBNN/EPSD plot/EPSD_Data/model_for_TimeEnv_2000epoch.pth (torch, 29072 bytes, 6 tensors)

network.fc1.weight f4 [25, 6]
0	0xbf0aeebf	-0.5427055
1	0x3d7a5d4a	0.061124124
2	0xbc1541de	-0.009109942
3	0x3d831e27	0.064022355
4	0x3fd9cecd	1.7016236
5	0x3da2642e	0.07929264
6	0xbf5e22fb	-0.86772126
7	0x3eb09951	0.3449197
8	0x3e40bc31	0.1882179
9	0x3dfcc8bd	0.12342975
10	0xbf740d55	-0.95332843
11	0xbecb6745	-0.39727226
12	0xbfc68916	-1.5510585
13	0x3e31ff68	0.17382586
14	0x3eef9951	0.4679666
15	0xbe804e17	-0.25059578
16	0x3f476993	0.7789547
17	0x3efe9fa2	0.49731165
18	0xbeee2441	-0.46512035
19	0xbea18e11	-0.315537
20	0xbe675572	-0.22591189
21	0xbe95dc53	-0.29269657
22	0xbeaadbab	-0.33370718
23	0xbd9d32b8	-0.076756895
24	0xbd84ebbc	-0.06490275
25	0x3d6c5a7e	0.057703488
26	0xbd69c78a	-0.05707506
27	0xbd4e8d8e	-0.050427966
28	0xbf836723	-1.026585
29	0xbe971a5f	-0.29512307
30	0x3f767c20	0.9628315
31	0x3d19b89a	0.037529565
32	0x3df2ffc7	0.11865192
33	0x3d91618d	0.070986845
34	0x3f5f8c7c	0.8732374
35	0xbc925491	-0.01786259
36	0x3e3b7c76	0.18309197
37	0xbc42a030	-0.011879012
38	0xbe6216db	-0.22079031
39	0x3ebd0d49	0.36924198
40	0xbec5a6e5	-0.38603893
41	0xbf148008	-0.5800786
42	0x3da44dac	0.08022627
43	0xbe1f073c	-0.15530103
44	0xbeb8d14d	-0.36097184
45	0xbcdfe7d0	-0.027332217
46	0xbe68f974	-0.22751409
47	0x3eb5ff10	0.3554616
48	0x3f86a600	1.0519409
49	0x3d2518fd	0.040307034
50	0x3d3d1199	0.04615936
51	0x3cd7ffb0	0.026367038
52	0x3e68dd68	0.2274071
53	0xbf3ada1a	-0.72989047
54	0xbf057b38	-0.5214114
55	0xc027cf22	-2.6220174
56	0xc0287422	-2.6320882
57	0x3e23eda3	0.1600862
58	0x3f92542f	1.1431941
59	0x3e286e20	0.1644826
60	0x3ed01cd4	0.40646994
61	0xbeaa959c	-0.33317268
62	0xbce1e3dd	-0.027574474
63	0xbd80d394	-0.06290355
64	0xbf88da8a	-1.0691693
65	0x3ee01967	0.4376938
66	0xbfb9b5db	-1.4508623
67	0x3eb50d89	0.3536189
68	0x3f96bac5	1.1775748
69	0xbdb2c59c	-0.08729097
70	0x3f981b14	1.1883264
71	0xbf2dc887	-0.67884105
72	0x3e1eb008	0.15496838
73	0xbe931eb6	-0.28734368
74	0xbe011c2e	-0.12608406
75	0xbe686d8a	-0.22698036
76	0xbc0c2740	-0.00855428
77	0xbea5ba89	-0.32368878
78	0x3e1ac161	0.1511283
79	0xbe2185db	-0.15773718
80	0x3e3ddc50	0.18541074
81	0xbf0d0113	-0.55079764
82	0x3f2b5179	0.6692119
83	0xbd774145	-0.06036498
84	0xbf1296da	-0.5726143
85	0xbedd880a	-0.43267852
86	0x3dcd13aa	0.10013516
87	0xbdf77585	-0.12082962
88	0x3d889055	0.06668154
89	0xbeb21ef3	-0.34789237
90	0x3eefc256	0.46827954
91	0xbf3e2643	-0.7427713
92	0x3e0128f7	0.12613283
93	0x3ed31bdd	0.41232195
94	0xbd077139	-0.033066962
95	0x3d963465	0.07334212
96	0x3f6ae9cb	0.9176299
97	0x3e170e1e	0.14751479
98	0xbfd7b5e0	-1.6852379
99	0xbba7fd96	-0.0051266653
100	0xbf5997f9	-0.84997517
101	0xbf58723a	-0.84549296
102	0xbed79741	-0.42107585
103	0x3d46b2d9	0.048510406
104	0xbe9d6291	-0.30739263
105	0x3dbddcfe	0.092706665
106	0xbde4f7d2	-0.111800805
107	0x3e55b8f5	0.20871337
108	0xbe26bc4a	-0.16282764
109	0xbfba4338	-1.4551764
110	0x3d961046	0.07327323
111	0x3eab1327	0.3341305
112	0x3e3b7b04	0.18308645
113	0x3eafbad5	0.3432223
114	0xbf3d30c8	-0.7390256
115	0xbe76c8cb	-0.24100034
116	0x3e066a26	0.1312643
117	0x3d5a9eae	0.053373985
118	0xbf24600f	-0.64209074
119	0xbea5a163	-0.3234969
120	0x3f189c7f	0.59613794
121	0x3e0570e9	0.13031353
122	0xbd2ecf88	-0.042678386
123	0xbceea38a	-0.029130716
124	0xbf139e6e	-0.5766362
125	0x3d202252	0.03909523
126	0xbf22bfa2	-0.6357366
127	0x3f1aaadd	0.60416967
128	0xbe94e2c5	-0.2907926
129	0x3e53f145	0.20697506
130	0x3f1eeec9	0.6208311
131	0xbec0e9cd	-0.37678376
132	0xbe6cc065	-0.23120268
133	0xc013df94	-2.3105211
134	0xbe136195	-0.14392693
135	0x3de4d92f	0.11174237
136	0xbf94aa55	-1.1614481
137	0xbdc34aed	-0.09535775
138	0xbed71c80	-0.4201393
139	0x3f7cf0ac	0.98804736
140	0xbed7d3e9	-0.42153862
141	0x3e5f46d0	0.21804357
142	0xbe76c13d	-0.24097152
143	0x3f046d84	0.5172961
144	0xbf5ff786	-0.87487066
145	0x3f431c14	0.7621472
146	0x3e05604a	0.13025013
147	0xbd75d81d	-0.060020555
148	0xbf5e05da	-0.8672768
149	0x3cebba87	0.028775467

network.fc1.bias f4 [25]
0	0xbf583424	-0.8445456
1	0x3f5fe045	0.87451583
2	0x3e9725f8	0.29521155
3	0x3f4f0986	0.80873907
4	0x3f4c23ad	0.79741937
5	0xbf06cd98	-0.5265746
6	0x3e813185	0.25233093
7	0xbececdbb	-0.40391335
8	0xbe341143	-0.1758471
9	0xbee0c22e	-0.43898147
10	0x3ea7ccba	0.3277338
11	0xbe6eb10b	-0.23309724
12	0xbe829ba6	-0.25509375
13	0x3e712b13	0.23551588
14	0x3f5b7f6e	0.8574132
15	0xbd459874	-0.048241094
16	0x3e585d31	0.211293
17	0xbe8cbf6f	-0.27489802
18	0x3ddc38b1	0.107530005
19	0x3f68b314	0.9089825
20	0x3e7a5cbd	0.2444944
21	0x3cb2c3b7	0.02182184
22	0x3f4a47c9	0.79015785
23	0xbbe61c8b	-0.0070224456
24	0x3f4e9ebb	0.80710953

network.fc2.weight f4 [25, 25]
0	0x3e0ce14d	0.1375782
1	0xbe2ba224	-0.1676107
2	0x3de5648a	0.11200817
3	0x3c57b050	0.013164595
4	0x3d461613	0.048360895
5	0xbd4f5400	-0.050617218
6	0x3d61df14	0.055144385
7	0x3e369d61	0.17833473
8	0x3dc1050a	0.09424789
9	0x3dad30aa	0.084565476
10	0x3dde61f8	0.1085853
11	0x3d355128	0.04426685
12	0xbd9ac3e7	-0.07556897
13	0xbe39e412	-0.18153408
14	0xbd21f2c8	-0.039538175
15	0x3dcc519f	0.099765055
16	0xbd664ef3	-0.056227636
17	0xbcc6e1a8	-0.024277523
18	0xbdc4b9eb	-0.096057735
19	0xbdbf1d5b	-0.09331771
20	0x3a41526d	0.0007374648
21	0xbd3e7fea	-0.046508707
22	0xbddb65d4	-0.107127815
23	0xbe3dade7	-0.1852337
24	0xbcf3e855	-0.02977387
25	0x3e1955a1	0.14974071
26	0x3e1e16ab	0.15438335
27	0x3cd16f18	0.025565669
28	0xbe0f939b	-0.14021151
29	0xbda7757a	-0.08176704
30	0xbe1054f8	-0.14094913
31	0x3e29783b	0.1654977
32	0x3da3f0fa	0.08004947
33	0xbd362514	-0.044468954
34	0xbe224072	-0.15844896
35	0xbd9e9813	-0.077438496
36	0x3be584a0	0.0070043355
37	0xbd55efac	-0.052230522
38	0xbe43edba	-0.19133654
39	0xbdd50bcd	-0.104026414
40	0x3dccb50a	0.09995468
41	0xbe186a78	-0.14884365
42	0x3cf6d050	0.030128628
43	0x3dffb2da	0.12485285
44	0xbe1256d6	-0.14290938
45	0xbe402f0d	-0.18767948
46	0xbd969b00	-0.07353783
47	0x3e34cc67	0.17656098
48	0xbdeb9900	-0.11503792
49	0x3c8645d8	0.016390726
50	0xbf482753	-0.78185004
51	0xbf094f78	-0.53636885
52	0xbdce54d7	-0.10074776
53	0x3eb1d2bd	0.34731093
54	0x3eb6d5c0	0.35709953
55	0x3f33bb64	0.7020781
56	0xbefb0eb8	-0.49034667
57	0xbb6c5a80	-0.0036064684
58	0x3d733469	0.059376154
59	0x3f0be1d9	0.5464149
60	0xbe921000	-0.28527832
61	0xbe33f5e4	-0.17574269
62	0x3d9c0712	0.07618536
63	0x3f0aea1f	0.5426349
64	0x3ea9bad7	0.3315036
65	0x3cd91a09	0.026501672
66	0x3ec701f0	0.38868666
67	0xbd3b495f	-0.04572427
68	0x3ef2bf5d	0.47411624
69	0xbda83014	-0.08212295
70	0x3e944021	0.28955176
71	0xbe671f94	-0.2257064
72	0x3e69f8d9	0.22848834
73	0xbe4abd27	-0.19798718
74	0x3d15e142	0.036591776
75	0x3e1b3f6a	0.1516091
76	0x3b0f868f	0.0021900272
77	0x3dcab0be	0.09896992
78	0x3e1ac77b	0.15115158
79	0x3d873fbd	0.06603954
80	0xbe221bef	-0.15830968
81	0xbe72092d	-0.23636313
82	0xbe317aea	-0.17332044
83	0xbd7e315d	-0.062058795
84	0xbe3f2b10	-0.18668771
85	0xbaadf7c1	-0.0013272689
86	0xbded25e0	-0.1157949
87	0x3db190ae	0.086701736
88	0x3c816409	0.01579477
89	0xbe1ce325	-0.15321024
90	0x3c219d43	0.009864154
91	0xbd7fa193	-0.06240995
92	0xbe062bde	-0.13102672
93	0xbd463b7b	-0.04839657
94	0xbe305b89	-0.17222418
95	0x3e05c73c	0.13064283
96	0xbdaf6b60	-0.08565402
97	0xbe0e8c4e	-0.1392071
98	0xbe3a330a	-0.18183532
99	0xbe068806	-0.13137826
100	0x3d43fab8	0.047846526
101	0xbfd14cd5	-1.6351572
102	0xbe82b2eb	-0.2552713
103	0xbdb9cce7	-0.09072285
104	0xbdff17e5	-0.124557294
105	0x3f644d80	0.89180756
106	0x3e9bb055	0.30407968
107	0x3e41b3cd	0.18916245
108	0x3e1884bd	0.14894386
109	0x3fb03dc2	1.3768847
110	0x3e9402f1	0.28908494
111	0xbf8e4743	-1.1115497
112	0xbdf64e5d	-0.12026665
113	0xbc4895be	-0.012242733
114	0x3f3dc9c6	0.74136007
115	0xbe8b3431	-0.27188256
116	0xbf501688	-0.8128438
117	0xbd63946c	-0.055561468
118	0xbf2afed4	-0.66795087
119	0xbeaec91c	-0.3413781
120	0xbe13d767	-0.14437638
121	0x3ec39282	0.38197714
122	0x40076834	2.115735
123	0x3e2c6e8e	0.16839048
124	0x3de181da	0.11011095
125	0xbf8baf1a	-1.0912812
126	0xbeafd703	-0.34343728
127	0xbeb4d162	-0.35315996
128	0x3e9c255b	0.3049725
129	0xbe7b2d1b	-0.24528925
130	0x3ee03e21	0.437974
131	0xbe7077ba	-0.23483172
132	0xbdf19a47	-0.11797004
133	0x3f0829ae	0.531886
134	0xbef83157	-0.48475143
135	0xbf207278	-0.62674665
136	0xbf2d81b5	-0.6777604
137	0x3dfb09fe	0.12257765
138	0x3c17f18d	0.009273899
139	0x3f297559	0.66194683
140	0x3e7bd5cd	0.24593277
141	0xbe929473	-0.28628883
142	0x3dc597e2	0.0964811
143	0xbeeff44e	-0.46866077
144	0xbd978c04	-0.07399753
145	0xbe895c91	-0.26828435
146	0x3e6db870	0.23214889
147	0x3ee5f66d	0.4491457
148	0x3eddfd47	0.43357298
149	0x3e93e556	0.28885907
150	0x3e9dfc16	0.3085639
151	0xbf5b46fc	-0.8565519
152	0xbf33ecd9	-0.70283276
153	0x3fc89767	1.5671204
154	0xc08a6440	-4.3247375
155	0x3ea36bbf	0.3191814
156	0x3dacd825	0.08439664
157	0x3d893f2a	0.06701501
158	0x3f285845	0.6575969
159	0x3f2d3926	0.67665327
160	0xbf369a80	-0.713295
161	0x3e6d61bc	0.23181814
162	0xbdc63317	-0.09677713
163	0xbf136905	-0.5758212
164	0x3c9d06fa	0.019168366
165	0xbf4b131c	-0.79326034
166	0xbea2e5af	-0.3181586
167	0x3c36cae0	0.011156768
168	0x3f0fa7de	0.5611552
169	0xbf847584	-1.0348363
170	0xbf5461fc	-0.8296201
171	0x3f305e8b	0.6889426
172	0xc02d1729	-2.7045386
173	0xbecfc61d	-0.40580836
174	0x3eaae412	0.3337713
175	0x3f6608f1	0.89857394
176	0xbf091577	-0.5354838
177	0xbf2963a7	-0.6616768
178	0x3f50d583	0.81575793
179	0x3e3114f2	0.17293146
180	0xbf563c44	-0.8368571
181	0x3f40e4bb	0.75349015
182	0x3dbab1ae	0.09115921
183	0xbd309211	-0.04310805
184	0xbbf248c6	-0.007393929
185	0xbf7dbc8e	-0.99115837
186	0xbf8a9f15	-1.0829798
187	0xbc5eb0d0	-0.01359196
188	0x3ccf0659	0.025271581
189	0x3f2f4eeb	0.68479794
190	0x3e71ae9b	0.23601763
191	0xbf7f1f3c	-0.99657035
192	0x3e380e3f	0.17974184
193	0xbe1b308e	-0.15155241
194	0xbf2f1523	-0.6839163
195	0xbe134669	-0.14382328
196	0x3e90c049	0.28271702
197	0x3e8d1bdb	0.27560315
198	0x3ea64d26	0.32480735
199	0xbebcd18f	-0.3687863
200	0xbf5299bc	-0.8226583
201	0xbfbdc2a3	-1.4825023
202	0xbf09c23d	-0.5381201
203	0x3e503739	0.20333566
204	0x3f3944b9	0.7237049
205	0x3f2c091a	0.6720139
206	0x3d832eac	0.06405386
207	0x3e388c65	0.18022306
208	0x3d9d1aee	0.07671152
209	0x3f2ae299	0.6675201
210	0xbf3cdfdf	-0.737791
211	0xbf5bd0bc	-0.8586538
212	0xbd6360f8	-0.0555124
213	0x3d264d6a	0.04060117
214	0x3f61fa8b	0.88272923
215	0xbe196a98	-0.14982069
216	0xbeb7f1ec	-0.3592676
217	0xbe045662	-0.12923577
218	0xbf2d9533	-0.67805785
219	0xbeb62ec0	-0.35582542
220	0xbed5cd6e	-0.41758293
221	0x3f434e3f	0.7629127
222	0x3ecc868b	0.39946398
223	0x3f77924c	0.96707606
224	0xbf8573b7	-1.0425938
225	0xbf1e4f34	-0.61839604
226	0xbf7925f9	-0.97323567
227	0xbf064ea1	-0.5246373
228	0x3daf97cb	0.08573874
229	0x3eb1603b	0.3464373
230	0xbf477c3b	-0.77923936
231	0x3ef130db	0.47107586
232	0x3e242793	0.16030721
233	0xbf8300f3	-1.0234665
234	0xbda4e150	-0.080507874
235	0xbf06acba	-0.5260731
236	0xbeb477ef	-0.35247752
237	0x3cf954e8	0.030435994
238	0x3d4a4dbc	0.04939054
239	0x3f63d4e4	0.8899672
240	0x3d07110f	0.032975253
241	0xbb77c69e	-0.0037807594
242	0x3c40edcc	0.011775445
243	0xbdefad65	-0.11702994
244	0xbf555bab	-0.83343
245	0x3ec90a21	0.3926554
246	0x3f18fc4b	0.5975997
247	0x3e5a7ef2	0.21337488
248	0x3d31d1db	0.043413024
249	0xbe0b3c28	-0.13597167
250	0x3c28b791	0.010297672
251	0xbf8c7549	-1.0973293
252	0xbf2ffe11	-0.6874705
253	0x3f02d857	0.5111136
254	0xbe88518d	-0.26624718
255	0xbea51450	-0.3224206

network.fc2.bias f4 [25]
0	0xbe32b16b	-0.17450492
1	0xbe261e92	-0.16222599
2	0x3f066db6	0.52511156
3	0xbe3ff5ae	-0.18746063
4	0x3d9496dd	0.072553374
5	0x3d566057	0.05233797
6	0x3e3c3b18	0.18381917
7	0x3efb634a	0.4909919
8	0x3e27df06	0.1639367
9	0x3f0305fd	0.5118101
10	0x3eec1921	0.46112922
11	0x3e131b9c	0.14366001
12	0xbe3bac03	-0.18327336
13	0xbd212d91	-0.039350096
14	0xbd8c3d92	-0.06847681
15	0x3f2fe254	0.68704724
16	0xbe3c302d	-0.18377753
17	0x3f169eb9	0.5883594
18	0xbe0a4704	-0.13503653
19	0xbbb333cf	-0.0054688226
20	0x3ec45aae	0.38350433
21	0x3df779fc	0.120838135
22	0x3ec38091	0.38184026
23	0x3c61b293	0.013775486
24	0x3e39e8bb	0.18155186

network.fc3.weight f4 [220, 25]
0	0xbd362fdb	-0.044479232
1	0xbd9bfbcd	-0.076163866
2	0x3ec55e69	0.38548592
3	0xbc713e3f	-0.014724313
4	0x3e44ea46	0.19229993
5	0xbcbd68ea	-0.023121316
6	0xbe453ce9	-0.19261517
7	0x3da96f4d	0.08273182
8	0xbe2e1252	-0.16999176
9	0xbd1ba0c3	-0.03799511
10	0x3dcaa13b	0.098940335
11	0xbc1bc625	-0.009507691
12	0x3de04e48	0.10952431
13	0xbd5accb4	-0.053417876
14	0x3dc397d2	0.09550442
15	0x3d6f864b	0.05847768
16	0xbce7dc8c	-0.028303407
17	0xbe07f7e2	-0.13278154
18	0xbd93fc69	-0.07225878
19	0x3d5c7603	0.053823482
20	0x3ca732d6	0.020409983
21	0x3de39186	0.11111741
22	0x3e148bbb	0.14506428
23	0xbd10404c	-0.03521757
24	0x3db9a18b	0.09064015
25	0xbe169326	-0.1470457
26	0x3e104761	0.14089729
27	0x3ec1c45c	0.37845123
28	0x3e6902d2	0.22754982
29	0x3e4e4e7f	0.20147131
30	0xbcb70ce0	-0.022345006
31	0xbe599c7a	-0.21251097
32	0x3d8f0026	0.0698245
33	0xbe39c011	-0.18139674
34	0xbcd7afb6	-0.026328903
35	0x3dfecb32	0.124411
36	0xbc57fcc0	-0.013182819
37	0xbde673a1	-0.11252523
38	0x3d609b6b	0.054835718
39	0x3ddb3710	0.10703862
40	0x3d4a2db2	0.049359985
41	0xbe13091b	-0.14358942
42	0xbdfb6cd0	-0.12276614
43	0xbd032450	-0.032017052
44	0x3d6d3fed	0.057922293
45	0x3c8dc20b	0.017304441
46	0x3dcb23a0	0.09918904
47	0x3e16c5f2	0.14723948
48	0xbd3d3b5e	-0.046199195
49	0x3dc6ba60	0.09703517
50	0xbdfe0144	-0.12402585
51	0x3d9516f2	0.07279767
52	0x3ec09778	0.3761556
53	0x3dfc6fad	0.12325988
54	0x3e528536	0.20558628
55	0xbccb5b4c	-0.024823807
56	0xbe582bd1	-0.21110465
57	0x3d7fba88	0.06243375
58	0xbe3ad7a5	-0.18246324
59	0xbc58eb04	-0.013239626
60	0x3e1548b3	0.14578514
61	0xbbaaa2a7	-0.005207378
62	0xbd7ab402	-0.061206825
63	0x3e43928b	0.1909887
64	0x3ddb7f50	0.10717642
65	0x3d2fb030	0.042892635
66	0x3d7f4b6e	0.062327795
67	0xbdf4b8ed	-0.11949334
68	0x3dd69fc3	0.10479691
69	0x3d73d309	0.05952743
70	0x3c8dffc0	0.017333865
71	0x3dbbd997	0.09172361
72	0x3e1a4749	0.15066256
73	0xbd5696ad	-0.05238979
74	0x3dee6680	0.11640644
75	0x3d07ef16	0.033186994
76	0x3e413149	0.18866457
77	0x3ebd7b08	0.37007928
78	0x3db5b323	0.08872058
79	0x3e51e959	0.20499171
80	0xbcd91436	-0.026498895
81	0xbe53ca07	-0.20682536
82	0x3d50c64a	0.050970353
83	0xbe3b6d73	-0.1830347
84	0xb9fb6e22	-0.00047956506
85	0x3e23359b	0.15938418
86	0xbaf58d50	-0.0018734131
87	0xbe1acff5	-0.15118392
88	0x3d66726d	0.05626147
89	0x3ddf2e37	0.10897487
90	0x3d0b1195	0.033952314
91	0x3cfb07b8	0.030643329
92	0xbdf24676	-0.118298456
93	0xbe24696b	-0.16055839
94	0x3d7d5a10	0.06185347
95	0x3ca42e41	0.020041587
96	0x3da6875e	0.08131288
97	0x3e1c0fe7	0.15240441
98	0xbd7761e2	-0.060396083
99	0x3e0b3b48	0.13596833
100	0xbdfad4b7	-0.122476034
101	0xbcf190d8	-0.029488012
102	0x3eb8d0e7	0.3609688
103	0xbe0105c3	-0.12599854
104	0x3e4df798	0.20113981
105	0xbcea0e83	-0.028571373
106	0xbe4e6692	-0.20156315
107	0x3d1e08b7	0.03858253
108	0xbe3ad184	-0.18243986
109	0x3c2390e0	0.009983271
110	0x3e28e259	0.16492595
111	0x3a62762c	0.0008638825
112	0x3e4a266d	0.19741221
113	0x3dddccce	0.10830079
114	0x3de16864	0.11006239
115	0x3cd06152	0.025437031
116	0x3d82b79a	0.063826755
117	0xbdf1143b	-0.11771437
118	0xbce6d4c7	-0.028177632
119	0x3d74bd85	0.059751052
120	0x3ca363b1	0.019944998
121	0x3d8e321f	0.069431536
122	0x3e1f2a8f	0.15543579
123	0xbd8a1347	-0.06741958
124	0x3e1798c6	0.14804372
125	0x3e2f6716	0.17129168
126	0xbd075398	-0.033038706
127	0x3eb8766f	0.36027858
128	0x3d093315	0.03349598
129	0x3e501948	0.20322144
130	0xbd02838b	-0.03186373
131	0xbe4ed113	-0.20196943
132	0x3cc60ab9	0.024175035
133	0xbe3ea350	-0.18616986
134	0x3cb09950	0.02155748
135	0x3e35ce07	0.17754374
136	0x3b6022a8	0.0034200344
137	0xbe20018a	-0.15625587
138	0x3dad6c84	0.08467963
139	0x3deb947e	0.11502932
140	0x3c37c578	0.011216514
141	0x3ccc441b	0.024934819
142	0xbdf5545f	-0.11978983
143	0xbe04b519	-0.12959708
144	0x3d72101f	0.059097406
145	0x3cbda788	0.023151174
146	0x3d6e1a1a	0.05813036
147	0x3e2a530f	0.16633247
148	0xbda367f1	-0.079788096
149	0x3e30f8b6	0.17282376
150	0xbcab05df	-0.020876823
151	0x3d6a3a1c	0.057184324
152	0x3ebc25ce	0.36747593
153	0x3e010aae	0.1260173
154	0x3e5603fb	0.20899956
155	0xbd164ea9	-0.03669611
156	0xbe512f1e	-0.2042813
157	0x3c2dff6d	0.01061998
158	0xbe45db2f	-0.19321893
159	0x3d11a312	0.035555907
160	0x3e458370	0.1928842
161	0x3c073262	0.008251758
162	0x3e3556fa	0.1770896
163	0x3e2ac088	0.16675007
164	0x3df5d70d	0.12003908
165	0xbb132ed7	-0.0022458339
166	0xbe38e088	-0.18054402
167	0xbdf9cf49	-0.1219774
168	0xbd89871a	-0.06715222
169	0x3d687c22	0.056759007
170	0x3ccb2d66	0.024801921
171	0x3d4bdfd5	0.04977401
172	0x3e331681	0.17489053
173	0xbdbbce70	-0.09170234
174	0x3e4c816a	0.19971243
175	0x3c64019e	0.013916401
176	0x3d6630c4	0.05619885
177	0x3ebb5ce7	0.36594316
178	0x3d962c05	0.07332615
179	0x3e54111b	0.2070965
180	0xbd307298	-0.043078035
181	0xbe4e7d9b	-0.20165102
182	0xbb88a420	-0.004169956
183	0xbe437630	-0.19088054
184	0x3d535b21	0.05160058
185	0x3e4f1da3	0.2022615
186	0x3c896acd	0.01677456
187	0x3db6cc41	0.08925677
188	0x3e1ffe86	0.15624437
189	0x3df85e36	0.12127344
190	0xbc764702	-0.015031578
191	0x3df26bc0	0.11836958
192	0xbdfb9a60	-0.12285304
193	0xbe078a57	-0.13236366
194	0x3d6d2250	0.05789405
195	0x3cd75c72	0.026289199
196	0x3d1e6698	0.03867206
197	0x3e38dee1	0.18053772
198	0xbdcb3d24	-0.09923771
199	0x3e5fb7a8	0.21847403
200	0xbe16a9f5	-0.14713271
201	0xbe31426b	-0.17310493
202	0x3ebd8b5c	0.37020385
203	0xbe09a021	-0.1343999
204	0x3e58f959	0.21188869
205	0xbd3f2969	-0.04667035
206	0xbe4e9127	-0.20172559
207	0xbc8635be	-0.016383048
208	0xbe484c4f	-0.1956036
209	0x3d856521	0.065134294
210	0x3e5c7f33	0.21532898
211	0x3cbbfe39	0.022948371
212	0x3e3aba69	0.18235172
213	0x3e002ed8	0.1251787
214	0x3e000289	0.12500967
215	0xbcda3aa6	-0.026639294
216	0xbdb1706d	-0.08664022
217	0xbdfc779f	-0.123275034
218	0xbcf316d6	-0.029673975
219	0x3d642111	0.055695597
220	0x3cda283c	0.026630513
221	0x3ce7eec0	0.028312087
222	0x3e4151f9	0.18878926
223	0xbddf2f3e	-0.108976826
224	0x3e77f8f3	0.2421606
225	0xbd232f29	-0.039839897
226	0xbc6d5b20	-0.014487058
227	0x3ec11d33	0.3771759
228	0x3e6536de	0.22384211
229	0x3e5ffe12	0.21874264
230	0xbd5a747d	-0.053333748
231	0xbe512994	-0.20426017
232	0xbcf3bfad	-0.029754484
233	0xbe4ee3c0	-0.20204067
234	0x3da0db45	0.07854322
235	0x3e6c2650	0.2306149
236	0x3cd4c8d4	0.025974669
237	0xbd8af53c	-0.06785056
238	0xbe1b2d42	-0.15153983
239	0x3e0582e9	0.1303822
240	0xbd1f9430	-0.038959682
241	0x3cd110ad	0.025520647
242	0xbe026471	-0.12733628
243	0x3e20b004	0.15692145
244	0x3d49e069	0.04928628
245	0x3cca31b8	0.02468191
246	0x3c8a7401	0.016901018
247	0x3e4b39e1	0.19846298
248	0xbdf2504c	-0.11831722
249	0x3e86eb8f	0.26351592
250	0x3de95cd9	0.113946624
251	0xbca16698	-0.01970224
252	0x3ebba372	0.36648136
253	0x3d30b183	0.04313804
254	0x3e5c6732	0.21523741
255	0xbd65bd78	-0.056088895

network.fc3.bias f4 [220]
0	0x3d5bda29	0.05367485
1	0x3dae7689	0.085187025
2	0x3db14a37	0.086567335
3	0x3d9f56d3	0.07780232
4	0x3d9472a2	0.07248427
5	0x3d82f4a7	0.0639432
6	0x3d6ace89	0.057325874
7	0x3d6919f2	0.05690951
8	0x3d86c848	0.06581169
9	0x3d806de4	0.0627096
10	0x3d90788c	0.070542425
11	0x3d38471e	0.044989698
12	0x3d823019	0.0635683
13	0x3d27183f	0.040794607
14	0x3d8329d5	0.06404463
15	0x3d69bd29	0.057065163
16	0x3d6c39cc	0.057672307
17	0x3d6c9802	0.057762153
18	0x3d3ce518	0.04611692
19	0x3d71cf5e	0.05903565
20	0x3d517aac	0.05114238
21	0x3d35a5e7	0.04434767
22	0x3d26433a	0.040591456
23	0x3d35a9f1	0.044351522
24	0x3d12f5a2	0.035878785
25	0x3d6ca062	0.05777014
26	0x3d4a95d6	0.0494593
27	0x3d25900a	0.04042057
28	0x3d3bb608	0.045827895
29	0x3d6673f3	0.05626292
30	0x3d3a7690	0.045523226
31	0x3d9429cb	0.07234534
32	0x3d842729	0.06452782
33	0x3d80501d	0.062652804
34	0x3d8bead7	0.068319015
35	0x3d8cb537	0.068705015
36	0x3d8a3dce	0.067500696
37	0x3dc2a2d1	0.09503711
38	0x3dc79797	0.0974571
39	0x3daabadc	0.08336422
40	0x3da57d95	0.080805935
41	0x3dc4c44c	0.09607753
42	0x3db4ec77	0.088341646
43	0x3dd59033	0.104278944
44	0x3dd01211	0.10159696
45	0x3dd370db	0.1032426
46	0x3e0773f7	0.13227831
47	0x3dec7a30	0.11546743
48	0x3df725ec	0.1206778
49	0x3e0e0b56	0.13871512
50	0x3e1ffaa0	0.1562295
51	0x3e2d1c51	0.16905333
52	0x3e4c9842	0.19979957
53	0x3e4b2e9c	0.19841999
54	0x3e60654b	0.2191364
55	0x3e72a411	0.23695399
56	0x3e749fe4	0.23889118
57	0x3e880966	0.2656967
58	0x3e97c406	0.29641742
59	0x3ea3d6a5	0.31999698
60	0x3eaab5ba	0.3334177
61	0x3eba9612	0.3644262
62	0x3ebe48cf	0.37164924
63	0x3ec1abd9	0.37826422
64	0x3ec9aba0	0.39388752
65	0x3ed5f7f7	0.41790745
66	0x3ee18409	0.44046047
67	0x3edb2284	0.4279977
68	0x3ed606dc	0.41802108
69	0x3eda8ef4	0.4268719
70	0x3eded4ff	0.43521878
71	0x3ee44ba5	0.44588962
72	0x3ee1f99e	0.44135755
73	0x3ee27f8d	0.4423794
74	0x3ee4c6a2	0.44682795
75	0x3ee51118	0.44739604
76	0x3ee5beb3	0.44872054
77	0x3ed71a15	0.42012087
78	0x3ed90f94	0.42394698
79	0x3ed15e79	0.4089239
80	0x3ed13ca6	0.40866584
81	0x3ecbb103	0.39783487
82	0x3eba3ffd	0.36376944
83	0x3eb90eed	0.361442
84	0x3eb04856	0.34430188
85	0x3ea6f992	0.32612282
86	0x3ea77199	0.32703856
87	0x3ea1997e	0.31562418
88	0x3ea58ed7	0.3233554
89	0x3e9dde2d	0.3083357
90	0x3e9a78e0	0.30170345
91	0x3e97efbb	0.29675087
92	0x3e95439c	0.29153144
93	0x3e93adaf	0.28843448
94	0x3e90ad2e	0.28257126
95	0x3e841982	0.2580071
96	0x3e8a9630	0.2706771
97	0x3e8795c1	0.2648144
98	0x3e863ff8	0.2622068
99	0x3e857ae6	0.26070327
100	0x3e8a0d5c	0.26963317
101	0x3e8488d5	0.25885645
102	0x3e845604	0.25846875
103	0x3e78bef1	0.24291588
104	0x3e6f9003	0.2339478
105	0x3e61bc8a	0.22044578
106	0x3e6db239	0.23212518
107	0x3e5f821f	0.21826981
108	0x3e5521f8	0.2081374
109	0x3e4ddd6f	0.20104001
110	0x3e3f0f85	0.18658264
111	0x3e37eb7c	0.17960924
112	0x3e2bc1e4	0.16773182
113	0x3e3d966e	0.18514416
114	0x3e2e8885	0.17044266
115	0x3e317c76	0.17332634
116	0x3e1f4f30	0.15557551
117	0x3e1fa925	0.15591867
118	0x3e0c0542	0.1367388
119	0x3e11841e	0.14210555
120	0x3e051f2e	0.13000175
121	0x3df43edc	0.11926052
122	0x3defb126	0.1170371
123	0x3e02da7c	0.12778658
124	0x3dd690ae	0.10476814
125	0x3df32998	0.11873168
126	0x3dd379b2	0.10325946
127	0x3dec6749	0.115431376
128	0x3de977b5	0.113997854
129	0x3db86693	0.090039395
130	0x3dbc0d9d	0.09182284
131	0x3dabd4d1	0.08390201
132	0x3d95277a	0.0728292
133	0x3d890419	0.06690235
134	0x3d89ee56	0.06734912
135	0x3dad3a86	0.08458428
136	0x3d758d35	0.05994912
137	0x3d8c4a76	0.0685014
138	0x3d7b3d30	0.06133765
139	0x3d8b71c5	0.06808809
140	0x3d8b7113	0.068086766
141	0x3d8c4c7b	0.06850525
142	0x3d55a37a	0.052157857
143	0x3d9c328e	0.0762683
144	0x3d875c2b	0.066093765
145	0x3d17b3d2	0.037036724
146	0x3d2f405f	0.042786
147	0x3d407e1c	0.046995267
148	0x3d8a5447	0.06754356
149	0x3d90170c	0.07035646
150	0x3d8d499d	0.06898806
151	0x3d963bb7	0.073356085
152	0x3d948514	0.07251945
153	0x3d8f62aa	0.070012406
154	0x3da32ef6	0.079679415
155	0x3d998583	0.074961685
156	0x3d8d3f20	0.06896806
157	0x3d81e6e5	0.06342868
158	0x3da6466e	0.08118902
159	0x3da50e0e	0.08059321
160	0x3db7f239	0.08981747
161	0x3db8f89a	0.09031792
162	0x3dca8597	0.098887615
163	0x3de1174a	0.1099077
164	0x3de3dc58	0.111260116
165	0x3e02ea89	0.1278478
166	0x3e01a712	0.12661389
167	0x3e0dc66c	0.13845223
168	0x3e14ec4b	0.14543264
169	0x3e0e7e51	0.13915373
170	0x3e1cf7ef	0.15328954
171	0x3e0d4662	0.1379638
172	0x3e0a8398	0.13526762
173	0x3e3216e6	0.17391548
174	0x3e1a3c62	0.15062097
175	0x3e213feb	0.15747039
176	0x3e2d3751	0.16915633
177	0x3e397f5b	0.18114989
178	0x3e2ec310	0.17066598
179	0x3e2b3acf	0.16721652
180	0x3e3b145d	0.18269487
181	0x3e41c657	0.18923317
182	0x3e3cf1fb	0.18451683
183	0x3e47fdaf	0.19530366
184	0x3e4b77da	0.19869938
185	0x3e4caae2	0.19987062
186	0x3e49df2b	0.19714038
187	0x3e43a30a	0.19105163
188	0x3e4ea7e4	0.20181233
189	0x3e40c942	0.18826774
190	0x3e536890	0.20645356
191	0x3e51d9c8	0.20493233
192	0x3e58ed00	0.21184158
193	0x3e59179d	0.21200414
194	0x3e564a2f	0.20926736
195	0x3e60ffe7	0.21972619
196	0x3e5d96d2	0.21639565
197	0x3e6dc366	0.2321907
198	0x3e6fb54c	0.23409003
199	0x3e66c52c	0.22536153
200	0x3e65aced	0.22429247
201	0x3e6e2453	0.23256044
202	0x3e6fefa0	0.23431253
203	0x3e70fe78	0.23534572
204	0x3e6971d1	0.22797324
205	0x3e69ed92	0.22844532
206	0x3e6504f9	0.22365178
207	0x3e6ac9c6	0.22928533
208	0x3e6e6f75	0.23284705
209	0x3e780b28	0.24223006
210	0x3e7ce63d	0.24697204
211	0x3e82529c	0.2545365
212	0x3e7a3f41	0.24438192
213	0x3e825529	0.25455597
214	0x3e787101	0.24261858
215	0x3e800a48	0.25007844
216	0x3e74c818	0.23904455
217	0x3e80597a	0.25068265
218	0x3e782a5e	0.24234912
219	0x3e850cf2	0.2598644
