Week8/PBNN/EPSD plot/EPSD_Data/model_for_FreqEnv_500epoch.pth (torch, 32070 bytes, 6 tensors)

network.fc1.weight f4 [25, 6]
0.27515337 -0.8400038 0.66850275 0.50039285 0.29860243 0.03436905 0.35793754 -0.046288945
-0.17547278 0.023980137 -0.05487119 0.019223057 0.5959571 0.10429653 0.06653167 -0.03604504
-0.35371736 0.9281454 -0.60365516 -0.41077957 0.40900972 0.64225626 0.19018643 0.120739296
-0.7507749 -0.37770206 -0.4536329 0.1349942 0.17848063 -0.02205881 0.41799536 0.1626264
0.50930953 -0.008641081 -0.27424368 0.19609001 0.46932483 -0.1826365 -0.56129086 -0.020746043
-0.076351 -0.43732154 0.7883299 -0.2117609 -0.51933587 -0.00080060074 -0.6012315 0.6062727
-0.3229213 -0.1769191 -0.40356782 -0.5233966 0.5677261 0.0023811904 -0.30944908 0.56834435
0.0065669343 0.14124453 0.48995832 -0.5307222 0.01849972 -0.025177844 0.019668391 -0.56059325
0.029404847 0.003260687 0.76307154 -0.088773824 0.1319918 -0.016413756 0.9138533 -0.28640828
0.6692842 -0.2727842 0.107027024 -0.08406959 -0.5663035 0.025149412 -0.48202363 -0.27110675
0.46196485 0.005114228 -0.45734486 -0.23360637 0.30241188 -0.26620743 0.75491446 -0.34714526
0.011858018 -0.17630924 0.44038546 -0.097306445 -0.23451306 0.16553539 -0.16484089 -1.0711086
-1.2937561 0.14722982 0.119472615 -0.10320119 0.029297043 0.43110472 1.1441619 -0.10362446
0.083339 0.02958696 1.0054066 0.61408156 0.43891695 -0.47240743 0.09508625 0.24093072
0.000846867 -0.40909445 0.02048105 0.27340537 0.31374592 0.18467109 0.25862545 0.42190593
0.21874304 -0.4147832 -0.2567468 -0.025708914 0.34637594 0.30279824 -0.20879805 -0.42457038
0.49559426 0.08477702 -0.53321147 -0.5146919 -0.274771 -0.2917168 -0.08622904 -0.11501587
0.6676767 0.17963736 0.72195494 0.12874523 -0.7707211 -0.00047140743 -0.5589863 -0.9242574
-0.36675164 0.055482507 0.16678925 0.3865274 -0.16968018 -0.023581661
00000000: e7e0 8c3e 7d0a 57bf ff22 2b3f bf19 003f
00000010: 6be2 983e 90c6 0c3d 9743 b73e 7a99 3dbd
00000020: 23af 33be fe71 c43c 9dc0 60bd ac79 9d3c
00000030: a590 183f 6b99 d53d c241 883d f7a3 13bd
00000040: 711a b5be f09a 6d3f 2589 1abf b351 d2be
00000050: b969 d13e e86a 243f 3bc0 423e 2a46 f73d
00000060: c932 40bf 2a62 c1be 9242 e8be eb3b 0a3e
00000070: a0c3 363e adb4 b4bc 7d03 d63e 8987 263e
00000080: 1c62 023f 5293 0dbc ab69 8cbe d2cb 483e
00000090: 584b f03e 1005 3bbe c2b0 0fbf 9bf3 a9bc
000000a0: ea5d 9cbd 9ce8 dfbe fdcf 493f d9d7 58be
000000b0: 32f3 04bf 68df 51ba 4fea 19bf b034 1b3f
000000c0: f155 a5be 482a 35be 71a0 cebe 52fd 05bf
000000d0: 7f56 113f bf0d 1c3b 1c70 9ebe 047f 113f
000000e0: 702f d73b 68a2 103e d1db fa3e 69dd 07bf
000000f0: ba8c 973c c441 cebc 9b1f a13c 0a83 0fbf
00000100: 6fe2 f03c 40b1 553b a858 433f 0dcf b5bd
00000110: dc28 073e 2476 86bc 4af2 693f 1ba4 92be
00000120: 3656 2b3f 5faa 8bbe fc30 db3d ad2c acbd
00000130: 44f9 10bf 2406 ce3c cdcb f6be 81ce 8abe
00000140: a886 ec3e 4195 a73b 1b29 eabe 8236 6fbe
00000150: bbd5 9a3e 574c 88be 1342 413f 06bd b1be
00000160: 2248 423c 698a 34be 347a e13e 9a48 c7bd
00000170: 3124 70be 1c82 293e 0dcc 28be 161a 89bf
00000180: cd99 a5bf 6ac3 163e 0fae f43d 255b d3bd
00000190: 5a00 f03c c2b9 dc3e e673 923f 1039 d4bd
000001a0: a3ad aa3d 5a60 f23c 2ab1 803f 7334 1d3f
000001b0: b9b9 e03e 63df f1be 94bc c23d 8bb6 763e
000001c0: 4800 5e3a d474 d1be e0c7 a73c cafb 8b3e
000001d0: 4ea3 a03e 6b1a 3d3e 8e6a 843e 0e04 d83e
000001e0: 2dfe 5f3e 775e d4be 5174 83be 809b d2bc
000001f0: 3058 b13e 5f08 9b3e 28cf 55be 4a61 d9be
00000200: 88be fd3e 939f ad3d 8c80 08bf d9c2 03bf
00000210: c9ae 8cbe e85b 95be da98 b0bd 718d ebbd
00000220: dcec 2a3f dbf2 373e 0ad2 383f cad5 033e
00000230: fa4d 45bf 3c27 f7b9 ba19 0fbf 229c 6cbf
00000240: dfc6 bbbe a041 633d cdca 2a3e ebe6 c53e
00000250: a4c0 2dbe 542e c1bc

network.fc1.bias f4 [25]
-0.0076795775 0.6087527 -1.1944568 0.18363607 -0.4270847 -0.09472797 0.17627959 -0.5876295
-0.61084557 0.35976514 0.6749809 -0.394036 0.55400884 0.44054553 -0.024461765 0.26056018
-0.3597668 -0.7445673 0.29414976 0.34994668 0.5402393 0.22534543 0.4583236 -0.6261293
0.36333495
00000000: f7a4 fbbb 38d7 1b3f f6e3 98bf 180b 3c3e
00000010: d9aa dabe bd00 c2bd a382 343e e36e 16bf
00000020: 6060 1cbf 2333 b83e 8ccb 2c3f 16bf c9be
00000030: 86d3 0d3f 2f8f e13e 0a64 c8bc 2568 853e
00000040: 5b33 b8be f69b 3ebf cc9a 963e 362c b33e
00000050: 1f4d 0a3f f4c0 663e 64a9 ea3e 034a 20bf
00000060: 0a07 ba3e

network.fc2.weight f4 [25, 25]
0.050002735 -0.009168593 -0.12146541 0.86167526 0.08520337 -0.8949068 -0.26510876 0.5644633
0.777265 -0.06688004 0.026647655 -0.19185576 0.2440915 -0.31775522 -0.1129496 0.6908485
-0.4913612 -0.23265855 0.1800818 -0.37834466 -0.10660546 0.034651093 0.48312867 -0.08572498
-0.2803683 -0.18647529 0.19717492 -0.64888287 0.16487673 -0.6836207 -0.060673933 -0.09852177
0.4382447 0.0049729245 -0.32755753 0.49449348 -0.21542212 -0.43573508 -1.0195929 -0.014127238
0.1506537 -0.07026604 -0.53508365 -0.036712855 0.2733753 0.14786461 0.28839618 0.05147911
-0.03364093 0.26812539 -0.096414424 -0.15485013 -0.37525114 0.27939376 0.10323889 0.22121346
0.37255195 0.104079925 -0.3845415 0.5970896 -0.082831904 0.19466864 0.75021315 -0.096543044
-0.70581794 -0.112350464 0.024840053 -8.692974 -0.090541124 -0.032860518 0.19307826 -0.0149135245
-0.06658296 -0.7102368 -0.012699858 -0.32670525 0.62265456 0.21709153 0.34425575 -0.24992925
0.012437466 -0.35128462 -0.7338536 0.21953315 -0.055098727 -0.7623575 0.3003518 0.18781956
0.25328112 0.1411631 0.05066573 -0.4565941 -0.6031916 -0.34781867 0.28705826 0.29930934
0.03842666 0.13740228 0.6290455 -0.70380896 0.47801006 0.24137692 -2.2448761 0.1948819
0.10624077 -0.22716531 -0.45199063 -0.47333863 -0.23931022 -0.6028331 0.11983874 0.29175904
0.6235991 -0.10170568 -0.16271865 -0.32338178 0.12454199 0.53923905 -0.6846563 0.07980732
0.386754 -0.7812401 -0.27855685 -0.1328088 -0.19177233 -0.26897937 -0.06715327 0.4035493
0.025556566 -0.46713227 0.5710712 -0.08632181 -0.13494892 0.18544626 0.030071752 -0.036562253
-0.060585134 0.11796436 0.0047142496 0.1279673 -0.0065487367 -0.31160456 -0.35317567 -0.013151525
-0.086592294 0.6132387 0.2797805 0.37766677 0.055882007 -0.1213428 0.38479143 0.103053175
0.083505675 0.019203728 -0.17951465 -0.94311565 0.2867817 0.20938884 0.054207955 0.27322307
-0.12778942 -1.2634311 0.344764 -0.047676716 0.40618688 0.06113122 0.21432237 -2.6859205
-0.2870321 0.03956059 -0.08444239 -0.040566385 0.275308 -0.39687443 0.17308234 -0.37815472
0.26906154 -0.017197339 0.0671705 -0.20006295 0.25513363 0.28144798 -0.59381235 0.58061385
0.032197688 -0.3036178 -0.9063614 0.34720382 -0.14077802 0.4035858 0.40607163 -0.46961525
-1.0265788 0.2588462 0.7888912 -0.05288221 0.21690662 -0.5510053 0.18056472 -0.15594634
0.32543582 0.0008255836 -0.45934376 0.698827 0.018321723 -0.6795615 -0.25270334 0.42490608
0.54216194 -0.3830359 -0.1431694 0.37137067 0.006785836 -0.35701236 0.40945467 0.29753423
0.055450648 0.05363323 -0.0066914298 -0.69192207 0.11923203 0.11764464 0.07556412 0.09999576
-0.114000395 0.5204004 -0.08212566 0.59496766 0.32199174 -0.17218605 -0.07546253 -0.47112933
-0.11756487 -0.44076335 -0.07734995 0.37084582 0.35353148 -0.087238155 0.8793457 0.13789132
-0.9901746 -0.29820505 0.10126436 0.33261397 -0.26527914 -0.028110208 -3.8820057 0.2724972
0.9566099 -0.2762144 0.0911204 -0.27905017 -0.6417675 0.15392107 -0.14452682 0.15226175
00000000: abcf 4c3d de37 16bc dbc2 f8bd c096 5c3f
00000010: 1b7f ae3d 9d18 65bf 56bc 87be ab80 103f
00000020: d7fa 463f 67f8 88bd 2f4c da3c d675 44be
00000030: 1ff3 793e d0b0 a2be 1f52 e7bd 73db 303f
00000040: b293 fbbe 0b3e 6ebe 5d67 383e 64b6 c1be
00000050: f753 dabd 4eee 0d3d a45c f73e 9490 afbd
00000060: 6f8c 8fbe 61f3 3ebe 39e8 493e 301d 26bf
00000070: 72d5 283e c401 2fbf 3b85 78bd c8c5 c9bd
00000080: 9c61 e03e eaf3 a23b 9fb5 a7be 402e fd3e
00000090: 9e97 5cbe ab18 dfbe 0582 82bf ee75 67bc
000000a0: f744 1a3e a4e7 8fbd 3efb 08bf 3860 16bd
000000b0: d9f7 8b3e d269 173e aaa8 933e c2db 523d
000000c0: 12cb 09bd bb47 893e ed74 c5bd 0891 1ebe
000000d0: eb20 c0be b30c 8f3e e96e d33d c885 623e
000000e0: 21bf be3e db27 d53d a0e2 c4be ddda 183f
000000f0: c6a3 a9bd 3757 473e f80d 403f 5cb8 c5bd
00000100: 7cb0 34bf 0018 e6bd 5e7d cb3c 6c16 0bc1
00000110: a06d b9bd c098 06bd 4fb6 453e db57 74bc
00000120: a65c 88bd 14d2 35bf 1113 50bc e945 a7be
00000130: 4a66 1f3f 3e4d 5e3e 4a42 b03e 74ed 7fbe
00000140: 83c6 4b3c 94db b3be d4dd 3bbf 4ccd 603e
00000150: 34af 61bd dc29 43bf b6c7 993e c553 403e
00000160: 10ae 813e 0f8d 103e de86 4f3d b4c6 e9be
00000170: c46a 1abf 4a15 b2be 4df9 923e 133f 993e
00000180: 4665 1d3d 2fb3 0c3e 2009 213f d32c 34bf
00000190: bcbd f43e 832b 773e 0dac 0fc0 1f8f 473e
000001a0: c394 d93d 069e 68be 516b e7be 7159 f2be
000001b0: bd0d 75be 4553 1abf 036e f53d 7161 953e
000001c0: 31a4 1f3f 114b d0bd b89f 26be 4c92 a5be
000001d0: df0f ff3d 920b 0a3f a345 2fbf 0572 a33d
000001e0: 9f04 c63e 5aff 47bf 019f 8ebe 08ff 07be
000001f0: f75f 44be aab7 89be a787 89bd 049e ce3e
00000200: 015c d13c f62b efbe b931 123f 7dc9 b0bd
00000210: 0d30 0abe a0e5 3d3e 0959 f63c 4dc2 15bd
00000220: 1e28 78bd 4c97 f13d fe79 9a3b dc09 033e
00000230: c996 d6bb a28a 9fbe 71d3 b4be 7e79 57bc
00000240: 4d57 b1bd 36fd 1c3f 643f 8f3e 8a5d c13e
00000250: 88e4 643d 9382 f8bd 6203 c53e 8b0d d33d
00000260: 0605 ab3d 2351 9d3c b0d2 37be 0770 71bf
00000270: 0dd5 923e 076a 563e 2909 5e3d e5e3 8b3e
00000280: 3bdb 02be 1cb8 a1bf e884 b03e a948 43bd
00000290: baf7 cf3e bb64 7a3d 5377 5b3e 1fe6 2bc0
000002a0: dff5 92be 490a 223d 22f0 acbd f028 26bd
000002b0: 2cf5 8c3e 2033 cbbe 7f3c 313e 7f9d c1be
000002c0: 6fc2 893e 6fe1 8cbc b090 893d 4ddd 4cbe
000002d0: e0a0 823e f319 903e 1604 18bf 1ca3 143f
000002e0: b9e1 033d cb73 9bbe 4d07 68bf b3c4 b13e
000002f0: 1d28 10be cca2 ce3e 9fe8 cf3e 6971 f0be
00000300: ef66 83bf 7d87 843e c6f4 493f 049b 58bd
00000310: c51c 5e3e af0e 0dbf f5e5 383e 66b0 1fbe
00000320: 869f a63e fa6b 583a 1b2f ebbe 54e6 323f
00000330: 7017 963c bef7 2dbf 5562 81be 4a8d d93e
00000340: 20cb 0a3f 481d c4be 009b 12be 4c24 be3e
00000350: b85b de3b 53ca b6be 0ba4 d13e 6856 983e
00000360: 3820 633d 85ae 5b3d c843 dbbb ce21 31bf
00000370: ec2f f43d acef f03d 5dc1 9a3d 94ca cc3d
00000380: 0a79 e9bd f638 053f 7f31 a8bd cd4f 183f
00000390: 1adc a43e 8a51 30be 198c 9abd dd37 f1be
000003a0: dac5 f0bd bcab e1be a769 9ebd 81df bd3e
000003b0: 1402 b53e eba9 b2bd cd1c 613f 6233 0d3e
000003c0: 157c 7dbf 55ae 98be b063 cf3d 614c aa3e
000003d0: abd2 87be 6147 e6bc c872 78c0 c184 8b3e
000003e0: 63e4 743f f96b 8dbe 559d ba3d aadf 8ebe
000003f0: e04a 24bf 7c9d 1d3e d7fe 13be 81ea 1b3e

network.fc2.bias f4 [25]
0.19723536 0.52588445 0.09258395 0.5862228 -0.28454396 -0.0879983 -0.044215735 0.27304468
0.31649482 0.23193553 0.4546225 0.61293083 0.28679973 0.040267754 0.25055927 -0.21490422
0.26655653 0.20186502 0.11706865 -0.117892236 -0.35974008 0.52187693 -0.014314606 0.26610062
0.4994619
00000000: 11f8 493e 5da0 063f a79c bd3d b312 163f
00000010: bfaf 91be 7438 b4bd 8f1b 35bd 83cc 8b3e
00000020: 9c0b a23e 8280 6d3e 48c4 e83e 09e9 1c3f
00000030: 6ad7 923e cdef 243d 4e49 803e da0f 5cbe
00000040: 197a 883e b4b5 4e3e b0c1 ef3d 7c71 f1bd
00000050: da2f b8be ba99 053f cf87 6abc 573e 883e
00000060: 78b9 ff3e

network.fc3.weight f4 [250, 25]
-0.081150174 0.29917443 -0.2520706 0.018100467 0.16023129 0.35042304 0.106691666 -0.037368834
0.14947915 -0.062096715 -0.34393474 -0.0913181 0.08158086 0.3690152 0.010516639 -0.1010997
-0.28031936 -0.36992145 0.0010482928 0.1895884 -0.3482783 -0.0018953611 -0.28023642 -0.09658071
0.3074269 -0.1643145 0.31313905 -0.23364478 0.085499205 0.036150526 0.3784883 0.15776058
-0.013936139 0.1244961 -0.030996894 -0.3736608 -0.07920236 0.0763382 0.49819845 0.020513376
-0.022948783 -0.27709824 -0.38955298 0.04023504 0.17893668 -0.3173485 -0.042146835 -0.2807094
-0.063254945 0.28948823 -0.20769206 0.33746365 -0.20532274 0.049331117 0.003352524 0.36777508
0.109367035 -0.010716885 0.16980726 -0.012060384 -0.377198 -0.0700069 0.07819458 0.5145641
0.014232697 -0.03564521 -0.2647967 -0.40402564 0.041753955 0.18364285 -0.26032498 -0.07846783
-0.30055818 -0.043506045 0.29683703 -0.22995342 0.37913695 -0.16971357 0.04012699 0.025459567
0.34847188 0.052688386 -0.018309494 0.18248226 -0.011300449 -0.38395205 -0.043752607 0.061015945
0.51021475 0.00020479641 -0.071872056 -0.2485547 -0.43689042 0.066271536 0.17327662 -0.20257525
-0.111885875 -0.3344736 -0.0171586 0.35526922 -0.22772728 0.4203683 -0.1503747 0.05853375
0.031787902 0.3506793 0.042927586 -0.017213304 0.16668566 -0.008595087 -0.37669468 -0.021351818
0.052102134 0.52245265 0.00043408223 -0.09619484 -0.22779295 -0.46878976 0.06581689 0.15434274
-0.18060526 -0.111350104 -0.35301664 -0.00431055 0.37295347 -0.21759811 0.44202298 -0.1400399
0.07447395 0.03552022 0.34747672 0.016241997 -0.012403619 0.14819984 -0.001648055 -0.3712099
-0.0066743093 0.03984908 0.52272874 0.0006686654 -0.12548922 -0.21193731 -0.47851413 0.0690369
0.14980288 -0.16872191 -0.09565904 -0.36920196 -0.0013930049 0.37128818 -0.20349552 0.46020874
-0.1316073 0.080613494 0.045842614 0.34418866 0.0008970387 -0.0073487693 0.12790577 -0.011177293
-0.36390576 0.00011840197 0.028739177 0.53019845 -0.0148094045 -0.15023592 -0.19796966 -0.4760412
0.06484512 0.14372459 -0.15605877 -0.08880868 -0.37573522 -0.0040937006 0.37808818 -0.19510663
0.47500417 -0.12942447 0.08324461 0.05604778 0.34354237 -0.007911827 -0.008513422 0.119798906
-0.013233161 -0.35666233 0.0039706905 0.022340262 0.5257878 -0.022818878 -0.17539813 -0.19091314
-0.48091495 0.05558503 0.14198147 -0.15245967 -0.07927564 -0.38639706 -0.0034029 0.38135278
-0.17844899 0.48080626 -0.13548878 0.07827703 0.07075652 0.33338088 -0.021315496 -0.008645599
0.10851157 -0.023699839 -0.35563418 0.0049680457 0.016553925 0.5226366 -0.034738872 -0.20115498
-0.18426614 -0.47270843 0.058109347 0.14360194 -0.13997538 -0.06981479 -0.39467928 -0.005609985
0.3913642 -0.16560513 0.48622653 -0.14429793 0.0715718 0.082797624 0.32889235 -0.027602198
-0.0056463247 0.09541151 -0.033832937 -0.34978104 -0.00046572875 0.01047843 0.51850176 -0.036430612
-0.21834685 -0.18123 -0.46468413 0.0629863 0.14512186 -0.13934006 -0.05450735 -0.40024152
-0.014096994 0.3912544 -0.14647004 0.4898547 -0.15218458 0.07055322 0.095972516 0.32696584
00000000: 1032 a6bd 642d 993e 660f 81be 6e47 943c
00000010: ac13 243e a66a b33e 2981 da3d 1010 19bd
00000020: 1011 193e 2059 7ebd 3718 b0be fc04 bbbd
00000030: de13 a73d 8fef bc3e fb4d 2c3c 5c0d cfbd
00000040: 0586 8fbe 5866 bdbe df66 893a 7623 423e
00000050: 8951 b2be c46d f8ba 267b 8fbe 1bcc c5bd
00000060: 0f67 9d3e 0f42 28be c353 a03e 9440 6fbe
00000070: 351a af3d 9312 143d 38c9 c13e fd8b 213e
00000080: 6754 64bc d0f7 fe3d 33ed fdbc 7850 bfbe
00000090: d934 a2bd 3457 9c3d de13 ff3e ab0b a83c
000000a0: 16ff bbbc d2df 8dbe 7d73 c7be 7fcd 243d
000000b0: 2d3b 373e 817b a2be 29a2 2cbd 24b9 8fbe
000000c0: cf8b 81bd cd37 943e 3aad 54be 09c8 ac3e
000000d0: 2040 52be 6d0f 4a3d 05b6 5b3b 044d bc3e
000000e0: d3fb df3d e095 2fbc f4e1 2d3e eb98 45bc
000000f0: 1920 c1be c75f 8fbd 7b24 a03d 79ba 033f
00000100: 4230 693c b600 12bd 6f93 87be 73dc cebe
00000110: 3206 2b3d df0c 3c3e 5149 85be beb3 a0bd
00000120: c3e2 99be 6533 32bd 06fb 973e e978 6bbe
00000130: 3d1e c23e 65c9 2dbe 335c 243d 9590 d03c
00000140: e86a b23e c7cf 573d cbfd 95bc a1dc 3a3e
00000150: 8525 39bc 5d95 c4be ef35 33bd dbeb 793d
00000160: 6f9d 023f 9ebe 5639 a831 93bd 2085 7ebe
00000170: 1ab0 dfbe 5fb9 873d 6d6f 313e e36f 4fbe
00000180: 6c24 e5bd 2040 abbe 3190 8cbc d9e5 b53e
00000190: 5731 69be 843a d73e d3fb 19be 16c1 6f3d
000001a0: 0834 023d 3d8c b33e d6d4 2f3d ea02 8dbc
000001b0: a5af 2a3e 68d2 0cbc 20de c0be 02ea aebc
000001c0: 0c69 553d 75bf 053f 8895 e339 cd01 c5bd
000001d0: 8e42 69be 3605 f0be 01cb 863d 060c 1e3e
000001e0: 96f0 38be 860b e4bd 99be b4be 843f 8dbb
000001f0: c2f3 be3e 0ad2 5ebe d650 e23e 9f66 0fbe
00000200: cc85 983d a67d 113d 78e8 b13e f00d 853c
00000210: 8c38 4bbc b3c1 173e 8d03 d8ba 390f bebe
00000220: 2ab4 dabb ca38 233d 8dd1 053f 6049 2f3a
00000230: 3f80 00be 1806 59be ceff f4be 3863 8d3d
00000240: ed65 193e 70c5 2cbe e3e8 c3bd 0a08 bdbe
00000250: 7d95 b6ba 7c19 be3e 2161 50be 7ba0 eb3e
00000260: 10c4 06be b018 a53d 77c5 3b3d 7f39 b03e
00000270: 4027 6b3a f2cd f0bb bbf9 023e f720 37bc
00000280: db51 babe 934e f838 6c6e eb3c 16bb 073f
00000290: 25a3 72bc 72d7 19be 8fb8 4abe acbb f3be
000002a0: 85cd 843d 8a2c 133e dfcd 1fbe 53e1 b5bd
000002b0: 5e60 c0be 7324 86bb c694 c13e 08ca 47be
000002c0: bf33 f33e d987 04be 267c aa3d 5b92 653d
000002d0: c9e4 af3e 9ca0 01bc e17b 0bbc 2159 f53d
000002e0: e6cf 58bc 729c b6be 911c 823b ed02 b73c
000002f0: 079a 063f a8ee babc 919b 33be bc7e 43be
00000300: 7c3a f6be 21ad 633d 9763 113e 631e 1cbe
00000310: 445b a2bd d6d5 c5be 3003 5fbb ac40 c33e
00000320: 55bb 36be 3d2c f63e 92bd 0abe b54f a03d
00000330: cbe8 903d e6b0 aa3e d69d aebc 45a6 0dbc
00000340: 503b de3d 2a26 c2bc af15 b6be fdca a23b
00000350: 199c 873c 83cb 053f 594a 0ebd 92fb 4dbe
00000360: 43b0 3cbe d706 f2be 1104 6e3d 630c 133e
00000370: b555 0fbe 0efb 8ebd 6713 cabe f7d3 b7bb
00000380: e360 c83e 6494 29be aff2 f83e d6c2 13be
00000390: 3c94 923d cd91 a93d 9464 a83e 011e e2bc
000003a0: ce04 b9bb 1c67 c33d 6894 0abd 8016 b3be
000003b0: 0e2d f4b9 b9ad 2b3c 88bc 043f 4438 15bd
000003c0: 5196 5fbe 5b94 39be 14eb edbe f6fe 803d
000003d0: d39a 143e 29af 0ebe 1943 5fbd 75ec ccbe
000003e0: 14f7 66bc 7f52 c83e 3efc 15be 3cce fa3e
000003f0: 46d6 1bbe 357e 903d 3d8d c43d 1168 a73e

network.fc3.bias f4 [250]
-0.06676122 -0.14803427 -0.140585 -0.114836395 -0.13116421 -0.13372636 -0.13248076 -0.12385217
-0.10815709 -0.1034064 -0.10475209 -0.10424388 -0.101066165 -0.1009977 -0.096068904 -0.0948103
-0.087512806 -0.08125383 -0.073056914 -0.06405343 -0.055497278 -0.048744563 -0.042076606 -0.030809883
-0.021145377 -0.014085103 -0.003569378 0.0051026447 0.015196899 0.021753581 0.029834853 0.03469045
0.039756376 0.039833024 0.053764053 0.059821412 0.0626158 0.071902335 0.07396354 0.07836014
0.08210408 0.089304805 0.09780829 0.10178666 0.10540247 0.109823726 0.11517874 0.114997365
0.12325777 0.12996955 0.1316303 0.13581675 0.1421215 0.1426725 0.14514588 0.15219437
0.15625438 0.15669724 0.16428183 0.16664109 0.16757976 0.17116298 0.1753913 0.18132135
0.18410642 0.19136661 0.18749262 0.19457227 0.20104349 0.1940719 0.20388854 0.20749256
0.2101193 0.20896763 0.21428867 0.21546717 0.21350878 0.22132717 0.22437467 0.21919098
0.22723411 0.22080742 0.2315543 0.233649 0.2303161 0.2302202 0.24067475 0.24549758
0.23828235 0.24388652 0.24667281 0.24332434 0.24742508 0.24392667 0.2505974 0.24946193
0.26200166 0.25658175 0.25577137 0.2641079 0.25974798 0.25971848 0.2605092 0.26624554
0.26066613 0.27071118 0.25804693 0.2659794 0.2619645 0.26304916 0.26155055 0.26372212
0.2653009 0.27002758 0.267244 0.27213225 0.27011618 0.26691017 0.27659148 0.2705129
0.26863027 0.25845355 0.2630087 0.26719213 0.25827235 0.26233262 0.25970444 0.25842062
0.25724563 0.26733345 0.25372654 0.25925252 0.26194614 0.2500093 0.25490916 0.25869226
0.25282288 0.24318628 0.241586 0.25333935 0.24469104 0.24593303 0.24559934 0.23925865
0.23807842 0.2438049 0.24377765 0.23259112 0.21997403 0.24126332 0.23981722 0.22212286
0.22975853 0.2236983 0.2322057 0.2343976 0.23554553 0.21889627 0.2161944 0.22125018
0.21043111 0.22327064 0.20713572 0.20947035 0.20304143 0.21063519 0.19821239 0.20133857
0.2020862 0.2061445 0.21254238 0.20563662 0.19685224 0.1935107 0.1930027 0.20218863
0.2042499 0.18106651 0.18908672 0.18482032 0.18250825 0.18669432 0.18809977 0.17229263
0.17119636 0.1875489 0.18389495 0.1690469 0.19062081 0.18065229 0.16709138 0.16908994
0.17067544 0.17879267 0.17474397 0.16585183 0.17093053 0.1538201 0.14626472 0.15215963
0.15861063 0.16555473 0.1489494 0.1430089 0.14457303 0.15233052 0.15059386 0.14061715
0.14398038 0.12962392 0.13719545 0.14615451 0.1353041 0.13556567 0.14756459 0.13475119
0.13923422 0.12891881 0.13537726 0.15058354 0.13202202 0.119022965 0.11753861 0.11932453
0.13585444 0.12281611 0.12282746 0.10904448 0.10877552 0.13768587 0.12095827 0.094568744
0.10628522 0.12455379 0.10807599 0.11166083 0.11017048 0.10613635 0.09972111 0.113331154
0.116827704 0.08690025 0.092729345 0.109187484 0.08504661 0.078500636 0.08507062 0.07789123
0.086241566 0.08210465
00000000: 1bba 88bd 4c96 17be 84f5 0fbe 582f ebbd
00000010: e94f 06be 90ef 08be 09a9 07be 35a6 fdbd
00000020: 7781 ddbd bcc6 d3bd 4488 d6bd d17d d5bd
00000030: c7fb cebd e2d7 cebd c6bf c4bd e72b c2bd
00000040: ea39 b3bd 6868 a6bd dd9e 95bd 722e 83bd
00000050: 1d51 63bd 61a8 47bd 8558 2cbd 0265 fcbc
00000060: 1239 adbc 34c5 66bc 3aec 69bb 1634 a73b
00000070: 6afc 783c 9134 b23c 3968 f43c 9317 0e3d
00000080: 95d7 223d f427 233d b237 5c3d 4c07 753d
00000090: b63c 803d 8841 933d 327a 973d 487b a03d
000000a0: 2f26 a83d 70e5 b63d b64f c83d 8675 d03d
000000b0: 40dd d73d 43eb e03d d5e2 eb3d bd83 eb3d
000000c0: 926e fc3d bd16 053e 18ca 063e 8c13 0b3e
000000d0: 4c88 113e bd18 123e 1fa1 143e d7d8 1b3e
000000e0: 2601 203e 3e75 203e 7f39 283e f6a3 2a3e
000000f0: 079a 2b3e 5945 2f3e c799 333e 4eac 393e
00000100: 6586 3c3e 9cf5 433e 11fe 3f3e f43d 473e
00000110: 58de 4d3e c9ba 463e 28c8 503e ee78 543e
00000120: 8429 573e 9cfb 553e 7d6e 5b3e 6da3 5c3e
00000130: 0ca2 5a3e 97a3 623e 79c2 653e 9a73 603e
00000140: 0fb0 683e 571b 623e 921c 6d3e af41 6f3e
00000150: fcd7 6b3e d8be 6b3e 7173 763e b863 7b3e
00000160: 4a00 743e 63bd 793e cc97 7c3e 042a 793e
00000170: 005d 7d3e eac7 793e 4d4e 803e f372 7f3e
00000180: 1525 863e af5e 833e 77f4 823e 2739 873e
00000190: b0fd 843e d2f9 843e 7661 853e 5651 883e
000001a0: 0876 853e a89a 8a3e ba1e 843e 742e 883e
000001b0: 3620 863e 61ae 863e f4e9 853e 9606 873e
000001c0: 85d5 873e 0e41 8a3e 35d4 883e eb54 8b3e
000001d0: ab4c 8a3e 73a8 883e 669d 8d3e ab80 8a3e
000001e0: e889 893e 0654 843e 14a9 863e 68cd 883e
000001f0: 463c 843e 7650 863e fbf7 843e b54f 843e
00000200: b3b5 833e eedf 883e 72e8 813e bfbc 843e
00000210: ce1d 863e 3801 803e 7483 823e 5073 843e
00000220: 0072 813e d305 793e 5262 773e b2b5 813e
00000230: 4a90 7a3e ded5 7b3e 657e 7b3e 3800 753e
00000240: d4ca 733e fea7 793e d9a0 793e 5e2c 6e3e
00000250: df40 613e bb0d 773e a592 753e 2d74 633e
00000260: d245 6b3e 2b11 653e 55c7 6d3e ed05 703e
00000270: d932 713e 5826 603e 1162 5d3e 688f 623e
00000280: 417b 573e 0fa1 643e 631b 543e 657f 563e
00000290: 18ea 4f3e c0b0 573e 30f8 4a3e b32b 4e3e
000002a0: afef 4e3e 8b17 533e b6a4 593e 6892 523e
000002b0: a293 493e ab27 463e 80a2 453e 890a 4f3e
000002c0: e326 513e 8069 393e f39f 413e 8a41 3d3e
000002d0: 71e3 3a3e cc2c 3f3e 3a9d 403e 7b6d 303e
000002e0: 194e 2f3e d20c 403e f54e 3c3e a11a 2d3e
000002f0: 1a32 433e eafc 383e 011a 2b3e ea25 2d3e
00000300: 8bc5 2e3e 6d15 373e 15f0 323e 10d5 293e
00000310: 6a08 2f3e 0483 1d3e 6bc6 153e bccf 1b3e
00000320: d36a 223e 2e87 293e 3186 183e ed70 123e
00000330: f40a 143e 88fc 1b3e 4735 1a3e f1fd 0f3e
00000340: 986f 133e 22bc 043e f77c 0c3e 87a9 153e
00000350: 288d 0a3e bad1 0a3e 2c1b 173e 37fc 093e
00000360: 6a93 0e3e 4b03 043e 56a0 0a3e 9232 1a3e
00000370: c830 073e 50c2 f33d 15b8 f03d 6b60 f43d
00000380: 6d1d 0b3e 0387 fb3d f78c fb3d b652 df3d
00000390: b3c5 de3d 86fd 0c3e f8b8 f73d 42ad c13d
000003a0: 11ac d93d 0f16 ff3d f256 dd3d 6fae e43d
000003b0: 10a1 e13d 045e d93d 953a cc3d 2a1a e83d
000003c0: 5d43 ef3d c2f8 b13d e2e8 bd3d b09d df3d
000003d0: eb2c ae3d f1c4 a03d 8139 ae3d 7085 9f3d
000003e0: 6b9f b03d 7c26 a83d
