Week8/PBNN/model_for_TimeEnv_1000epoch.pth (torch, 54832 bytes, 4 tensors)

network.fc1.weight f4 [100, 6]
-0.6523891 -0.5182249 -0.066087715 0.21534623 0.030006059 0.11962703 -0.039519805 0.028744955
-0.11396481 0.6666837 0.015880149 0.024522042 -0.0647669 -0.04289639 -0.019633945 -0.13018422
-0.030137606 0.008939759 -0.0498323 -0.04026572 -0.04293927 -0.04224054 0.015921587 -0.013476472
0.6969344 0.0048631574 0.20951885 0.01383112 0.45705307 0.11969567 -0.2624234 -0.36897868
0.26350588 -0.39127636 -0.3275587 -0.16026337 0.7821608 -0.14839286 0.36130068 -0.029065544
-0.09350189 -0.7329342 0.0947557 0.22398646 -0.34777245 0.70064646 0.0010508684 -0.0125761265
-0.26735416 0.47662562 0.14580879 0.22137861 0.12434621 0.070149645 -0.1157246 -2.7595167
-0.19281067 -0.08428059 -0.26645443 -0.0025645292 0.10932629 0.06740906 -0.34159598 -0.047145866
-0.430796 -0.04630622 -0.10293648 -0.35896567 0.34548903 -0.34249356 -0.19764876 -0.04449141
-0.4930423 0.0006741584 0.3098831 -0.07206421 -0.059477665 0.8823955 -0.751743 0.0066886786
-0.22831066 0.06660904 -0.018495176 0.07336264 0.017978935 0.29993385 0.15394196 -0.63889414
0.3959602 0.009085022 0.5407623 -0.6527605 -0.40088373 -0.09297352 -0.4539088 -0.009456688
-0.39386448 0.29909712 -0.3688401 -0.1426588 -0.079632044 0.03479421 0.367301 -0.09372612
-0.23498473 0.010679863 -0.74966043 -0.36616895 0.23830321 -0.7637936 0.28223062 0.4070711
0.029231329 -0.45380217 0.48826438 -0.18944834 -0.20010291 0.03998162 -0.50303894 -1.6848549
-0.13211913 0.029441265 -0.014661618 -0.24885693 0.1695964 -0.00844374 0.12055928 -1.3621981
-0.6115842 -0.22870584 0.4309362 -0.13538131 0.54330766 -0.28911343 0.3858021 0.15495287
-0.23991947 -0.4118705 -0.30455822 -0.20410162 0.10111183 -0.39137936 0.10446596 0.22027355
-0.3032592 -0.1529144 0.03093353 -0.13069585 -0.3457516 -0.3728987 -0.13203815 -2.4271824
0.0773911 0.28218094 0.0018727779 0.024289256 0.19350404 0.2489782 0.072147824 -0.20494778
-0.023364563 -0.039397996 0.40092322 -0.35643354 -0.40833616 -0.18796259 0.56820667 -0.35333264
-0.11387035 0.42754355 -0.17572916 0.47867575 -0.33099192 0.05419792 -0.69781405 -0.41296592
0.06569041 -0.34368947 -0.036769725 -0.003252294 0.1088956 0.14652508 -0.14729044 -0.38665748
-0.15049969 -0.32669985 0.05588934 -0.033913784 -0.008194492 0.55656934 0.013254024 -0.0004156159
0.44991168 -0.0032725146 0.63217515 0.020618185 -1.0411125 -0.5979787 -0.4383903 -1.4957855
0.33520898 -0.08749281 -0.40721443 0.34450874 -1.0359395 -0.062687166 -0.22758687 -0.020388443
-0.22023393 0.6354891 -0.2319101 -0.31832793 -0.2927541 -0.31159478 -0.3363624 0.01333751
-0.04019043 0.05389464 -0.17244671 0.16902953 -0.33446193 0.09168154 -0.49327812 0.35713884
0.16430221 -0.48882952 -0.16946705 0.09623265 -0.40655884 0.18856388 -0.18260804 -0.0741044
-0.1002273 0.2924425 -0.05007116 -1.3434626 0.091007456 0.11478767 -0.19777581 -0.16431789
-0.014424694 -0.4416783 -0.055102598 0.3420444 -0.33162695 -0.006551728 -0.42341173 -0.1121175
-0.41165465 -0.03946755 0.9317911 0.32799992 -0.13060173 -0.13709939 -0.1210375 -0.108149715
00000000: f902 27bf 63aa 04bf ff58 87bd b983 5c3e
00000010: 44cf f53c 04ff f43d 85df 21bd 8a7a eb3c
00000020: 6266 e9bd c8ab 2a3f 1617 823c 73e2 c83c
00000030: 82a4 84bd 20b4 2fbd 5ed7 a0bc 034f 05be
00000040: 24e3 f6bc 1178 123c f41c 4cbd abed 24bd
00000050: 17e1 2fbd 6b04 2dbd fd6d 823c 6ccc 5cbc
00000060: 4b6a 323f 1f5b 9f3b 1c8c 563e ec9b 623c
00000070: dc02 ea3e 0123 f53d 5c5c 86be c6ea bcbe
00000080: 3eea 863e 6055 c8be c6b5 a7be 151c 24be
00000090: b13b 483f 4cf4 17be 67fc b83e dd1a eebc
000000a0: eb7d bfbd 93a1 3bbf 470f c23d b55c 653e
000000b0: 3b0f b2be 915d 333f 4bbd 893a 190c 4ebc
000000c0: a5e2 88be 4608 f43e e64e 153e 13b1 623e
000000d0: 3aa9 fe3d 9eaa 8f3d 0501 edbd ec9b 30c0
000000e0: 2970 45be 4d9b acbd b76c 88be a911 28bb
000000f0: 76e6 df3d c30d 8a3d abe5 aebe 061c 41bd
00000100: 4b91 dcbe 97ab 3dbd 5cd0 d2bd 59ca b7be
00000110: f0e3 b03e 515b afbe 7064 4abe a03c 36bd
00000120: 0a70 fcbe 01ba 303a ffa8 9e3e 6796 93bd
00000130: da9e 73bd ace4 613f 3b72 40bf b42c db3b
00000140: 45ca 69be 526a 883d 3283 97bc 273f 963d
00000150: 8f48 933c ee90 993e f6a2 1d3e 918e 23bf
00000160: 4cbb ca3e 58d9 143c 666f 0a3f 501b 27bf
00000170: a240 cdbe e768 bebd bc66 e8be 39f0 1abc
00000180: 9ba8 c9be 4223 993e 9cd8 bcbe 2615 12be
00000190: 2016 a3bd 6084 0e3d e00e bc3e 7bf3 bfbd
000001a0: d69f 70be 98fa 2e3c bfe9 3fbf 7f7a bbbe
000001b0: c205 743e fa87 43bf 8880 903e a06b d03e
000001c0: 8a76 ef3c c258 e8be cafd f93e bffe 41be
000001d0: c7e7 4cbe c4c3 233d 29c7 00bf 53a9 d7bf
000001e0: 3d4a 07be cf2e f13c 4837 70bc 5ad4 7ebe
000001f0: aeaa 2d3e 9d57 0abc c9e7 f63d 825c aebf
00000200: c890 1cbf dd31 6abe aba3 dc3e 66a1 0abe
00000210: 3616 0b3f ad06 94be da87 c53e f7ab 1e3e
00000220: 73ad 75be b1e0 d2be 0eef 9bbe 0400 51be
00000230: b813 cf3d e062 c8be 40f2 d53d 648f 613e
00000240: ca44 9bbe 9895 1cbe 5068 fd3c 22d5 05be
00000250: 5b06 b1be 94ec bebe 0235 07be f556 1bc0
00000260: 3a7f 9e3d 057a 903e 0078 f53a 43fa c63c
00000270: ec25 463e 24f4 7e3e 3dc2 933d d5dd 51be
00000280: 0a67 bfbc cb5f 21bd cf45 cd3e 757e b6be
00000290: 7011 d1be 4479 40be fe75 113f 04e8 b4be
000002a0: dc34 e9bd fde6 da3e 58f2 33be fd14 f53e
000002b0: c677 a9be a3fe 5d3d f1a3 32bf 4570 d3be
000002c0: b288 863d 11f8 afbe da9b 16bd 7024 55bb
000002d0: a804 df3d ac0a 163e 4ed3 16be f8f7 c5be
000002e0: 971c 1abe 3445 a7be 38ec 643d 2ee9 0abd
000002f0: 3142 06bc 547b 0e3f 6827 593c 06e7 d9b9
00000300: d35a e63e af77 56bb 3bd6 213f 78e7 a83c
00000310: 2d43 85bf 2215 19bf b274 e0be e675 bfbf
00000320: 83a0 ab3e 6e2f b3bd 697e d0be 7363 b03e
00000330: aa99 84bf 2162 80bd 880c 69be aa05 a7bc
00000340: 0185 61be 6aaf 223f d779 6dbe e1fb a2be
00000350: dee3 95be 5a89 9fbe b137 acbe 9285 5a3c
00000360: b89e 24bd a0c0 5c3d df95 30be 1416 2d3e
00000370: 983e abbe 88c3 bb3d f38e fcbe e7da b63e
00000380: d73e 283e dd47 fabe c588 2dbe a015 c53d
00000390: 7b28 d0be e416 413e 9afd 3abe 0cc4 97bd
000003a0: f843 cdbd 06bb 953e 6b17 4dbd 95f6 abbf
000003b0: 1e62 ba3d cc15 eb3d be85 4abe f342 28be
000003c0: 8d55 6cbc a823 e2be 43b3 61bd 7220 af3e
000003d0: 02cb a9be e1af d6bb 6cc9 d8be dc9d e5bd
000003e0: 66c4 d2be baa8 21bd dd89 6e3f 9bef a73e
000003f0: 76bc 05be c863 0cbe 82e2 f7bd 997d ddbd

network.fc1.bias f4 [100]
-0.03920107 -0.4638294 0.048210595 0.0063555078 -0.395313 -0.29409322 -0.05446491 -0.456917
-0.20235512 0.30808923 0.29770616 -0.27837056 -0.0033500122 0.49798504 0.026765356 0.15978575
-0.28956854 0.28888145 -0.038549412 0.30165023 0.091313556 0.038241666 0.06761893 -0.16925304
-0.1419946 0.08695992 -0.0067208726 -0.06762184 -0.3433243 0.26228714 -0.07857631 -0.4261537
0.23241697 0.2679187 0.26807386 0.59671545 -0.3347321 0.34050834 -0.30765224 0.29195794
0.32260162 -0.13354944 0.11533476 -0.19908565 0.31597358 -0.37741426 0.16747421 -0.399932
-0.17005119 0.352345 0.0061005987 0.12208139 0.09571247 -0.5231082 -0.35599402 -0.36136097
0.04072504 0.17585824 -0.36520162 -0.6435779 0.2172637 -0.40028128 -0.37323216 0.01715042
-0.16742681 0.30669096 0.13906929 0.26403216 -0.24981827 -0.40582877 0.033165526 0.29286382
0.21176462 0.26398882 0.1510967 -0.16878554 -0.2952437 -0.36330032 -0.39186612 0.2100578
0.20390594 -0.053904656 -0.22113433 -0.18191327 -0.6261083 -0.15203187 0.35873732 0.4868987
0.1083609 0.06510057 -0.3695683 0.2860429 0.30423272 -0.15891564 0.31134474 -0.18044747
0.34723413 0.27242684 -0.40792117 -0.49273401
00000000: 4d91 20bd 0c7b edbe 7978 453d dd41 d03b
00000010: 7766 cabe 6393 96be 9916 5fbd 06f1 e9be
00000020: 2e36 4fbe dfbd 9d3e f16c 983e 9686 8ebe
00000030: e18b 5bbb e5f7 fe3e 0543 db3c e09e 233e
00000040: 5442 94be 45e8 933e fde5 1dbd e671 9a3e
00000050: 9a02 bb3d 4ba3 1c3d cb7b 8a3d ab50 2dbe
00000060: 0867 11be 0b18 b23d c43a dcbb 527d 8abd
00000070: 34c8 afbe 804a 863e 9eec a0bd d130 dabe
00000080: b7fe 6d3e a42c 893e fa40 893e 58c2 183f
00000090: 0162 abbe 1c57 ae3e 9884 9dbe 837b 953e
000000a0: 0a2c a53e 2fc1 08be a134 ec3d 1cdd 4bbe
000000b0: 4ac7 a13e 713c c1be 5c7e 2b3e e3c3 ccbe
000000c0: e621 2ebe 9066 b43e 88e7 c73b cf05 fa3d
000000d0: e604 c43d 6bea 05bf d944 b6be 4e04 b9be
000000e0: 4dcf 263d 2f14 343e b5fb babe 85c1 24bf
000000f0: 607a 5e3e abf1 ccbe 4918 bfbe 0a7f 8c3c
00000100: ef71 2bbe 9906 9d3e 2e68 0e3e 392f 873e
00000110: 5cd0 7fbe cac8 cfbe 93d8 073d 3ff2 953e
00000120: d3d8 583e 8b29 873e 18b9 1a3e 1ed6 2cbe
00000130: 2f2a 97be 8002 babe ada2 c8be 6419 573e
00000140: b8cc 503e 21cb 5cbd 0a71 62be 7947 3abe
00000150: a248 20bf 3eae 1bbe 6bac b73e c94a f93e
00000160: 52ec dd3d 7353 853d 0e38 bdbe 3774 923e
00000170: 64c4 9b3e c8ba 22be 9468 9f3e 39c7 38be
00000180: acc8 b13e 887b 8b3e 0bdb d0be a247 fcbe

network.fc2.weight f4 [123, 100]
-0.08287833 0.13183266 -0.06623642 -0.03991421 0.45860815 0.059186988 0.10648899 -0.17155682
-0.13413261 0.34525365 0.27749458 -0.049376786 0.026279356 -0.07673148 0.10505398 -0.066712864
0.052444585 0.01619721 0.10476924 0.06417205 0.03891469 -0.084025525 0.21246727 -0.088314526
-0.017461933 0.21436691 0.22143614 0.069413126 0.035242308 0.14264163 -0.066160955 -0.0044294205
-0.22412126 0.13278872 -0.0031944287 0.2952015 0.09692872 -0.08400878 0.077503346 0.15108448
0.059413943 0.3768512 -0.0043366915 -0.40191326 0.01824903 -0.40525845 0.21939196 0.04197041
-0.07229614 0.035242945 -0.14102106 -0.61201376 0.0037719782 -0.35631052 0.028869972 -0.067341685
-0.11229452 0.00033119263 -0.076170325 0.50676346 -0.114376366 0.0068401694 -0.008796692 0.17569146
0.04221993 -0.2793936 -0.12684023 -0.09148881 -0.09740583 -0.013205409 0.77070063 0.53043777
-0.016189648 0.17365466 0.14405599 -0.07596712 0.095144086 -0.08043896 -0.49241182 0.17742088
-0.15695749 -0.14660034 0.0807978 -0.009882587 -0.2604266 -0.0036698803 0.14823154 0.072557986
0.015362479 0.13645686 0.12086141 0.15381311 -0.04652171 0.19122949 -0.3864019 0.08172495
-0.49085644 -0.019399647 -0.3806277 0.013912142 -0.14259961 -0.010583429 -0.13546656 0.025808379
0.35436168 -0.021695301 0.052936524 -0.13365082 -0.16002047 0.3603552 0.17590304 -0.056872036
0.1677521 -0.11473795 0.09979394 -0.14184724 0.07247049 -0.026608206 0.0020898548 0.020803127
0.101139545 -0.021617178 0.23219556 0.026247092 0.011153258 0.2248672 0.22813588 0.0044422206
0.073542826 0.052378442 0.007626915 0.20248179 -0.07138422 0.07881631 -0.015443549 0.32407936
0.05730673 -0.110696636 -0.027902171 0.17323668 0.04401148 0.19248098 0.23536101 -0.19022918
0.010829508 -0.42551708 0.27470383 0.0069247037 0.040285993 -0.055696025 -0.10694955 -0.52046365
0.013792401 -0.44323838 0.025054803 0.010027543 -0.15219635 -0.0620541 0.07677253 0.29828396
-0.011322751 -0.013782188 -0.002276875 0.0866896 0.0066472664 -0.30670598 -0.03755111 -0.057430398
-0.06610719 0.07728761 0.59665376 0.6528848 0.022092128 0.09752836 0.17812824 0.0030523762
0.31320798 0.01885119 -0.45358735 0.15402913 -0.19110122 -0.067448005 -0.081987366 0.0472486
-0.07610635 -0.09634949 0.1378726 0.019292036 -0.03540353 0.10377307 0.22606197 0.1821757
-0.07586365 0.42807043 -0.46045756 0.03884501 -0.37195224 -0.09146706 0.03308815 0.024307787
-0.17455883 0.031886205 0.0052747107 0.04219157 0.39993462 0.07740737 0.019794883 -0.1053485
-0.1861547 0.30956852 0.2440509 -0.04124824 0.19505306 -0.13599427 0.082289495 -0.13548386
0.09862331 1.5897327e-05 0.017053911 0.010775624 0.10124878 -0.010692908 0.21099319 -0.0482299
0.03757777 0.21324983 0.3004532 0.0011019653 0.058776986 0.055476386 0.034289308 0.16767158
-0.08898462 0.12262507 0.009698134 0.2985151 0.01620026 -0.10257769 0.06786958 0.17452621
0.026305469 0.22467102 0.26522744 -0.20997874 -0.022651285 -0.42699215 0.2841073 0.082591094
-0.029241504 -0.077311784 -0.06869092 -0.35096577 0.034104545 -0.5298013 0.068335176 -0.04772296
00000000: 1dbc a9bd 24ff 063e f6a6 87bd 157d 23bd
00000010: b0ce ea3e 0e6e 723d e616 da3d 97ac 2fbe
00000020: 0f5a 09be 16c5 b03e c513 8e3e 503f 4abd
00000030: ce47 d73c 6525 9dbd 8b26 d73d c1a0 88bd
00000040: 22d0 563d 03b0 843c 4191 d63d a36c 833d
00000050: 0365 1f3d 9315 acbd 0591 593e 3fde b4bd
00000060: 540c 8fbc 0083 5b3e 28c0 623e 7828 8e3d
00000070: 3d5a 103d a610 123e 657f 87bd ac24 91bb
00000080: 0b80 65be c4f9 073e 9f59 51bb a724 973e
00000090: 9182 c63d cc0c acbd 13ba 9e3d e4b5 1a3e
000000a0: 095c 733d a4f2 c03e ce1a 8ebb 93c7 cdbe
000000b0: fd7e 953c 097e cfbe 49a8 603e 2ae9 2b3d
000000c0: 0010 94bd e85a 103d d367 10be efac 1cbf
000000d0: 4b33 773b 556e b6be b880 ec3c 70ea 89bd
000000e0: abfa e5bd eca3 ad39 30ff 9bbd 40bb 013f
000000f0: 283e eabd 8023 e03b 0020 10bc 76e8 333e
00000100: ceee 2c3d ae0c 8fbe 68e2 01be 7c5e bbbd
00000110: b57c c7bd 805b 58bc a34c 453f c5ca 073f
00000120: 27a0 84bc 87d2 313e 6a83 133e a694 9bbd
00000130: e7da c23d 2ebd a4bd 671d fcbe d2ad 353e
00000140: 77b9 20be 661e 16be 5179 a53d 93ea 21bc
00000150: a356 85be 6082 70bb 02ca 173e 4899 943d
00000160: e8b2 7b3c 59bb 0b3e 3086 f73d 2f81 1d3e
00000170: 8c8d 3ebd aad1 433e 78d6 c5be 695f a73d
00000180: 8951 fbbe 02ec 9ebc a2e1 c2be c1ef 633c
00000190: a205 12be 1e66 2dbc bfb7 0abe 186c d33c
000001a0: e56e b53e 58ba b1bc f8d3 583d c3db 08be
000001b0: 68dc 23be 7a80 b83e ed1f 343e a7f2 68bd
000001c0: 35c7 2b3e bbfb eabd c460 cc3d 6740 11be
000001d0: 696b 943d 74f9 d9bc f2f5 083b 526b aa3c
000001e0: 4022 cf3d 8216 b1bc acc4 6d3e 2404 d73c
000001f0: 28bc 363c 9643 663e 749c 693e 0c90 913b
00000200: 9f9d 963d c78a 563d 33eb f93b 6357 4f3e
00000210: e431 92bd 726a a13d f006 7dbc bbed a53e
00000220: 76ba 6a3d ebb4 e2bd 1893 e4bc f564 313e
00000230: 6245 343d bc19 453e 7a02 713e 70cb 42be
00000240: 406e 313c 60dd d9be fba5 8c3e a0e8 e23b
00000250: ed02 253d 8421 64bd 5e08 dbbd 1b3d 05bf
00000260: 86f9 613c 24f0 e2be bb3f cd3c 904a 243c
00000270: 5cd9 1bbe 712c 7ebd eb3a 9d3d adb8 983e
00000280: 0f83 39bc b0ce 61bc a037 15bb 518a b13d
00000290: 50d1 d93b 9108 9dbe 31cf 19bd 233c 6bbd
000002a0: 3563 87bd f748 9e3d 4dbe 183f 7523 273f
000002b0: 8dfa b43c f3bc c73d 4067 363e 600a 483b
000002c0: cc5c a03e d06d 9a3c 9a3c e8be d0b9 1d3e
000002d0: 0ab0 43be 2e22 8abd fee8 a7bd bf87 413d
000002e0: a5dd 9bbd e252 c5bd 7a2e 0d3e 550a 9e3c
000002f0: 4b03 11bd fa86 d43d ca7c 673e 448c 3a3e
00000300: 675e 9bbd 0c2c db3e 18c1 ebbe f21b 1f3d
00000310: 8670 bebe 1553 bbbd 7187 073d 2021 c73c
00000320: 8dbf 32be 1c9b 023d 7bd7 ac3b 11d1 2c3d
00000330: 3bc4 cc3e c187 9e3d e128 a23c f4c0 d7bd
00000340: 569f 3ebe c47f 9e3e 7be8 793e eaf3 28bd
00000350: fdbb 473e 1542 0bbe 6587 a83d 48bc 0abe
00000360: 05fb c93d 405b 8537 a5b4 8b3c 3e8c 303c
00000370: 855b cf3d 4f31 2fbc 990e 583e b78c 45bd
00000380: 26eb 193d 2a5e 5a3e 00d5 993e d26f 903a
00000390: 23c0 703d 353b 633d f272 0c3d 19b2 2b3e
000003a0: 923d b6bd da22 fb3d ece4 1e3c f9d6 983e
000003b0: 68b6 843c 4014 d2bd 35ff 8a3d 00b7 323e
000003c0: 917e d73c 2910 663e e4cb 873e ab04 57be
000003d0: 308f b9bc b79e dabe 8376 913e 8525 a93d
000003e0: e18b efbc a455 9ebd d3ad 8cbd c9b1 b3be
000003f0: 35b1 0b3d 0fa1 07bf 50f3 8b3d 2779 43bd

network.fc2.bias f4 [123]
0.2737594 0.29049385 0.28197497 0.274419 0.29866308 0.30076367 0.3169611 0.33930904
0.33010986 0.33645692 0.31150937 0.35099974 0.32536456 0.33967465 0.33818114 0.33529583
0.3377303 0.31791073 0.3269254 0.34186932 0.3388053 0.32701364 0.33552712 0.33556363
0.36154816 0.33034167 0.34356967 0.34232447 0.3452437 0.3495665 0.35406926 0.36510468
0.3445493 0.35938475 0.3364135 0.3427947 0.34096798 0.34255576 0.36599803 0.36129245
0.37999535 0.37289518 0.36490566 0.3774502 0.36007947 0.37757653 0.3728618 0.35895494
0.3707633 0.36530292 0.36970332 0.354522 0.36150488 0.35464996 0.3647144 0.36334136
0.3574754 0.33959267 0.36707246 0.37063676 0.3672765 0.37612417 0.3616895 0.36017576
0.35723653 0.36713865 0.34855634 0.37372756 0.37954488 0.36724037 0.35186112 0.35800138
0.3672264 0.37324536 0.3728943 0.3774329 0.37950632 0.35946172 0.3826758 0.3677021
0.3552791 0.3524512 0.347151 0.36144963 0.37394732 0.3500632 0.3703975 0.35309142
0.3762049 0.354851 0.36758044 0.39348453 0.38572985 0.35054487 0.38831028 0.3685375
0.36836106 0.35587227 0.36848366 0.38451228 0.36093637 0.37600112 0.38698742 0.34574908
0.36844638 0.37230057 0.38683456 0.3672604 0.35706675 0.34680292 0.35235047 0.37923935
0.36243173 0.36155525 0.37254998 0.36834887 0.38017517 0.36378616 0.35101256 0.38184053
0.37055802 0.37314782 0.36673772
00000000: 312a 8c3e 9cbb 943e 065f 903e a680 8c3e
00000010: 5eea 983e b2fd 993e ba48 a23e eab9 ad3e
00000020: 2904 a93e 1544 ac3e 287e 9f3e 3db6 b33e
00000030: 2f96 a63e d6e9 ad3e 1426 ad3e e5ab ab3e
00000040: fcea ac3e 32c5 a23e c462 a73e 7f09 af3e
00000050: e377 ad3e 556e a73e 36ca ab3e ffce ab3e
00000060: d71c b93e 8b22 a93e 5de8 af3e 2745 af3e
00000070: c8c3 b03e 61fa b23e 9148 b53e 00ef ba3e
00000080: c468 b03e 4701 b83e 643e ac3e c982 af3e
00000090: 5b93 ae3e 7863 af3e 1864 bb3e 53fb b83e
000000a0: c08e c23e 1eec be3e ead4 ba3e 2741 c13e
000000b0: 565c b83e b651 c13e bee7 be3e f1c8 b73e
000000c0: b0d4 bd3e fc08 bb3e c149 bd3e e883 b53e
000000d0: 2b17 b93e ae94 b53e d9bb ba3e e107 ba3e
000000e0: 0407 b73e 17df ad3e ecf0 bb3e 1ac4 bd3e
000000f0: aa0b bc3e 5993 c03e 5e2f b93e f568 b83e
00000100: b5e7 b63e 99f9 bb3e fa75 b23e 3859 bf3e
00000110: b553 c23e ee06 bc3e 2427 b43e f54b b73e
00000120: 1905 bc3e 041a bf3e 00ec be3e e33e c13e
00000130: a74e c23e 5e0b b83e 15ee c33e 7343 bc3e
00000140: 24e7 b53e 7c74 b43e c7bd b13e ed0f b93e
00000150: 0676 bf3e 7c3b b33e bea4 bd3e 66c8 b43e
00000160: ee9d c03e 08af b53e 8133 bc3e ce76 c93e
00000170: 627e c53e 9e7a b33e 9bd0 c63e f2b0 bc3e
00000180: d299 bc3e e434 b63e e4a9 bc3e cbde c43e
00000190: a7cc b83e 3883 c03e 3723 c63e 0606 b13e
000001a0: 01a5 bc3e 2e9e be3e 2e0f c63e 8e09 bc3e
000001b0: 74d1 b63e 2790 b13e 4867 b43e a92b c23e
000001c0: a790 b93e c51d b93e dfbe be3e 3998 bc3e
000001d0: 52a6 c23e 2e42 ba3e ebb7 b33e 9a80 c33e
000001e0: c8b9 bd3e 3b0d bf3e 0cc5 bb3e
