Week8/PBNN/model_for_TimeEnv_2000epoch.pth (torch, 29072 bytes, 6 tensors)

network.fc1.weight f4 [25, 6]
00000000: 7f2f 0abf 1dc9 383e 7f18 12bd c798 9abb
00000010: b149 b1be e78a 55be 2f74 be3d 5dbe 65bf
00000020: 41c8 47ba 654e 083d 589b 353d 3b21 5b3f
00000030: 35c2 bbbe 3745 4d39 6007 40bf c6ae 4cbb
00000040: 9df9 7ebf fbe0 c7be 2917 09bf 859f fa3e
00000050: f600 febe f06f fb3b 7639 883c 5103 5fbe
00000060: d1f3 a9bf 14d1 f4be 657f 823c 6cf0 003e
00000070: 18c6 bebd 9949 c43e e9dd 873f cdfd 2ebf
00000080: 62e6 e2bd 2575 073e e730 f8be ea69 95bf
00000090: 9b8f 32bf fa69 843e 55e7 21be 93ab 3e3d
000000a0: 36e1 b93e 9b71 353f 708d cfbf 3467 0e3b
000000b0: ee91 a83e bae8 41bb 846a 78bf 118d d73e
000000c0: 08de a23f 5b9b 613e c231 e8bd 8487 973d
000000d0: 1539 ab3e d268 4e3f 872c afbf 2505 69be
000000e0: 49d7 e0bc 6ced ebbc 16bc 133f b92e 573e
000000f0: 89a0 3fbf 87de 563e f015 fcbc cd25 26bd
00000100: 9c95 f6be dc36 993f 24b5 183e 37f4 52bb
00000110: c084 83bd a8f5 d23e dba8 91bd 1f45 633e
00000120: 2bbf 07bf 8393 dabe 4a50 42be bd9a ca3c
00000130: f30a 3bbe b6de 89bd b460 3fbe 32bd 633e
00000140: bbf6 abbd b8c2 6fbe 8993 1a3e 6bee 30bc
00000150: 09b9 723d 12af 263f 7ed2 963b eb65 783d
00000160: e363 62bf fb77 673e 43d7 193f 9a00 38bf
00000170: 7564 e83e 26cf fbbd 4bf4 19be a4d5 8e3c
00000180: 3ad0 aebc b4e1 02bf 2e87 84bd 4833 0a3d
00000190: 3b82 263d 4e2d 4fbe fb16 2f3f 7ad1 9c3d
000001a0: f2f8 cabc 72f8 953c 7fc9 a43f 6999 dbbe
000001b0: bbee 4f3f 4c71 8abf bccf 6fbd 59fe 0fbd
000001c0: 67a8 9cbd 949e b7be 7331 4e3f 01d2 db3c
000001d0: 7096 8a3d 017f a53b 47c9 d43f 444b 58bf
000001e0: 3a0a 82bd 4216 793d 74d9 f1bc 4642 523d
000001f0: 5d16 dd3e f33e d4bf eda8 d3bd 0428 303f
00000200: d58b 9d3c 6429 803e bff5 a53d 5cbc 1b3e
00000210: abaa 513e 9ed5 8dbe be53 3bbe 25e3 de3c
00000220: 16b1 81be 8c09 39bf 7e72 32be fb4b 01be
00000230: dc69 803e 5738 e33d 0f45 f53e 3acc 24bf
00000240: 1355 793f 8796 a0ba 11c9 02bf 87c8 bc3b
00000250: 2db6 cdbe e387 873e
-0.53978723 0.18045469 -0.035667893 -0.0047179195 -0.34626535 -0.20853768 0.09299504 -0.89743596
-0.0007621088 0.033277888 0.0443376 0.8559758 -0.36671606 0.00019576108 -0.75011253 -0.0031232103
-0.9959963 -0.39038834 -0.53550965 0.4894983 -0.49610108 0.007673256 0.016628962 -0.21778609
-1.3277532 -0.47815764 0.015929887 0.12591714 -0.09315127 0.383374 1.0614597 -0.6835602
-0.11079098 0.13228281 -0.4847481 -1.1672947 -0.69750375 0.25862104 -0.15810902 0.046550345
0.36304635 0.70876473 -1.6215038 0.0021728994 0.32923836 -0.0029588179 -0.9703753 0.42099813
1.2724009 0.2203192 -0.113376155 0.073988944 0.33441988 0.80628693 -1.3685464 -0.22755869
-0.027446406 -0.028799735 0.5770887 0.21013917 -0.7485433 0.20983325 -0.03077218 -0.040563393
-0.48161018 1.1969867 0.1491285 -0.003218902 -0.064218044 0.41203046 -0.07112285 0.22194336
-0.53026074 -0.42690668 -0.1897594 0.024731988 -0.18265896 -0.06731932 -0.18689233 0.22240141
-0.083966695 -0.23414123 0.15095343 -0.010799031 0.059258495 0.65110886 0.0046027293 0.06064407
-0.88433665 0.22604363 0.6009409 -0.7187592 0.45389143 -0.1229537 -0.15034597 0.017435856
-0.021339525 -0.51125646 -0.06471096 0.03374031 0.04065154 -0.20232126 0.6839444 0.07657142
-0.02477691 0.018306945 1.2873992 -0.4289048 0.8122365 -1.0815825 -0.05854772 -0.035154674
-0.07649308 -0.35863173 0.80544204 0.026833536 0.06766975 0.0050505404 1.6623925 -0.84489846
-0.06349607 0.060812242 -0.029522635 0.051332735 0.43181124 -1.658171 -0.103349544 0.6881106
0.019231716 0.2503158 0.08103513 0.15208572 0.20475261 -0.2770204 -0.18293664 0.02720792
-0.25330418 -0.7228019 -0.17426488 -0.1262664 0.25080764 0.1109473 0.4790425 -0.64374125
0.9739544 -0.0012251892 -0.51088053 0.0057612094 -0.40178052 0.2647086

network.fc1.bias f4 [25]
00000000: bb18 103f d597 a4be 0d99 3b3f e7c1 103d
00000010: 8312 5bbf d3cc a1bf 51f5 dabd cbb1 89bf
00000020: 7677 80bf 43b1 303d 3202 26be 4e75 413c
00000030: 4df9 023f 45ef 523e f0d6 14bf fd19 a43e
00000040: 810a d93e d038 fd3e ddc9 04bf 0dcb b9be
00000050: ca32 21bf a37a 07bf ceef 1b3f 8b66 4a3e
00000060: 1b20 b23e
0.56287736 -0.3214709 0.7328041 0.03534117 -0.8557512 -1.2640632 -0.10691322 -1.0757383
-1.0036457 0.0431378 -0.16211775 0.011807753 0.5116165 0.20599087 -0.5814047 0.32051077
0.42390826 0.49457407 -0.5187052 -0.36287728 -0.6296812 -0.52921504 0.6091279 0.1976568
0.3479012

network.fc2.weight f4 [25, 25]
00000000: 5e43 bd3a 41d7 ac3e bc6f 923e 3423 acbe
00000010: 558e a6be 6b14 00be 60f4 76bc addc 3dbf
00000020: 1cb8 07c0 c91a 46bf 3f91 343f 16c2 f13e
00000030: 19e4 00bd 2860 903d dad0 ea3e 21d2 533d
00000040: d102 1e3f 1bf0 493f 49b0 36bf 8bcf b9be
00000050: 65bb fbbe 1cdc 243f 1e75 4bbe 8e35 e23c
00000060: e28a 02bf 1fd8 9e3e 497c a63e d8a3 4f3f
00000070: 994c b93e 8d7e 9bbf 45b1 5f3e 8481 24be
00000080: e07a b1bf a3ee 773e 0c49 20be 2752 4c3f
00000090: 8357 8a3e bd83 123f 02b6 853e 82d0 f33d
000000a0: eb19 81be c0d3 c8bd 0b3c b9bd 277b 6a3e
000000b0: 1587 a7bf fb02 843f 973b 8ebe 0982 b4bd
000000c0: 778a e93e 3040 2abf d032 e03d 0d04 a03f
000000d0: be1f 2fbe e802 95be ece9 6abe 84ad 943f
000000e0: 269d 593e 38a8 40be 696e 5e3e a523 a2bc
000000f0: e5b5 f63e bedb cf3e cd6d 4d3e c66f a53e
00000100: 2eb5 df3e f63c afbe a5c6 283f 0a8d eb3d
00000110: 307f 373d 23f4 2bbe e69e 933d d26a d4bf
00000120: 4ef0 f9be 8714 853e 015f 68be 3c2a 16bf
00000130: a5f4 0fbe adb1 3c3f 7027 d5be f21f acbf
00000140: 7d53 8fbe 4631 15be 71d2 6d3e acc5 dbbf
00000150: 8157 503f 8d4e 0ebe 2ce2 1d3d b3b6 753e
00000160: 3ff3 6d3e 924d 673e 38ff 64be 03e1 1fbc
00000170: 8f7c 7f3f 2d43 89be 29a4 2cbf c520 b3bd
00000180: 5673 c43e f1f1 933e 9475 073f e840 b53e
00000190: 932a a5bd 70b4 9ebf 5198 5f3f dc97 23bf
000001a0: b8cd 57bd 0f88 ae3f 5cd5 22bf efd9 863c
000001b0: 139a ed3d c757 b2be 8729 2e3f 534a 13bf
000001c0: c7d0 043c 877b 10bf e6ff 89be 4b3d 42bf
000001d0: 048c f2be 1c9f 18be b576 19bf 312d 613e
000001e0: b8dc 1a3f fce4 3a3f 923a 57bd 345d 493f
000001f0: 3a68 61bf dce5 4c3f 0f15 353e bee0 30bf
00000200: d7fa b6bf 6050 d1be bbde 42bf e3de 163f
00000210: 7563 e03d 61a6 2ebe ee61 62bf 6648 b6bd
00000220: 2684 ae3e 9dde 763f 78e0 ce3e ef51 27c0
00000230: b654 a93d e44e 983f 3a23 23be 5137 123c
00000240: 71dd fa3e 5f7b 09bf d434 c2be ebc9 f73d
00000250: 260e c1bd 36a4 883d f69d c5be c87a 0a3d
00000260: 45c7 623f ced2 05bf 555b 803f 2939 81bf
00000270: 08a3 1d3e bdda 713e 4649 ef3c 9045 4ebf
00000280: 1b6a c03e f164 933d e84a 9abe 97f6 6d3e
00000290: a99a cbbf 22e6 64be 7913 d23e 57aa babe
000002a0: 0d05 673f 8564 263f df06 cabe 8030 8bbe
000002b0: c05e 75bd 09db 2b3f ebf9 acbd f4c6 80bc
000002c0: 2d58 ed3e 0633 b6bd 03bc 1e3c 552d cb3e
000002d0: 90e6 6e3f 57e8 89bf 149f 4d3e 8cd9 5fbf
000002e0: 7a76 b73e 5d1d 053f 6cf0 5dbe 6e75 d43e
000002f0: 0ef5 6cbd 4921 31bf 95d3 8dbf 7426 debe
00000300: 7ddc 4d3f cd35 61be 4f9d 7ec1 5526 b5bf
00000310: 0c75 393f 46fe 3d3f 8718 503e 5d2f a4bd
00000320: bcc6 ebbe 09cb 1cbe d2ed 353f 561c 063f
00000330: 14fa 443d e9b7 a7bf 0b74 973e e2b7 4cbf
00000340: 8eeb 8bbf ae87 293d 26b9 b23e 77d2 b33e
00000350: 6b47 303e d7a2 d0bd 4062 e63c 4174 98be
00000360: 5862 473c 7777 ef3e be03 043f be6f 4a3e
00000370: 44e2 ad3d addb 033f 3a86 d9bd 013c 15bf
00000380: 2810 3e3f aa5a 89bf 8126 0e3e f201 433c
00000390: ef42 353f 6fbb a23d 11a6 94bf dd92 953e
000003a0: 226f 943c 280a 28be 5bfd 8bbe 2c21 71be
000003b0: 76d5 323e 29e7 20bf fb0d 2c3e e21f c5be
000003c0: 2294 00be 7fba ebbd d8ca 81bf e058 063f
000003d0: acdb 913f 022b c43d 7ab0 093e 7406 2a3f
000003e0: 8165 3cbe ff05 9dbc 4265 ab3e c245 b4be
000003f0: 52fe 4b3f c2f7 e6bd 36eb 41be 2fd9 8a3d
0.0014439633 0.33757976 0.28600872 -0.33620608 -0.32530466 -0.12507789 -0.015072912 -0.7416485
-2.1206121 -0.7738462 0.7053413 0.47218388 -0.03146753 0.0704959 0.45862466 0.051714066
0.6172305 0.78881997 -0.7136274 -0.36291155 -0.49166408 0.6439836 -0.19868895 0.027613427
-0.5099317 0.31024262 0.32516697 0.8110938 0.36191252 -1.2147995 0.21844967 -0.16065031
-1.3865623 0.24212126 -0.15652865 0.79812855 0.2701989 0.57232267 0.26115423 0.11905004
-0.25215086 -0.09806013 -0.090446554 0.22898541 -1.3088099 1.031341 -0.27779838 -0.08813865
0.45613453 -0.6650419 0.10947192 1.2501236 -0.17101952 -0.2910378 -0.22940797 1.1615453
0.21251354 -0.1881417 0.21721806 -0.019792387 0.4818565 0.40597337 0.20061417 0.3231184
0.43692917 -0.34226197 0.6592811 0.115015104 0.04479903 -0.1679235 0.07208042 -1.6595099
-0.4881615 0.25992224 -0.22692491 -0.58658195 -0.14058168 0.7370861 -0.4163165 -1.3447249
-0.27993384 -0.14569578 0.23224808 -1.71697 0.8138352 -0.13897152 0.038545772 0.23995475
0.23237322 0.22588184 -0.22362983 -0.009758237 0.99799436 -0.26809064 -0.6743799 -0.08746485
0.38369244 0.28895524 0.52913785 0.35401082 -0.08064761 -1.2398815 0.8734179 -0.63903594
-0.052686423 1.3635272 -0.6360681 0.01646134 0.11601653 -0.34832594 0.68032116 -0.57535285
0.008106417 -0.5643849 -0.26953048 -0.75874776 -0.47372448 -0.14904445 -0.5994676 0.21989895
0.6049304 0.7300565 -0.05254609 0.7865784 -0.8804966 0.8003824 0.17683814 -0.6909293
-1.42953 -0.40881634 -0.7612111 0.5893385 0.1095647 -0.17055656 -0.8843068 -0.08900528
0.34085196 0.9643343 0.4040563 -2.6143758 0.082681105 1.1899076 -0.15931407 0.008924321
0.4899707 -0.53703874 -0.3793093 0.1209906 -0.09426527 0.06671946 -0.38597077 0.0338085
0.8858531 -0.5227479 1.0027872 -1.0095569 0.15394223 0.23618598 0.029209744 -0.80574894
0.37580952 0.071969874 -0.30135274 0.23238598 -1.5906574 -0.22353414 0.4103048 -0.36458084
0.9024208 0.6499713 -0.39458367 -0.2718544 -0.059904814 0.67131096 -0.084461056 -0.015719868
0.46356335 -0.08896451 0.00968838 0.39683023 0.9332056 -1.077403 0.20080215 -0.87441325
0.35832578 0.5199793 -0.21673745 0.41495842 -0.05785089 -0.69191414 -1.1080195 -0.43388712
0.80414563 -0.2199318 -15.913405 -1.4152323 0.72444224 0.74216115 0.20321856 -0.08016846
-0.4605006 -0.15311827 0.7106601 0.5238699 0.048090056 -1.3103 0.2958072 -0.7996808
-1.093126 0.04138916 0.34906882 0.3512151 0.17214744 -0.10187309 0.028123021 -0.29776195
0.012169443 0.46770832 0.5156821 0.19769189 0.08490422 0.51507074 -0.10621305 -0.58294684
0.742434 -1.0730793 0.13881876 0.011902319 0.7080526 0.07945906 -1.161318 0.2921361
0.018119399 -0.16410124 -0.27341732 -0.2354781 0.17464241 -0.6285272 0.16802208 -0.38500887
-0.12556508 -0.11510181 -1.0140028 0.5247936 1.1395164 0.095785156 0.13446227 0.66416097
-0.18398096 -0.019167898 0.3347569 -0.3520947 0.79684937 -0.11277725 -0.18937382 0.06779706

network.fc2.bias f4 [25]
00000000: 04c9 ce3f 6838 843e 80d2 e63e 9f96 f33e
00000010: bc53 fe3e 99b0 c8bd 22b2 973e 1b7b 063f
00000020: de4e 92be 6b8e cb3f ddf9 7abf e275 66bf
00000030: 8407 abbf a058 7dbd f69c 9c3f 7f61 42be
00000040: 56e1 123f ea9c ad3f d052 49bf cfb5 563f
00000050: 0a6d 2e3e 1d21 783f 67d8 c13e 89cd 4fbf
00000060: 6b7f 803f
1.6155095 0.25824285 0.45082474 0.47575852 0.4967326 -0.09799308 0.29628092 0.52531594
-0.28575796 1.5902838 -0.9803751 -0.90023625 -1.3361669 -0.061852098 1.2235401 -0.18982504
0.57375085 1.3563511 -0.78641987 0.8387117 0.17033783 0.96925527 0.37860414 -0.81172997
1.0038885

network.fc3.weight f4 [220, 25]
00000000: 4012 aebe 382a ddbe 1d44 f93d 621f a13e
00000010: 4e30 51be f05d 38bd e790 443e d952 38be
00000020: 1c00 563e c36e c2bd b2ad 453d cb4c 5fbe
00000030: 614a 0c3f fa81 0f3e a7cc a93e 99ce 4d3e
00000040: a77b 71be 238a b13e 43eb 6c3e b137 733d
00000050: 8dbc 8cbe 2ae6 293c b873 643c c717 67bd
00000060: 9d8b 633e f0c3 b4be 1a8c debe f3cf 083e
00000070: 23c6 a53e 29b8 54be fac6 2abd ef2b 4f3e
00000080: 2e43 59be cb5d 583e 5408 ddbd a61b 6e3d
00000090: 8297 79be f59c 143f 8046 083e 8f7b b23e
000000a0: 8db4 57be edc5 60be ae19 a63e 42c5 7c3e
000000b0: 57d8 8f3d 3685 91be fc8c 9d3c 5dcd 8b3b
000000c0: 2139 02bd 6266 633e 03d5 b5be 2c0a e4be
000000d0: 526d 113e ff53 af3e 9cb6 56be c047 06bd
000000e0: 9dad 493e 89df 68be 1fef 533e e31d c8bd
000000f0: 3832 4a3d 2f11 81be f0ba 183f f7f3 033e
00000100: 08b7 b33e 8135 25be 9b24 4ebe 7a70 a53e
00000110: f796 853e 52a7 ca3d fb12 9ebe b1e1 2b3c
00000120: c8a5 abbc 0a17 e539 8da8 633e 83d6 babe
00000130: 273c e9be cb43 1c3e 4a11 b93e 2a79 5abe
00000140: 1177 edbc 7462 463e a029 76be ff66 543e
00000150: e389 c0bd 678b 253d a559 84be 0b0e 1c3f
00000160: 2729 f73d b9f7 b43e c973 68be 60a0 40be
00000170: eae4 a33e e6dd 8c3e cfe9 023e e54a aabe
00000180: 643f b83b 7a66 41bd 7e07 123d 562a 653e
00000190: efaf c2be 0dd5 edbe cceb 263e 285d c23e
000001a0: 3282 5ebe 8dcc a0bc 9096 3d3e 3bf9 7fbe
000001b0: a01a 553e 7973 b4bd 70bf 053d b247 86be
000001c0: 6a93 1e3f 3f93 e13d be99 b43e ff7b 1a3d
000001d0: d804 34be 6a2b a23e 77ef 923e 26a1 233e
000001e0: 82dc b7be e9d4 f23b c2d9 95bd fd98 933d
000001f0: f94e 683e 793a cfbe c4a4 f3be e4a4 343e
00000200: 2a25 d03e 293b 65be 9935 48bc 3009 363e
00000210: 0726 87be 7d1c 5e3e f097 aabd 09e4 8b3c
00000220: 5df7 88be 2fb4 203f 7e5d c63d afeb b43e
00000230: 0623 e53d 98a2 23be 9567 a43e 644a 9a3e
00000240: 0238 4d3e 9552 cabe 13d5 e43b 863b d6bd
00000250: 6654 f13d 3d75 693e f6dc d7be 8396 fabe
00000260: 5895 433e 0257 de3e 79da 69be 8ec6 28bc
00000270: d8e2 2f3e e252 8bbe 6159 6b3e dbf8 a0bd
00000280: 0eaf 69ba dc2c 8bbe 4548 213f 0bd8 a73d
00000290: ed8c b33e 20e5 5ebe 08ca 18be c6f3 a43e
000002a0: 7c90 a03e 4f73 743e fc6d dbbe a050 92bb
000002b0: c088 0abe 0484 243e 5cde 6c3e 0eab e1be
000002c0: 6a88 00bf cb3d 513e 5df8 ec3e 0a60 70be
000002d0: 9128 63ba 0dce 223e fd7f 8cbe a1d1 6f3e
000002e0: 2d2f 8abd db49 8ebc af9e 8cbe 6be3 223f
000002f0: 8c85 873d 3ad9 b03e 4143 083d c9a8 0cbe
00000300: 5a58 a83e 9d98 a63e 2c10 903e 5709 edbe
00000310: 69d1 05bc f238 2abe b423 573e 06d6 6d3e
00000320: 914d eabe a700 03bf d9e6 5c3e d279 f73e
00000330: 00c3 71be 0eb8 423b 24b7 1e3e 7dbb 91be
00000340: 07c4 7b3e 7488 82bd fe02 00bd 9cbb 8dbe
00000350: 8638 233f 14dd 603d 6a52 af3e f16d fd3d
00000360: aa0f 02be a9bb a73e c328 ac3e 4f13 a13e
00000370: 261c fbbe 63b5 68bc f54c 41be f5ab 7b3e
00000380: dddd 713e c86c f4be 8117 04bf bb32 673e
00000390: 5f1d 013f f950 7dbe d4d0 093c 66ed 133e
000003a0: cf47 93be ca97 803e 8e2c 83bd 65c8 34bd
000003b0: 49ce 90be 3fc6 253f 7765 443d 8b53 af3e
000003c0: 6224 c1bd 8132 edbd 5456 a93e c544 af3e
000003d0: 09f4 b03e 647a 03bf e6fc ebbb e009 5dbe
000003e0: 117e 8f3e 93b3 743e c7b3 fcbe 95cd 06bf
000003f0: c9c1 733e b1be 073f 1f03 82be 819a 4d3c
-0.339983 -0.43196273 0.12171195 0.31469256 -0.20428583 -0.04501146 0.19195901 -0.18000354
0.20898479 -0.09493782 0.048261352 -0.21806638 0.54800993 0.14014426 0.3316395 0.20098342
-0.23582326 0.34675702 0.2313662 0.059379283 -0.27487603 0.010369817 0.013943605 -0.05641916
0.22221227 -0.35305738 -0.43466264 0.13360576 0.3237773 -0.20773377 -0.041693665 0.20231603
-0.21217033 0.21129529 -0.10792604 0.058131836 -0.24374202 0.58052 0.13308144 0.34859893
-0.21064968 -0.21950503 0.32441467 0.24684623 0.070236854 -0.28421944 0.019232266 0.0042664246
-0.031792764 0.22207025 -0.35514078 -0.4453901 0.14201859 0.3424377 -0.20968097 -0.03278327
0.19695134 -0.22741522 0.20696686 -0.097713254 0.0493643 -0.25208423 0.59660244 0.12886034
0.3510058 -0.16133691 -0.20131151 0.32312375 0.2609174 0.09895195 -0.30873856 0.010490821
-0.020953074 0.0004369545 0.22232266 -0.36491784 -0.45553705 0.15260236 0.36146003 -0.21335283
-0.02898744 0.19373494 -0.24039316 0.20742415 -0.094013 0.040416148 -0.25849643 0.6095893
0.12068396 0.35345247 -0.22700419 -0.18811178 0.32010585 0.27513045 0.12784503 -0.33260265
0.005622791 -0.04721687 0.035651676 0.22379431 -0.38024852 -0.46451607 0.16300887 0.37961698
-0.21729353 -0.019628787 0.18514466 -0.24997418 0.20810938 -0.08811087 0.032653272 -0.26226574
0.61943686 0.11014413 0.35273546 0.03771591 -0.17579973 0.31673747 0.28698322 0.15979442
-0.35910422 0.007410635 -0.07316925 0.072069146 0.22686376 -0.404743 -0.47586644 0.17641026
0.40653354 -0.22385849 -0.01221981 0.17776942 -0.263962 0.21690555 -0.08329761 0.01707651
-0.26751223 0.6277494 0.09685801 0.35336062 0.11188321 -0.15979993 0.32110277 0.3013488
0.20040897 -0.3951613 0.0069834082 -0.10460572 0.11783676 0.22798629 -0.42160767 -0.48942956
0.19099939 0.43425757 -0.22837247 -0.010301245 0.17176378 -0.27211672 0.22983314 -0.078599654
-0.000891433 -0.27182662 0.630009 0.08195504 0.35068455 -0.21767092 -0.14920819 0.32217234
0.31360233 0.23872112 -0.4285735 -0.0044651777 -0.13528728 0.16065985 0.23131698 -0.44075817
-0.5020815 0.20433728 0.46283236 -0.23474136 -0.00086654077 0.15898915 -0.27441397 0.23419811
-0.06747279 -0.017369201 -0.27464816 0.6362826 0.06617269 0.3454073 0.033267263 -0.13736261
0.32879907 0.3253831 0.28137338 -0.46296188 -0.008167603 -0.16623285 0.21009713 0.23226175
-0.45762303 -0.5117287 0.21572436 0.4833513 -0.23609543 0.0029711756 0.1549955 -0.28463355
0.24586497 -0.063736826 -0.031252854 -0.27682197 0.6375812 0.054898337 0.34242564 0.12374485
-0.12701288 0.3276036 0.3362485 0.31460044 -0.49044913 -0.014203402 -0.18877013 0.24577315
0.2361979 -0.47739244 -0.51598364 0.22577946 0.5043544 -0.2473792 0.008411605 0.14446029
-0.28765723 0.25115806 -0.064049825 -0.044136424 -0.28282383 0.64755625 0.047948327 0.34243426
-0.094307676 -0.115818985 0.33073676 0.34232154 0.34561184 -0.5135863 -0.0072017787 -0.21585798
0.2802587 0.23896627 -0.4935591 -0.52657443 0.23804392 0.53025347 -0.25393006 0.012549044

network.fc3.bias f4 [220]
00000000: 96b7 c9bd 7215 b7bd 7cc9 9bbd df68 70bd
00000010: 6dd1 21bd 5156 43bc 1879 4f3c 2948 0d3d
00000020: 03d2 533d a98f 853d a2ca ab3d c8f6 c73d
00000030: 84a2 ce3d aef5 cb3d e3e0 e03d df4f 003e
00000040: 2373 023e 136b 003e 3512 043e ddbf 033e
00000050: 6db3 123e 5a39 2b3e dfd8 243e 1748 253e
00000060: ae56 2a3e 8b6b 373e 2a3d 433e 20a4 383e
00000070: 4371 3f3e a30b 473e 854b 3a3e 11db 413e
00000080: 9692 533e 1df6 4d3e b39e 4b3e 063a 4c3e
00000090: c7da 5a3e ee1f 563e cf8d 4f3e 8612 353e
000000a0: e714 453e 325d 393e 4098 253e de8a 2c3e
000000b0: 3d41 193e f451 233e 998c 0e3e 2aed 003e
000000c0: 0062 f13d 58f4 e73d 217f e43d c007 e13d
000000d0: f56d ff3d e1e2 f03d 927a 073e 98d6 f63d
000000e0: bc89 0e3e ab4d 1d3e ee0e 253e 5510 313e
000000f0: 41b3 4b3e ca68 5a3e 902d 703e a5e3 6d3e
00000100: 84c6 733e ac03 7e3e fdde 7f3e 7a5a 783e
00000110: 1f11 6a3e a09a 733e 49ca 703e 61d3 663e
00000120: 69d4 593e 935e 6f3e dfa9 583e e534 753e
00000130: e94c 733e aefa 6e3e 0d98 6f3e 35b1 723e
00000140: de48 553e 9cfa 653e 39d9 5f3e b1ba 673e
00000150: 2c76 573e 7b4d 713e eb6b 6b3e 055f 6e3e
00000160: 2b7b 7c3e a258 683e 83e2 843e 221f 8d3e
00000170: 723f 8c3e 73a6 8b3e 0146 853e 18e7 883e
00000180: b600 7c3e ac52 7d3e bf50 813e 1294 833e
00000190: 6adb 8d3e cbfd 883e 4673 8f3e bc4a 853e
000001a0: e5ad 723e e2bf 713e c650 6a3e 98ec 5c3e
000001b0: fd2b 4b3e e469 413e ff49 273e b72a 273e
000001c0: badf 0b3e bfc9 e43d 00af d63d e0c3 e43d
000001d0: b21e c73d d065 ab3d b0d8 863d 7d1c 9e3d
000001e0: 96de 883d d98e 6f3d 5a4e ff3c 9df8 293d
000001f0: 13f4 103d b08f b23c 33e7 c53c 99f2 af3c
00000200: 9309 d63c 4c72 603c 2b71 d23c 0fda 603c
00000210: 08f7 b43b 74b1 9f3b a9ed 793c b7fc 853c
00000220: 0430 093c e7d0 3abc 9947 b5bb bf74 a6bc
00000230: e155 07bd 4fa3 65bd 3742 3ebd 41e7 5fbd
00000240: d16f 7dbd 101b 9dbd a519 9cbd 75fa aabd
00000250: 92b7 cbbd 5afe c2bd 1c83 e5bd 8aec e1bd
00000260: 094a ebbd ccda 0abe 0a38 19be 0371 22be
00000270: 0c18 2fbe a8f2 36be 3665 36be 3fe6 4bbe
00000280: e653 53be f576 61be ee46 6dbe 0bad 84be
00000290: 4c5c 95be 0a08 a3be 955c 9abe 5b83 a4be
000002a0: 02aa b0be 20af b0be 8e4d b7be 9fa9 b3be
000002b0: 3f5c afbe 55fa aebe 728a afbe dc3d b1be
000002c0: 4ef3 bbbe b81d b7be 5ad6 b5be 621f bbbe
000002d0: 5345 b4be 6cdc b9be 7435 b3be d786 bcbe
000002e0: c906 bdbe ec32 bdbe 2f85 bfbe 1390 bdbe
000002f0: 6346 b6be c848 c0be b051 bcbe 4671 bdbe
00000300: c022 b9be 0dea bdbe 8a5f b5be d241 c0be
00000310: ef54 bbbe dabb b9be 062b c0be 19e2 c1be
00000320: 405e c0be 3782 cbbe 826a cebe 3d99 cfbe
00000330: b0fa cebe de43 c7be 0c05 cabe 7006 cebe
00000340: c42d c7be 4abb d3be 72fa ccbe fb26 cfbe
00000350: 6759 cebe 6ee5 c5be 871e d0be 849f cabe
00000360: eb5b cdbe 2072 cabe 29bf cbbe e839 d0be
-0.09849469 -0.08939637 -0.076067895 -0.058693763 -0.039506365 -0.011922435 0.012663148 0.034492645
0.051713955 0.065215416 0.083882585 0.09763867 0.10089591 0.09958969 0.10980394 0.12530468
0.12739234 0.12540846 0.1289757 0.12866159 0.14326258 0.16721097 0.16098355 0.16140781
0.16634628 0.17912118 0.19066301 0.18031359 0.1869555 0.19438033 0.18192871 0.18931223
0.20661387 0.20113416 0.19884758 0.19944009 0.2137252 0.20910618 0.2026894 0.17682847
0.19246255 0.18101957 0.1617136 0.16849849 0.14966293 0.15949231 0.13920821 0.12590471
0.1178627 0.11325902 0.111570604 0.10987806 0.124721445 0.11762024 0.1323035 0.12052649
0.13919729 0.15361659 0.16118976 0.17291386 0.19892599 0.21329036 0.2345488 0.23231371
0.23806196 0.24806088 0.24987407 0.24253264 0.22858094 0.23789454 0.23514666 0.22541572
0.21272434 0.23375921 0.2115855 0.23945959 0.23759808 0.23337814 0.23397847 0.23700412
0.20828578 0.22458881 0.21860208 0.22629811 0.21041173 0.23564713 0.22990386 0.23278435
0.2465636 0.2269006 0.25954065 0.27562815 0.27392155 0.27275428 0.2602997 0.2673881
0.24609646 0.24738568 0.25256917 0.25698906 0.27706462 0.2675613 0.28017634 0.2603358
0.23699148 0.23608354 0.22882375 0.21574628 0.19840999 0.1888805 0.16336821 0.16324888
0.13659564 0.111712925 0.10482597 0.11170173 0.097226515 0.083690286 0.065842986 0.077202775
0.0668308 0.05848584 0.03116529 0.04149686 0.035389017 0.021797031 0.024158096 0.021477984
0.026127612 0.0136991255 0.025688728 0.013723864 0.0055226125 0.004873449 0.0152544165 0.016355855
0.008373264 -0.011402345 -0.0055322167 -0.02031934 -0.033040885 -0.056063946 -0.046449866 -0.0546639
-0.061874215 -0.076711774 -0.07622079 -0.08348552 -0.09947123 -0.0952117 -0.11206648 -0.11031444
-0.114887305 -0.13560027 -0.14962783 -0.15863423 -0.17099017 -0.17866004 -0.17812046 -0.1991205
-0.20637473 -0.22018035 -0.23171589 -0.2591327 -0.2917198 -0.3184207 -0.3014876 -0.32131466
-0.34504706 -0.3450861 -0.35801357 -0.35090348 -0.34250066 -0.34175363 -0.34285313 -0.34617507
-0.36709064 -0.3576486 -0.355151 -0.3654738 -0.3520914 -0.3630098 -0.3500172 -0.36821625
-0.3691924 -0.36952913 -0.374063 -0.37023982 -0.35600576 -0.37555528 -0.36781073 -0.37000483
-0.36159325 -0.3709263 -0.35424453 -0.37550217 -0.36588237 -0.36276132 -0.37532824 -0.3786781
-0.37571907 -0.39747784 -0.40315634 -0.405466 -0.40425634 -0.38918966 -0.39456975 -0.40239286
-0.38902104 -0.41353828 -0.40034825 -0.40459427 -0.40302584 -0.38651603 -0.4064829 -0.39574826
-0.4010919 -0.39540195 -0.3979428 -0.4066918
