Week8/PBNN/model_for_TimeEnv_500epoch.pth (torch, 29062 bytes, 6 tensors)

network.fc1.weight f4 [25, 6]
000000 1c c4 cb be 10 b9 ce 3e ff 06 9a bc c1 76 0a bd
       -0.39798057 0.40375566 -0.018802164 -0.03380466
000010 c2 bc 1f 3e 8c dc 42 be 03 ea 53 bf c8 8d 16 3c
       0.15599349 -0.19029444 -0.8277895 0.009189077
000020 aa e1 04 3e aa f6 22 3b c5 76 89 bf 97 77 a6 3e
       0.12976709 0.0024866262 -1.073937 0.32513115
000030 00 21 52 3f 89 cf 07 3e 3c 92 9f bd a3 0a 72 3d
       0.82081604 0.13262762 -0.07791564 0.059092175
000040 b6 81 32 3f b7 40 1c bf b4 84 2d be 32 1c b9 3e
       0.69729173 -0.61036247 -0.16945153 0.36154324
000050 12 de 18 be eb 86 b7 3e 21 32 75 bd 73 27 f7 ba
       -0.14928463 0.35845122 -0.05986226 -0.0018856361
000060 09 92 a1 3d 22 81 97 bb e0 b7 1d bd 53 9d de bb
       0.07889182 -0.004623548 -0.038505435 -0.006793657
000070 11 d9 80 3f 3d c9 87 3f b0 7b a6 be ab ee b4 3e
       1.0066243 1.0608288 -0.3251624 0.3533834
000080 d1 9a d6 3c 2f ba 39 3b 5c d9 4d bf 4d 9c 8f 3e
       0.02619687 0.0028339734 -0.8040979 0.28048936
000090 9c f9 d3 3d a9 fd 5c bf e4 16 d3 bd ce e7 85 3e
       0.103503436 -0.86324555 -0.103071004 0.26153415
0000a0 a8 fb dc bd 53 35 a6 3e 69 48 bd bc aa 14 8e 3e
       -0.10790187 0.32462558 -0.023105817 0.2775014
0000b0 fc f0 f0 bd 4e f5 10 bd 6b c5 bd bc 22 3e 56 3f
       -0.11764714 -0.03539019 -0.023165425 0.8368856
0000c0 0e 0a af 3d fb 42 5e bf 13 e7 4b bd 8c 66 08 be
       0.0854684 -0.86820954 -0.049780916 -0.13320369
0000d0 d5 1a 9c 3c 99 13 84 3d fb 04 47 bf 1d 03 99 3d
       0.019055763 0.064490505 -0.77741975 0.07471297
0000e0 f3 47 c3 bd d8 5f d1 3c 92 f9 1b bf 04 19 ee be
       -0.095352076 0.025558397 -0.6092769 -0.4650346
0000f0 04 c4 9a 3e 2b 64 fe be ab 99 31 be e8 a3 67 3d
       0.30227673 -0.49685797 -0.17343776 0.056552798
000100 97 c2 2a 3e c0 ae 13 bf 70 fd 32 3f 55 47 eb 3b
       0.16675793 -0.5768852 0.69917965 0.0071801343
000110 58 6e 69 bf e3 64 97 bb bf b5 a5 be 34 58 ff be
       -0.91183996 -0.004620181 -0.32365224 -0.4987198
000120 1d 76 59 be 2d 53 01 3e 05 67 bf 3d 6b d9 c3 ba
       -0.21236463 0.12629385 0.09345821 -0.0014942115
000130 9e ae a7 3e 46 21 26 be fb 52 20 3f 44 b9 d9 3e
       0.3275041 -0.1622363 0.6262662 0.4252416
000140 d9 b3 fa 3d 79 e2 c8 bc 6b e7 50 3d c0 2b 72 bf
       0.122413345 -0.024522053 0.051001947 -0.9459801
000150 b4 26 b0 3f c3 03 dc bd ba 8c c6 3d 68 23 06 3e
       1.3761811 -0.10742905 0.0969481 0.13099444
000160 38 66 bc 3d d8 27 26 3f 0d 05 2e bf 65 46 d9 3d
       0.09199184 0.64904547 -0.67976457 0.1060913
000170 a1 b4 c0 be 35 b6 e6 3c 76 75 23 3e 3e ee 28 3f
       -0.3763781 0.028163055 0.15962777 0.6598853
000180 1d a3 b1 be 95 82 f8 3d d3 7d 10 3e 81 34 90 3e
       -0.34694758 0.121342815 0.14110498 0.28165057
000190 7c 5b 3d 3e 98 66 2b 3e 42 fa 41 bf 37 96 f2 3c
       0.1849193 0.16738355 -0.7577249 0.029612644
0001a0 fa d7 3b 3d b4 09 b7 bc 55 97 d2 be cb f1 36 3f
       0.04586027 -0.022343494 -0.41131082 0.71462697
0001b0 df 5c 52 3e 42 86 10 be ff 86 df 3e 97 37 ca bc
       0.2054324 -0.14113715 0.4365768 -0.02468471
0001c0 d7 a7 45 3f fd 0d 8b be 05 5c 79 3f 5e 44 bf 3c
       0.7720923 -0.2715911 0.97406036 0.02334803
0001d0 e9 a6 e7 bd df 1e ae bc af a2 19 3f 4f 7c 15 3f
       -0.113111325 -0.021254955 0.6001386 0.58392805
0001e0 b7 79 b9 3e 25 4f 2d 3f d0 0f 14 3e cf 02 a3 3c
       0.36225674 0.6769889 0.14459157 0.0198988
0001f0 c9 4c 2d 3d 8f 27 05 3e e1 26 8a 3e a9 ed fc be
       0.042309556 0.13003372 0.26982787 -0.4940007
000200 64 74 bc be c6 aa 87 bc 15 2c 09 3e c1 e6 b6 3e
       -0.3680755 -0.016560923 0.13395722 0.35722926
000210 92 8e 1e 3f d5 fd 0e bf d1 a1 12 be b6 b3 04 3d
       0.61936295 -0.55856067 -0.1431954 0.03239795
000220 01 01 f7 bd c1 0b cf bc 8f 95 83 3f 1e ca ac 3d
       -0.12060738 -0.02527416 1.0280017 0.08436988
000230 b4 af 4c bd 63 c0 52 3d d9 f2 ed bd 29 9f c8 3d
       -0.04997225 0.051453006 -0.11618585 0.097959824
000240 ae fb ff 3e c6 fe 4d 3e 8f 2c a5 be 63 b3 78 bd
       0.49996704 0.2011672 -0.32260558 -0.06071795
000250 ea ef 87 3e 3e 23 27 3c
       0.26550227 0.0102012735

network.fc1.bias f4 [25]
000000 a8 fa 62 3d 26 ad 80 be 04 4d cc bd d7 9d 9e bd
       0.055414826 -0.25132102 -0.09975627 -0.07744949
000010 b4 3a d3 be 5f 78 5d bf ab 17 1e bf f6 3b 9f 3e
       -0.41255724 -0.86511797 -0.61754864 0.31100434
000020 37 9b 37 bf 3c fd 12 3f 36 51 c0 3e 70 5a 3b 3f
       -0.71721214 0.57417655 0.3756196 0.7318487
000030 aa 89 ec 3e 61 62 82 bf 3e a7 60 bf 2a 69 14 be
       0.4619878 -1.0186273 -0.8775519 -0.14493242
000040 47 77 17 3f 4f e5 a0 3e 8c 69 b1 3e 53 d3 82 be
       0.5916638 0.3142495 0.34650838 -0.25551853
000050 ae 32 07 3f 88 9b c1 3e c9 d4 1a bd 8b ee 86 bf
       0.52811706 0.37813973 -0.037800584 -1.0541548
000060 33 55 fb 3e
       0.4908844

network.fc2.weight f4 [25, 25]
000000 8b dd f9 3e 00 44 94 bf b6 bf 79 3e c5 b9 f8 3c
       0.48801836 -1.1583252 0.24389538 0.03036202
000010 8b ab 31 bf 9f 96 16 bf 97 74 c4 3e b7 7e 17 3f
       -0.6940238 -0.5882358 0.383702 0.59177727
000020 33 af 8f 3e c5 9d 96 bd 2f f5 81 be 10 0b 46 3f
       0.28063354 -0.07354311 -0.25382373 0.7736063
000030 2f 62 c3 3d 0c 15 bd be 77 e4 a1 bc 46 8d 07 3f
       0.095402114 -0.3693012 -0.01976226 0.5294994
000040 ad 64 8b be 48 c9 c4 bf 6a e5 bc 3d fe a3 01 3c
       -0.27225247 -1.5373926 0.09223445 0.007912634
000050 2b 2b 96 be ef 29 7d 3e 67 34 81 3c 56 b6 85 3e
       -0.2932981 0.24723028 0.015772058 0.26115674
000060 c1 91 0d be c1 d9 09 3e 61 ec 8d 3e f4 7a 44 be
       -0.13825132 0.13461973 0.27719405 -0.19187528
000070 a6 30 f0 3e 3d 6a 6e bc be 74 5b bf 09 90 42 3e
       0.46912116 -0.014551696 -0.8572501 0.19000258
000080 db ca 53 3c c5 01 15 3e 34 78 cd 3e 5d 2e a6 3d
       0.0129267825 0.14551456 0.4013077 0.08114312
000090 c3 e6 a3 bf cd d2 9f 3e d2 e3 23 3f 3d 59 cd be
       -1.2804798 0.31215516 0.640195 -0.40107146
0000a0 39 23 1e bf d3 3b b7 be a6 f9 f8 bd c8 e7 ac 3d
       -0.61772496 -0.3578783 -0.12156992 0.08442646
0000b0 e5 e2 2f c0 3a 4a 03 bc ed 33 36 bf 0b af af 3d
       -2.7482235 -0.008013302 -0.7117298 0.08578309
0000c0 c4 99 5d be 74 0d 43 3e 5f fb ed bd ec 0a 53 bd
       -0.21640688 0.190481 -0.11620211 -0.051524088
0000d0 96 04 6f be 6d 08 34 3a 8a 4c bf 3e fa 33 d0 be
       -0.23341593 0.00068677106 0.37363082 -0.40664655
0000e0 0b 50 16 3e ce 71 ba 3d 49 4b 8c 3e f3 78 9f 3e
       0.14678971 0.09103738 0.27401188 0.31146964
0000f0 09 22 87 3d 88 72 8c be db b5 18 3e 83 22 2c 3e
       0.065982886 -0.2743113 0.14913122 0.1681004
000100 00 a4 e5 3c 63 29 a4 bf 25 3d 01 bf 9a c8 f9 3e
       0.028032303 -1.282513 -0.50483924 0.4878586
000110 fd bd 6d be 5b 6b 9e be 8e ee 22 3f a8 c4 07 3e
       -0.23217006 -0.3094128 0.63645256 0.13258612
000120 2e 64 ec 3e f6 9b 37 3e bc 3b b4 3e 29 7c 3a bd
       0.4617018 0.17930588 0.35201824 -0.045528565
000130 01 79 8a bf 59 76 c2 3e 95 46 44 be cf 2c 3b 3f
       -1.0818177 0.37980917 -0.1916755 0.7311525
000140 79 77 c5 3b 24 8a 53 bf 94 4c 06 bf 0d 60 11 be
       0.006026205 -0.8263266 -0.524606 -0.14196797
000150 60 25 16 3f ff 9f fd 3e 77 64 25 bf d4 94 b2 3d
       0.5865078 0.4953613 -0.6460642 0.08719793
000160 13 ae a8 3e 03 c4 56 3f 97 bb ac 3e 81 43 1e be
       0.32945308 0.8389284 0.3373687 -0.15455438
000170 67 76 2c 3e 4f df 06 bf d7 fa 0d bf 62 ea cc 3d
       0.16842042 -0.5268449 -0.55460876 0.100056425
000180 eb df bc be da 24 a8 bf c9 da 37 bb e7 29 7a 3e
       -0.36889586 -1.3136246 -0.002805399 0.24430047
000190 d3 dc 96 3e 78 fc b6 bd d1 c6 87 3f 2a 31 c1 3e
       0.2946535 -0.08934873 1.0607549 0.37732822
0001a0 54 60 19 be cf 7e 32 be 1c dc 31 3e 7d 95 62 3e
       -0.14978153 -0.17431186 0.17369121 0.22127338
0001b0 b5 60 91 bd fd e8 38 3f 11 85 38 bf 17 9e 05 3d
       -0.070985235 0.7223051 -0.72078043 0.03262147
0001c0 9e fb 3d bf d1 31 84 be 2a 0b 98 3f 8a 22 39 3f
       -0.7421206 -0.25819257 1.1878407 0.7231833
0001d0 46 56 2b bf 0e c4 87 3d d1 d9 46 be 33 01 92 3e
       -0.6692852 0.06629191 -0.19419028 0.2851654
0001e0 bc 51 da 3a a2 d0 18 be 5f 09 85 3e 44 98 02 be
       0.0016656439 -0.14923337 0.25983712 -0.12753397
0001f0 84 94 5c 3e c0 98 85 3e 98 ea ca 3e 49 61 bc 3f
       0.21541029 0.26093102 0.39632106 1.4717189
000200 a3 90 0c bd 1d da 88 3d ac 10 22 3d c2 bf 90 be
       -0.034317624 0.06682227 0.03956668 -0.282713
000210 81 cb a1 be d4 10 db be 7e bb 8f 3e b6 79 09 be
       -0.31600574 -0.42786276 0.28072733 -0.13425335
000220 49 bb 3c be f7 fa e7 3c 7a f8 9c 3d a3 66 da 3f
       -0.18430819 0.028317912 0.07664581 1.7062572
000230 ab 48 2d 3e 38 47 7b be 59 82 c3 3e c8 0c ce bf
       0.16922252 -0.24538887 0.38185385 -1.609765
000240 12 f9 ee be 0f 4e 36 3e a1 07 5c be 2a 09 d8 3e
       -0.466744 0.17803214 -0.21487285 0.42194492
000250 e5 8a 85 c0 f9 4d 47 bf 2c 8a 89 3c d6 af 64 be
       -4.173205 -0.7785335 0.016789518 -0.22332701
000260 60 fa ad 3e 00 14 18 be 43 28 c0 3e ad 73 99 bd
       0.33980083 -0.1485138 0.37530717 -0.074927665
000270 75 0d ab bd 85 3c a2 3b 9c 44 ea bd ae ee d8 3e
       -0.08352176 0.004951062 -0.114388674 0.42369598
000280 0e 09 05 bf 8a 4e 86 be 90 36 34 3d 54 6f 5c 3c
       -0.5196694 -0.26231796 0.043997347 0.013454277
000290 e4 13 a1 3e ff 0b 83 3e b8 1d 26 be b6 c7 a0 3e
       0.31460488 0.2559509 -0.16222274 0.31402367
0002a0 41 a6 bb be 59 45 49 bf fa 70 2e 3f 7c 61 13 bf
       -0.3665028 -0.7862144 0.6814114 -0.57570624
0002b0 06 ef 25 3f be d4 d4 be e3 f3 96 3d 2a 38 17 bf
       0.64817846 -0.4156856 0.073707364 -0.59070075
0002c0 e5 d5 fe be c7 34 0a 3e a3 25 85 bb a4 d9 2b be
       -0.49772564 0.13496695 -0.0040633245 -0.16782242
0002d0 19 1a 5b 3e 38 92 dc 3d 43 17 d3 3d 8a d5 00 3f
       0.21396674 0.107700765 0.10307171 0.50325835
0002e0 75 ea d1 3e 2f 5d 21 3e 10 48 a6 be d1 3f e0 bd
       0.4099919 0.15758203 -0.32476854 -0.10949672
0002f0 c3 67 dd bd 27 f6 9b 3d 46 81 f5 bd 47 9a cc bd
       -0.108108066 0.07615309 -0.119875476 -0.099903636
000300 5d f5 6c 3e 75 1d a0 3e 83 e0 57 3e 33 16 bc 3e
       0.23140474 0.31272474 0.21081738 0.36735687
000310 42 bf a7 3e 46 60 d7 bc 87 e2 19 3f c6 32 df 3e
       0.32763106 -0.026291024 0.6011128 0.43593425
000320 26 10 e4 bd 68 d3 87 3c 79 a7 c0 3b f8 7e 46 3e
       -0.111358926 0.016580299 0.0058793393 0.19384372
000330 7a 15 8c 3d c8 44 ec 3e bb b2 60 bc ca f2 00 bf
       0.06840034 0.46146226 -0.013714488 -0.50370467
000340 21 5c bd be 5a d2 30 bd d8 cd b9 be ca b0 3b be
       -0.3698435 -0.043169357 -0.3628986 -0.18329158
000350 9b bc f8 bc 1c 44 6b bf 32 0b 08 bf 46 c3 2f 3d
       -0.030363372 -0.919008 -0.5314208 0.042910837
000360 22 4d 58 3e b2 8b 14 be ea 7b 26 bd 16 17 38 bd
       0.21123174 -0.14506415 -0.040645517 -0.04494389
000370 e1 06 20 3f 07 f3 98 3d a7 35 7d bd f9 77 3c 3f
       0.62510496 0.07468229 -0.061818745 0.73620564
000380 7a 50 e3 bd 8e f0 f9 bd 4c 37 db 3d 3d a3 22 bf
       -0.11099334 -0.12204085 0.107039064 -0.6353033
000390 65 b9 c9 be dd 6b 7d 3f 20 fa 2a 3f ae f6 a4 bd
       -0.39399257 0.9899271 0.6678791 -0.08054863
0003a0 a0 52 f2 bd 10 03 5b be 67 2f aa 3c bf 28 86 be
       -0.11832166 -0.21387887 0.020774556 -0.26202962
0003b0 4f 69 3b 3f 0e 6c a8 3e 00 33 17 3e 6b 88 b7 3e
       0.73207563 0.3289494 0.14765549 0.35846266
0003c0 85 3e 74 3c 16 54 a6 3d 8a 0c 17 3e 93 f4 79 bf
       0.014907484 0.08121507 0.14750877 -0.97638816
0003d0 1e 1d 17 bf 04 e9 e6 be ec c4 04 bf da c4 a2 3e
       -0.59028804 -0.45099652 -0.5186298 0.3179081
0003e0 9d 44 20 3f 6c 95 37 be ff bb 0b bd 19 5f 41 3f
       0.62604696 -0.17928094 -0.034114834 0.7553573
0003f0 c7 d7 09 bd 2d e9 52 be b8 88 d3 be 69 61 e5 3e
       -0.033653047 -0.20596762 -0.41315246 0.4480088

network.fc2.bias f4 [25]
000000 6b 6c e3 3e f1 4b ed 3e 6d ff bd 3d 9a a8 16 be
       0.44418654 0.46347 0.09277234 -0.14712754
000010 82 49 45 bf 03 b8 d3 3d 82 66 18 bd c3 a5 6e be
       -0.7706529 0.10337832 -0.037207134 -0.2330542
000020 7b 28 4f 3f 49 bf 19 bf 34 7f ec 3e df 96 ec be
       0.80921143 -0.60057503 0.46190798 -0.46208856
000030 01 c2 1d bb ef e7 01 3f 1a 42 25 3e c6 14 30 3d
       -0.0024071934 0.5074453 0.16138497 0.04298856
000040 ae 5d e0 3e 9a 11 05 3f 06 b9 7b 3e 52 54 36 3f
       0.43821472 0.5197998 0.245823 0.7122241
000050 65 74 4a be 78 5f 0f 3e 3b df 1f 3f 70 d8 df 3d
       -0.19770963 0.14001262 0.6245 0.10929954
000060 63 a4 8d 3e
       0.2766448

network.fc3.weight f4 [220, 25]
000000 70 4b 3b be 0d cd 3d be be be 96 3e d2 76 dc be
       -0.18290496 -0.18535252 0.294424 -0.43059403
000010 61 8e b1 3d 17 db 50 be 51 aa a4 bc dc 80 d5 3e
       0.08669735 -0.20396076 -0.020100744 0.41699874
000020 70 a2 7b be b7 81 db be f7 84 de 3d 3d 24 5c bc
       -0.24573684 -0.42872402 0.10865205 -0.013436374
000030 d2 b8 8b 3d fb 8d f7 bc 90 b1 57 3e da 79 27 3f
       0.06822361 -0.030219069 0.21063828 0.65420306
000040 23 43 e8 bd c2 3e 1a be 0c e7 59 be 1b cf 13 3d
       -0.1134093 -0.15063003 -0.21279544 0.036086183
000050 50 4b 83 3d 41 59 9e bc de e7 c8 3e 09 c0 36 3e
       0.06410849 -0.019329669 0.392394 0.17846693
000060 b6 f1 b3 be 5e c6 5a be 6b e4 1b be 27 75 8a 3e
       -0.35145348 -0.21364734 -0.15223853 0.27042505
000070 15 97 e0 be ac 96 fc 3d 05 cc 63 be 1e d8 89 bc
       -0.43865266 0.12333426 -0.22245796 -0.016826686
000080 f7 98 c2 3e 25 e1 6a be d4 1b f5 be 6c c6 0b 3e
       0.38007328 -0.22937448 -0.47872794 0.1364991
000090 ba 98 ab bc 0d 27 9b 3d 4d ae b4 bc c3 37 69 3e
       -0.02094685 0.07575808 -0.02205577 0.22775178
0000a0 d5 47 25 3f 14 cf ec bd ba 6d 23 be bd 08 72 be
       0.6456273 -0.115629345 -0.15959826 -0.23636146
0000b0 88 b1 61 3d d9 54 88 3d 26 19 e7 bc 19 5c d6 3e
       0.055100948 0.066568084 -0.028210234 0.4186714
0000c0 b0 dc 4b 3e 4b 71 c2 be 69 ab 7a be 2e 78 06 be
       0.19908404 -0.3797706 -0.2447945 -0.13131782
0000d0 ba 2b 84 3e 13 6c e6 be 99 19 12 3e 9c 99 6b be
       0.2581461 -0.4500433 0.14267577 -0.23007816
0000e0 16 40 2d bc 41 9d ba 3e c0 22 5a be fd 1e 00 bf
       -0.010574361 0.364481 -0.21302319 -0.50047284
0000f0 b0 f2 14 3e 80 cb 3b bc 6e ea 95 3d 96 26 7d bc
       0.14545703 -0.011462092 0.073201045 -0.015451094
000100 d0 86 73 3e 61 3d 28 3f 37 e4 ea bd 03 10 34 be
       0.23781896 0.65718657 -0.1146931 -0.17584233
000110 79 21 82 be b7 4b 9d 3d 84 b7 db 3d 81 e0 1b bd
       -0.25416163 0.07680457 0.10728362 -0.0380559
000120 a9 e9 de 3e 08 6e 4d 3e 3f fe ce be 01 1d 88 be
       0.43537644 0.20061505 -0.4042835 -0.26584628
000130 f3 ab ef bd 27 e9 80 3e 8a 67 eb be 0b 60 2e 3e
       -0.117027186 0.2517788 -0.45977432 0.17028825
000140 d1 b0 67 be 4e 59 48 bc 9d 84 b4 3e f3 b2 4f be
       -0.22626044 -0.012228323 0.35257426 -0.20283107
000150 3d 38 04 bf f3 4a 17 3e 86 48 2a bc 5f db 95 3d
       -0.5164831 0.14774685 -0.0103932675 0.07317232
000160 7e c3 1b bb a4 92 6f 3e 4d 1a 30 3f 5b b9 f3 bd
       -0.0023767645 0.23395783 0.6879013 -0.11900588
000170 ba 6c 46 be be 18 88 be b6 7a d1 3d 56 1a 51 3e
       -0.19377413 -0.26581377 0.102284834 0.20420203
000180 0c 7a 36 bd fa ae e7 3e 5f 23 54 3e 99 fb d6 be
       -0.044549987 0.45250684 0.20716618 -0.4198883
000190 5c c0 91 be 02 10 d7 bd 2b af 7e 3e 04 10 f2 be
       -0.2846707 -0.105011 0.24871509 -0.47277844
0001a0 63 38 4d 3e 84 26 63 be 1a ae 53 bc 7f eb b1 3e
       0.20041041 -0.22182661 -0.012919927 0.34749982
0001b0 a6 ba 49 be b9 7e 08 bf 50 e2 0d 3e 75 78 93 bc
       -0.19700107 -0.53318363 0.13855863 -0.018001774
0001c0 0a f8 91 3d 80 f8 16 3c 53 21 69 3e ad 20 38 3f
       0.07127388 0.00921452 0.22766618 0.7192486
0001d0 fb cf 02 be bc 63 50 be 73 53 8d be 58 6e f7 3d
       -0.12774651 -0.20350546 -0.2760273 0.12081593
0001e0 0c 36 36 3e ec 3c 57 bd 71 50 ee 3e 6b 99 60 3e
       0.17794055 -0.052548334 0.46545747 0.21933524
0001f0 db 0d dc be 1d a7 9c be bf a4 ae bd aa ae 76 3e
       -0.4297932 -0.30596247 -0.085275166 0.24090067
000200 9d d6 f6 be f6 49 75 3e 94 0e 5a be 98 55 c0 bb
       -0.48210612 0.23953995 -0.21294624 -0.0058695786
000210 62 a2 ab 3e 8b b3 3f be 5a 01 0d bf 5d 16 08 3e
       0.33522326 -0.18720834 -0.5508019 0.13289781
000220 04 0c b8 bc 20 88 93 3d 0b 84 8e 3c a2 6a 5c 3e
       -0.022466667 0.07203698 0.017396947 0.21525052
000230 d8 2f 45 3f 47 92 0f be 6a bc 66 be 21 6b 95 be
       0.7702613 -0.14020644 -0.22532812 -0.29183295
000240 6f 24 19 3e fe 38 e2 bd 39 4e 56 bd f8 1d fa 3e
       0.14955305 -0.11046027 -0.052320693 0.4885099
000250 aa 58 69 3e fe 79 e9 be 03 b9 a6 be 8a 5f 8e bd
       0.22787729 -0.45600885 -0.32563028 -0.069518164
000260 32 82 7c 3e 2a f6 fc be 75 a0 8d 3e 57 a3 4b be
       0.2465904 -0.49406558 0.27661481 -0.19886528
000270 14 9b ce ba 4a 0a a1 3e b4 0a 33 be 3f 51 12 bf
       -0.001576277 0.31453162 -0.17484552 -0.5715522
000280 e2 b2 fa 3d 71 4d c8 bc 40 f6 9c 3d be a8 c6 3c
       0.122411504 -0.02445099 0.07664156 0.024250384
000290 25 9e 4f 3e 00 72 50 3f 27 6a 1e be e8 67 7d be
       0.20275171 0.8142395 -0.15470181 -0.24746668
0002a0 f8 10 9b be 1a 1d 3a 3e e4 65 bc bc f3 ba 5e bd
       -0.30286384 0.18175164 -0.022997804 -0.054377507
0002b0 46 07 03 3f eb d4 73 3e 7b 23 f8 be e6 2b b4 be
       0.51182973 0.2381169 -0.4846457 -0.35189742
0002c0 85 a0 43 bd 32 66 71 3e 1f 87 01 bf ed fe a0 3e
       -0.047760505 0.2357414 -0.50596803 0.31444493
0002d0 ef b5 3a be 04 1e e9 3b a3 59 9e 3e 7d 59 35 be
       -0.18233465 0.007114174 0.30927762 -0.17709918
0002e0 12 9a 14 bf 7c f2 e4 3d 34 41 e6 bc af c7 96 3d
       -0.5804759 0.11179063 -0.028107263 0.073623054
0002f0 2c 1f 1d 3d 4a 43 45 3e fd 0e 5d 3f da bb 2b be
       0.038359806 0.1926395 0.86350995 -0.16770878
000300 41 f8 87 be 9f 15 a1 be d8 e5 57 3e e1 c5 37 3e
       -0.2655659 -0.31461808 0.21083772 0.17946579
000310 96 28 73 bd 7f b0 08 3f 70 0f 7a 3e cf ab 02 bf
       -0.059364878 0.5339431 0.24419951 -0.5104341
000320 b9 99 bd be c0 95 07 bd ab 75 72 3e 34 e2 02 bf
       -0.37031344 -0.033101797 0.236777 -0.5112641
000330 06 2a af 3e 01 14 34 be d4 d7 6f 3c a0 6f 94 3e
       0.3421175 -0.17585756 0.01463886 0.28991413
000340 94 4b 27 be 83 b0 18 bf 46 fb e3 3d af de cc bc
       -0.16337425 -0.59644336 0.11131911 -0.025008528
000350 5c 00 a0 3d 4e ae 37 3d 03 e8 39 3e da f2 67 3f
       0.078125685 0.044843964 0.18154912 0.9060494
000360 99 6f 3a be 61 c4 94 be 45 0b a6 be d1 dd 6f 3e
       -0.18206634 -0.29056075 -0.32430473 0.2342446
000370 df 1c ec 3d 39 c1 7b bd 51 40 0e 3f d9 82 81 3e
       0.11528944 -0.06146357 0.5556689 0.2529514
000380 e5 84 06 bf 98 31 c9 be ca 64 86 bc 03 6c 66 3e
       -0.5254653 -0.3929565 -0.016405482 0.2250214
000390 19 73 05 bf 98 48 c0 3e 42 60 23 be 17 6b 9d 3c
       -0.5212875 0.37555385 -0.15954688 0.019216103
0003a0 d9 12 93 3e c3 39 2a be db b1 1b bf 17 8e c8 3d
       0.28725317 -0.16623597 -0.6081826 0.097927265
0003b0 ca 2b 00 bd 6d ff 9d 3d 05 d0 6e 3d 00 68 35 3e
       -0.03129176 0.07714734 0.05830385 0.17715454
0003c0 fa 82 72 3f dd 9a 48 be a0 04 9b be 7a 76 a9 be
       0.94731104 -0.19590326 -0.30276966 -0.33098203
0003d0 41 fd 83 3e 48 08 49 3e ac 1c 8e bd a1 3d 13 3f
       0.25779155 0.19632065 -0.069390625 0.57515913
0003e0 99 99 84 3e 0e 5e 0a bf 86 f1 cf be b8 a5 d5 bb
       0.25898436 -0.54049766 -0.40613955 -0.0065199994
0003f0 62 de 66 3e 0f ad 05 bf 91 73 cc 3e 6f fb 18 be
       0.2254577 -0.5221719 0.3993192 -0.14939664

network.fc3.bias f4 [220]
000000 64 8c 3a be 7f a8 30 be 77 06 22 be 04 30 1f be
       -0.18217617 -0.17251776 -0.15822779 -0.1554566
000010 b8 4d 1b be c4 5a 10 be a6 a7 0a be b7 d5 00 be
       -0.15166366 -0.14097124 -0.13540515 -0.12581526
000020 f9 93 00 be c2 c2 ee bd 21 e8 f7 bd dc 5c 02 be
       -0.12556447 -0.11658241 -0.12104822 -0.12730736
000030 df 6f 06 be 71 64 0d be c4 92 07 be b6 0e 0d be
       -0.13128613 -0.13807847 -0.1323958 -0.13775143
000040 ec 39 14 be d4 90 17 be 26 d3 1e be 3b 3d 27 be
       -0.1447522 -0.14801341 -0.15510234 -0.16331951
000050 0c 68 27 be 03 ae 31 be 00 fd 2c be ad c1 2e be
       -0.16348284 -0.17351536 -0.16893387 -0.17066069
000060 2a 57 28 be b6 52 2a be 11 74 32 be 37 a6 2c be
       -0.164395 -0.16633114 -0.17427088 -0.16860281
000070 87 99 2f be 25 81 33 be c4 dd 2f be b8 65 2f be
       -0.1714841 -0.17529733 -0.1717444 -0.17128646
000080 41 bf 2d be ba 67 21 be 29 e2 23 be 94 ac 2c be
       -0.16967489 -0.15762225 -0.16004242 -0.16862708
000090 31 24 35 be 96 3b 2c be a1 40 28 be 81 6d 31 be
       -0.17689587 -0.16819605 -0.16430904 -0.17326929
0000a0 15 f9 29 be 14 6e 22 be e4 6e 2a be eb b3 22 be
       -0.16598924 -0.15862304 -0.16643864 -0.15888946
0000b0 29 fb 27 be db b7 32 be 20 ae 32 be 92 83 36 be
       -0.16404404 -0.17452948 -0.17449236 -0.17823628
0000c0 d1 9c 33 be 6f 4d 3d be 03 fd 4e be 23 89 44 be
       -0.1754029 -0.1848657 -0.20213704 -0.19192939
0000d0 fe 6a 49 be 83 ce 50 be d9 99 64 be b3 f3 6a be
       -0.1966972 -0.20391278 -0.22324313 -0.22944526
0000e0 0d 02 73 be fe 97 77 be 50 4d 84 be 98 ea 88 be
       -0.23731251 -0.24179074 -0.25840235 -0.2674148
0000f0 81 82 8c be 0f 27 96 be a8 73 9a be b0 de a0 be
       -0.27443317 -0.29326674 -0.30166364 -0.31419897
000100 ed 03 a3 be 3d 5b 9f be 20 9d 95 be e6 f7 98 be
       -0.31838933 -0.31124297 -0.2922144 -0.29876631
000110 d9 1d 9a be cb e9 97 be ad 62 98 be 44 fb 98 be
       -0.30100897 -0.29670557 -0.29762784 -0.298792
000120 9d ad 9d be 64 45 9f be 04 95 9b be 8c 65 99 be
       -0.3079652 -0.31107628 -0.30387127 -0.29960287
000130 6c 01 95 be c1 17 94 be d5 fb 93 be b3 36 8e be
       -0.29102647 -0.28924373 -0.2890307 -0.27776107
000140 fa 8a 94 be df 25 87 be cb 41 8d be 4d 9a 84 be
       -0.2901228 -0.2639608 -0.2758926 -0.25898972
000150 ae 31 7f be ae 1c 83 be 64 28 80 be dd 6c 81 be
       -0.24921295 -0.25607818 -0.25030816 -0.2527837
000160 80 8e 7e be 84 89 69 be 1e 30 6a be d8 4a 61 be
       -0.24859047 -0.22806364 -0.22869918 -0.22001207
000170 d9 ed 56 be 89 37 50 be 6f 18 56 be 49 80 4a be
       -0.20989169 -0.20333685 -0.20907758 -0.197755
000180 53 ee 3f be ef 49 30 be 0b a4 27 be 3f 1d 06 be
       -0.18743257 -0.17215703 -0.16371171 -0.13097094
000190 04 a4 ce bd 7d 4e a6 bd 54 aa 88 bd de cb 4f bd
       -0.10089877 -0.08120439 -0.066731125 -0.050731532
0001a0 2f c2 8b bd 86 06 6c bd 72 25 7f bd ee f6 80 bd
       -0.06824147 -0.05762341 -0.06229157 -0.06297098
0001b0 bf 41 a1 bd 3a da 97 bd 16 7d 96 bd 7d bd 8e bd
       -0.07873868 -0.0741467 -0.07348077 -0.06969736
0001c0 99 6b 71 bd ce ce 71 bd bf 2a 24 bd 07 9b 11 bd
       -0.058940504 -0.059035115 -0.04007983 -0.035548236
0001d0 c9 bd 0b bd 2b 3c ad bc 12 bb b0 3b 7e 21 e4 3c
       -0.03411654 -0.021146854 0.0053933943 0.027848002
0001e0 8d cc 31 3d 5a 14 6a 3d ed 17 8e 3d c0 49 83 3d
       0.043407965 0.057148315 0.06938157 0.06410551
0001f0 ad c3 a9 3d c5 e0 c8 3d f7 e3 e3 3d 00 22 f2 3d
       0.08289275 0.098084964 0.11127465 0.11822891
000200 1f 8a 06 3e 77 9c 06 3e b2 98 f9 3d eb 6b 05 3e
       0.13138627 0.13145624 0.121873274 0.13029449
000210 59 a1 06 3e 07 1e 0e 3e 0a e5 07 3e 79 d1 00 3e
       0.13147487 0.13878642 0.13270965 0.12579907
000220 12 8d 0c 3e ee ef 08 3e 0b cf 0c 3e de 7a 11 3e
       0.13725689 0.13372776 0.13750856 0.14207026
000230 8b a0 09 3e fc 48 16 3e ac 16 06 3e 35 72 fb 3d
       0.13440149 0.14676279 0.13094586 0.12277643
000240 37 7d ff 3d f0 7e fc 3d e8 9c e4 3d bc 2b dc 3d
       0.12475055 0.12328899 0.1116274 0.10750529
000250 f7 af dd 3d f3 98 d0 3d aa ab ae 3d d4 47 b5 3d
       0.10824578 0.10185423 0.08528836 0.08851591
000260 2a 68 b6 3d e5 eb b5 3d 17 ae b8 3d c0 a7 8e 3d
       0.089065865 0.08882884 0.0901758 0.069655895
000270 e9 45 83 3d 81 40 7c 3d 7a 72 86 3d ec 34 69 3d
       0.06409819 0.061584953 0.065648034 0.056935236
000280 df 2f 64 3d 74 96 33 3d 1f 47 60 3d 57 0a 3a 3d
       0.055709716 0.043844655 0.054755326 0.045420017
000290 dc 87 3f 3d 2d e4 df 3c 6b 3f b7 3c db 97 8e 3c
       0.046760425 0.027330482 0.022369107 0.017406395
0002a0 00 b8 be 3b 7b 4b ca 3a cb 55 8a 3b 8e 5b 21 bc
       0.0058202744 0.0015433872 0.004221653 -0.0098484885
0002b0 78 49 aa bc 69 a0 d2 bc 67 5a f6 bc 9f 56 46 bd
       -0.020786986 -0.025711255 -0.030072404 -0.048422452
0002c0 68 3d 1e bd 63 51 3b bd 37 d1 7a bd 6c 99 87 bd
       -0.03863278 -0.045731913 -0.06123468 -0.0662106
0002d0 66 05 52 bd c5 a1 7f bd de f4 88 bd 71 e6 7a bd
       -0.05127468 -0.062410135 -0.0668733 -0.061254922
0002e0 e6 a1 9b bd 2b 51 95 bd 5b ac af bd c8 80 d2 bd
       -0.07599239 -0.07290872 -0.08577796 -0.10278469
0002f0 b7 35 c2 bd 93 2f cf bd 01 ec e9 bd e1 93 07 be
       -0.094829015 -0.10116496 -0.11421967 -0.13240005
000300 b7 80 13 be d6 f7 1e be 00 c8 25 be 43 8d 24 be
       -0.1440457 -0.1552423 -0.16189575 -0.16069512
000310 d5 25 1f be af ae 2c be 7f 4d 31 be f0 e6 34 be
       -0.15541776 -0.16863512 -0.17314719 -0.1766622
000320 c3 04 2f be c8 60 2a be db 8e 2e be 27 78 30 be
       -0.1709166 -0.16638482 -0.17046683 -0.17233334
000330 6f 84 34 be cd dd 21 be 70 e8 2d be 5e 8f 46 be
       -0.17628644 -0.15807267 -0.16983199 -0.19390628
000340 47 78 5b be 34 04 5c be 0d 8d 64 be 82 c1 6a be
       -0.21432601 -0.21485978 -0.22319432 -0.2292538
000350 43 78 68 be 73 28 6d be fe b7 74 be df 57 84 be
       -0.22702126 -0.23159961 -0.23898312 -0.2584829
000360 4f d6 81 be b7 51 87 be a5 3d 8d be cb cd 91 be
       -0.25358817 -0.2642953 -0.27586094 -0.2847732
