Week8/PBNN/model_for_TimeEnv_2000epoch.pth (torch, 59408 bytes, 6 tensors)

network.fc1.weight f4 [50, 6]
000000 9d 6c 2e be dc d2 cd 3d 86 57 d2 3d cc 24 a7 3c
       -0.1703362 0.10049984 0.102706 0.020403288
000010 ea 7d 14 3f 47 99 54 be ec 09 05 3f f8 5f df 3e
       0.5800463 -0.20761596 0.51968265 0.43627906
000020 03 3e 29 be 02 9a 5b bd 0a b8 e8 be cf 08 1b 3e
       -0.16527562 -0.05361367 -0.4545291 0.15140079
000030 6f 67 c4 3e 29 f1 ad be a1 67 80 be e3 12 b5 3c
       0.38360164 -0.33973053 -0.25079063 0.022103732
000040 90 1a 00 bd a7 2d 8a 3e 6a 72 a4 be ed 7a 93 bf
       -0.031275332 0.26987955 -0.3211854 -1.1521889
000050 52 97 8d bd 96 29 b7 bc 09 6a 66 3e af 87 95 3e
       -0.06913628 -0.022358697 0.22501387 0.2920508
000060 73 a7 09 3e 5f b8 1d be 9a cd 9f 3d f3 4e 7d bc
       0.13442783 -0.15402363 0.07802887 -0.0154607175
000070 27 55 1e 3f c1 fd cc be 69 63 86 bd bf e0 03 3f
       0.6184868 -0.4003735 -0.0656193 0.5151481
000080 57 ea 2e 3c 76 a8 43 3e 3b cd 5e be dc ef f6 be
       0.010675988 0.19107231 -0.21757977 -0.48229873
000090 ca c6 30 bf ca 0e 99 3e bd 6f 55 3c 9b 18 dc be
       -0.6905333 0.29894096 0.013027129 -0.42987522
0000a0 4a 30 1b be ed d5 bb 3b 77 9b 06 3f 6d 16 51 bf
       -0.1515514 0.005732289 0.5258097 -0.81674844
0000b0 10 ae 01 be 77 68 16 3e 6f 68 24 bf 17 50 c9 3e
       -0.12664056 0.14688288 -0.64221853 0.39318916
0000c0 72 4b fc 3e d9 19 94 3e a5 a8 ea bd 6b f0 00 be
       0.4927631 0.2892597 -0.11457948 -0.12591712
0000d0 3a 0e 08 be 38 ae 5b 3b a6 74 99 bd 77 41 db 3b
       -0.13286677 0.003352059 -0.07492952 0.0066911536
0000e0 3c 41 fd bc aa ed a6 39 c5 4b 2a bf 0f b8 3e bf
       -0.030914895 0.0003183906 -0.66521865 -0.744996
0000f0 91 68 8e 3f 11 c5 70 bb db 42 78 3c 93 a8 23 bb
       1.1125661 -0.0036738554 0.015152658 -0.0024972304
000100 31 a2 8b 3e 17 35 fc 3e 33 25 92 bd c9 95 59 be
       0.2727218 0.49259254 -0.071360014 -0.21248545
000110 56 aa 2b 3e fe 2d df 3a 78 a5 bd bf 9b 17 47 bf
       0.16764197 0.0017027257 -1.4816122 -0.77770394
000120 0f c2 9e bf bf 04 3c 3e ce 32 08 3e e8 f4 59 3e
       -1.2402972 0.18361185 0.1330063 0.2128483
000130 71 f2 36 3d 0c 89 61 be 84 76 91 3e 6f ec a2 bc
       0.044664804 -0.22024935 0.28410733 -0.019888131
000140 e2 6a bc bd 43 58 11 3c 02 44 a5 be 2f 37 85 3e
       -0.09200074 0.008871141 -0.32278448 0.26018664
000150 3a 79 98 be 30 2d e9 3e 11 e6 67 bd 03 ba b6 3c
       -0.2977999 0.45542288 -0.056615893 0.022305494
000160 43 8b 06 3f 79 f9 ca 3e 27 4b 9a 3e 3d a3 1e bf
       0.52556247 0.39643458 0.30135462 -0.6196783
000170 89 ba e6 bd 4a c0 a7 3d c6 b3 c3 bd 1c 1b 05 bf
       -0.112660475 0.08190973 -0.095557734 -0.5199449
000180 73 4d 32 bf e9 eb c4 3e f1 72 4b 3c 4a 87 e4 bb
       -0.6964943 0.38461235 0.012417541 -0.0069741355
000190 93 aa cb 3e 20 6f b2 3e a3 21 13 bf 64 f2 35 bd
       0.39778575 0.34850407 -0.574732 -0.044420615
0001a0 b8 0a 10 bd 3d 0d 0f 3c bb 5c 64 3f ad 61 04 be
       -0.035166472 0.008731184 0.89203995 -0.12927885
0001b0 14 28 fa 3c 07 50 c2 3e df a4 b4 3d f6 d5 6b 3c
       0.030536689 0.3795168 0.08820509 0.014394274
0001c0 8f 39 1a bf 00 a0 29 3f 79 f6 0f be a0 5c af 3e
       -0.6024408 0.66259766 -0.14058866 0.34250355
0001d0 18 8d ab bc db e2 95 be 0a 1c ac bd bb a9 92 be
       -0.020941302 -0.2927464 -0.084037855 -0.2864512
0001e0 ac 93 4c 3f d7 8e 55 3c 9f 70 d9 bd 2e 3c 18 3c
       0.7991283 0.013034544 -0.10617184 0.009291692
0001f0 1c 1b a3 bd 5a 72 d3 bf a3 0c f8 bd a2 25 8a 3e
       -0.07964155 -1.6519272 -0.12111785 0.26981837
000200 19 4f 9f 3d c7 66 95 be 49 77 a4 bd f3 1e aa 3e
       0.077787586 -0.29179975 -0.08030564 0.33226737
000210 24 af bf be b4 6f 12 3f 50 a6 3d be 3d 8a 56 3d
       -0.3743831 0.57201695 -0.18520474 0.052377928
000220 cd 36 e4 be c2 76 2b bd 03 35 4a be 3b 16 06 bf
       -0.4457306 -0.041861303 -0.19746785 -0.5237767
000230 5d 29 61 be c2 93 8c 3d d0 98 a5 3d 1b c8 2c bc
       -0.21988435 0.0686412 0.08085787 -0.010545756
000240 4f 9b d0 3e e5 1a 0d bf 42 f5 5a be 62 c8 d8 3e
       0.4074349 -0.5511916 -0.21382621 0.4234038
000250 c5 3a 2c 3e 82 78 2c 3e 8e 12 16 bf 83 0f 72 bd
       0.16819294 0.16842845 -0.5862206 -0.059096824
000260 a0 a7 66 3c fa c6 05 3d 97 08 ce 3e 71 27 64 bf
       0.014078051 0.032660462 0.4024093 -0.8912268
000270 a4 78 7e 3f 57 12 2a be ab 0b f7 bd 4c b8 03 bd
       0.99402833 -0.16608559 -0.12062772 -0.03215818
000280 03 3d b0 be 9b 5c 9d 3e 69 3e fb 3d 67 35 3c 3c
       -0.34421548 0.30734715 0.12267763 0.0114873415
000290 b1 f4 43 3d 02 43 41 bf cb 0f 0e be a2 6b dc bd
       0.047840778 -0.7549287 -0.13873212 -0.10762717
0002a0 8e 3c 5f 3f a3 37 46 bf a9 f8 e1 bd c5 a8 e8 bd
       0.87201774 -0.77428645 -0.11033756 -0.11360315
0002b0 2a d2 8d be c5 45 7e be bb 76 8d 3f 88 92 ae bd
       -0.27699405 -0.24831302 1.1051859 -0.08524042
0002c0 fe b0 b6 bd 88 34 93 bd 95 56 81 3f 51 38 07 bf
       -0.08920477 -0.07187754 1.0104548 -0.52820307
0002d0 32 6f b9 3f 65 0a cf 3e 64 65 a2 3e 14 09 db 3d
       1.4487059 0.40437618 0.3171798 0.10695091
0002e0 a1 6c 36 be a8 d2 51 3e 43 73 99 be fd ba 08 3e
       -0.17814876 0.20490515 -0.2997075 0.1335258
0002f0 49 d4 c8 bd 07 a0 b4 be cc 77 34 bd db 56 3a be
       -0.09806115 -0.3527834 -0.04405956 -0.18197195
000300 85 9a 0e 3f 3e ab a5 bd f8 9b 8f 3c 2f 2e fa 3c
       0.5570453 -0.080893025 0.017530426 0.0305396
000310 cc cc d4 bf 79 db 1e 3e 14 3b 2c bf 0a c9 2a 3e
       -1.6624999 0.1551341 -0.67277646 0.16678253
000320 e5 e0 23 be e5 91 22 bd e7 09 ab be 3f d9 56 3f
       -0.16003759 -0.039689917 -0.33405992 0.8392524
000330 97 c9 46 bf 70 80 87 be 8a de 79 3c c0 dd b4 bc
       -0.7765135 -0.26465178 0.015250811 -0.022078395
000340 e4 ea 66 bf 18 60 7e bc ec 51 41 3e 4a d1 47 be
       -0.90202165 -0.01552584 0.18878907 -0.19513431
000350 6e 9d d2 be e5 80 b9 be 98 e0 1a be 74 b9 92 3d
       -0.41135734 -0.3623115 -0.15124738 0.071642786
000360 53 87 b6 3e b8 f6 a1 3e 63 ae 02 bd 06 79 2c 3d
       0.3565012 0.31633544 -0.03190459 0.042107604
000370 ee 6f 84 3e d6 63 82 bd 47 5e a1 3e 56 fa e0 bd
       0.25866646 -0.063666984 0.3151724 -0.10985248
000380 90 c3 d9 be 35 a3 a0 3e 11 11 a6 3e c0 bf 2d 3e
       -0.42532015 0.31374517 0.32434896 0.16967678
000390 3b 72 a6 bf 44 9e 9e be 42 91 97 3c 00 a8 e5 3d
       -1.300361 -0.30980122 0.018501882 0.11213684
0003a0 cd 92 57 3f 17 6a b3 3e b8 9a 7b bf 45 ab f7 bd
       0.84208375 0.35041878 -0.9828296 -0.12093214
0003b0 b1 fd 4a 3c b9 47 99 3c dd 52 46 bf eb cc c9 3e
       0.012389586 0.018710958 -0.7747019 0.39414153
0003c0 11 95 93 3f 4e 2f 45 3d 8f 66 90 3e 8a ae b1 3c
       1.1529866 0.048140816 0.28203246 0.021689672
0003d0 26 48 d9 be c1 be aa bf a3 28 06 3d 6e b4 7b be
       -0.42437857 -1.3339463 0.032753598 -0.24580547
0003e0 df 3f e0 3d ce 15 91 be 14 9d 63 bc 3b e3 69 3e
       0.109496824 -0.28336948 -0.013892431 0.22840588
0003f0 be d7 6f be d5 87 75 bd 1c 2a 67 be f5 1f 23 bc
       -0.23422143 -0.059943993 -0.22574657 -0.00995635

network.fc1.bias f4 [50]
000000 01 62 8b 3e 46 35 97 be 6d 69 80 3e c0 a4 7b bf
       0.2722321 -0.29532832 0.25080433 -0.98298264
000010 63 1a 98 3d 67 9e e6 bd 8e 0e 0c be 95 33 5c bf
       0.07426908 -0.112606816 -0.13677427 -0.8601621
000020 85 06 85 3e 70 33 55 3e 26 e6 c0 be 28 7a fd be
       0.25981537 0.20820403 -0.3767559 -0.4950726
000030 da f3 89 bf 73 96 59 3e 4e fd 4e be d8 53 5f be
       -1.0777543 0.21248798 -0.20213816 -0.21809328
000040 a0 3e 4b be e7 45 cc be cf d0 b9 bc 29 21 9f 3e
       -0.19848108 -0.3989708 -0.022682576 0.31079987
000050 18 96 ef be 76 a2 7c 3d 53 dd 86 be b7 85 02 3e
       -0.467942 0.061678372 -0.26340732 0.1274632
000060 9a 99 52 be 9d 1e 22 bf 7d c2 b9 be ab 3c 26 bf
       -0.20566407 -0.6332796 -0.36281195 -0.6493632
000070 6c 5f d2 be 35 52 13 bf de 2f 06 c0 aa 68 cc 3d
       -0.41088426 -0.5754731 -2.0966716 0.099809006
000080 7f e3 fb bf ca f3 c8 bd 61 25 8a be b6 4f 60 3e
       -1.9678801 -0.09812124 -0.26981643 0.21905407
000090 4b b4 b2 3d bb e4 07 3e df d5 d4 bf b4 be ec be
       0.087257944 0.13270847 -1.6627768 -0.46239245
0000a0 92 0f a2 be c4 63 c3 3e e1 2f 0d 3e 3d 9c e5 bf
       -0.31652504 0.38162053 0.13787796 -1.7938305
0000b0 fd 8a 92 3e ae eb c6 bf d9 2a 4e bf e7 92 49 be
       0.28621665 -1.5540674 -0.8053413 -0.19684945
0000c0 fe d0 8c be 5b ee 50 3e
       -0.27503198 0.20403425

network.fc2.weight f4 [50, 50]
000000 ac 03 b7 be fc 1c 6b be 38 52 fd 3e e4 c4 91 3d
       -0.3574499 -0.22960275 0.4947679 0.07117632
000010 7d 3e 2e bf ba ed 98 be 7e 14 d3 bd 17 48 81 3f
       -0.680641 -0.2986887 -0.10306643 1.0100125
000020 6d 6d c0 3e 43 c9 97 3e c3 58 e2 be e2 69 47 bf
       0.37583485 0.29645738 -0.44208345 -0.7789594
000030 89 35 50 3f 80 5a 8a be 5a 0b f5 3e 72 41 8d be
       0.8133169 -0.2702217 0.47860223 -0.27588993
000040 1c 7a cb be 93 a9 bd bf 0f be 90 be 28 05 9e bd
       -0.397416 -1.4817375 -0.28270003 -0.07715827
000050 6e 77 8b bc 3a 16 02 3f 4e d0 9c be b3 3d 37 3f
       -0.017024722 0.50815165 -0.30627674 0.7157852
000060 53 76 ce be f2 03 d3 3e 02 ce 8f 3d cf 10 0d bf
       -0.4032465 0.41213948 0.07021715 -0.5510377
000070 2b 54 16 3f 2a 83 ba 3e b8 ec bc bf ee 21 06 3f
       0.5872218 0.36428195 -1.4759741 0.5239552
000080 18 81 67 be be b8 06 c0 61 00 60 3f 7c b4 a9 be
       -0.22607839 -2.1050258 0.8750058 -0.3314551
000090 2e 6d 61 be 30 8a 38 bf 09 66 cd 3e 0c 6a a0 3f
       -0.22014305 -0.7208586 0.4011691 1.2532363
0000a0 c3 3a 16 3e e8 18 d0 3c 78 59 8c be 55 5e da 3f
       0.14670853 0.025402501 -0.2741201 1.7060038
0000b0 12 4c 9e 3e 35 3c 3b bf 78 12 41 bf d4 25 4c 3e
       0.30917412 -0.73138744 -0.75418806 0.19936305
0000c0 4b 6c b6 3e 96 bc 4f 3f 9a 18 19 bf ef a9 4a be
       0.35629496 0.81147134 -0.59803164 -0.19791387
0000d0 ce 6a 1c c0 c1 e0 4f c0 b4 6f 11 bd 06 41 3d 3e
       -2.4440188 -3.248093 -0.03550692 0.18481836
0000e0 4a fb 95 3d 68 7c 22 bf 1a 1e 98 3d 5d c9 26 3f
       0.0732332 -0.6347108 0.074276164 0.65151006
0000f0 c0 57 6b c0 06 e3 54 bf 12 b7 c3 be df 4a c0 3f
       -3.6772308 -0.8315891 -0.3822561 1.5022849
000100 60 5b 96 3e 74 42 cb bd 8c 23 83 3e 6f fc 22 3f
       0.2936659 -0.09924784 0.25613058 0.63666433
000110 9d 06 cb bd 9e 9b 50 bd 92 e8 58 3e 28 12 57 3f
       -0.09913371 -0.050929658 0.21182469 0.8401208
000120 8c 05 94 3e 09 e9 5e 3c 76 b4 09 3f 65 f9 45 3d
       0.28910482 0.013605365 0.53790987 0.048333544
000130 b7 1a ce bf f7 fd 96 3f 55 08 ab bf 80 2c 34 3e
       -1.6101903 1.1796254 -1.3361918 0.175951
000140 61 d4 98 c0 5b c5 d9 be f1 5c 24 40 d7 1d 0f bf
       -4.775925 -0.42533383 2.5681727 -0.55904907
000150 ab 3b 75 be 15 11 0c 3f cc 04 9f be d4 0e 62 3d
       -0.23948543 0.54713565 -0.31058347 0.055189922
000160 18 1f ff be 6f dd 5b bd 2e 69 a2 bd 0a 07 6a bf
       -0.4982841 -0.053677972 -0.07930218 -0.9141699
000170 02 b6 82 3e ed ff 95 c0 d8 d9 ab 3e ae bd 97 bc
       0.25529486 -4.687491 0.3356464 -0.018523064
000180 61 12 29 40 19 b3 9e 3e f9 2a 08 3e 64 b2 cb bd
       2.6417468 0.30996016 0.13297643 -0.09946135
000190 6c 84 11 be ec a7 bc 3e 78 16 3b 3e ae c2 4d bf
       -0.14210671 0.36846864 0.1827029 -0.8037518
0001a0 20 ee a9 3d 0d e0 e7 3d c9 a3 26 bf f4 2c e4 be
       0.08297372 0.11322031 -0.65093666 -0.44565547
0001b0 c6 d8 d6 be 78 a1 f7 3c 04 bd c2 bf 56 31 1d bf
       -0.4196226 0.030228361 -1.5213933 -0.61403406
0001c0 b3 db a1 bf 14 76 42 bf 3b 2a 49 3f d8 04 a3 bf
       -1.2645172 -0.7596142 0.78580064 -1.2735853
0001d0 16 ea b5 be b8 b9 96 be 0a b1 17 bc 30 c1 47 3f
       -0.35530156 -0.29438567 -0.009258518 0.78029156
0001e0 22 47 a4 be e6 bb 15 3e cb 9e d1 be e4 7d 11 3f
       -0.3208552 0.14622459 -0.40941462 0.5683272
0001f0 5c 65 31 3e 48 26 81 3e b5 1f 72 c0 ab a7 df 3d
       0.17323822 0.2522452 -3.7831852 0.10920652
000200 9a a7 88 bf 61 40 b8 3d 3a c7 2c c0 27 b2 05 bf
       -1.0676148 0.08996654 -2.6996598 -0.52224964
000210 9d d6 05 40 8e a9 a5 be d9 2f 9a 3e 0d 9f 6f bf
       2.091224 -0.32355922 0.3011463 -0.9360207
000220 16 35 38 be 95 c2 ed 3e e6 5a 1b bf 05 cf 53 bd
       -0.17989 0.46437517 -0.60685575 -0.0517111
000230 ac 11 04 3f 72 2d c8 3e 01 47 e7 3d 9c 2a aa 3e
       0.51589465 0.39097172 0.1129284 0.33235633
000240 5a 07 d6 3e c3 5b 9c 3e 27 64 29 3f 7d 50 1d 3f
       0.41802484 0.3053876 0.66168445 0.6145094
000250 e9 fe de 3e 52 db 6c 3e 0b 2e b5 bd 27 6f 89 bf
       0.43553856 0.23130539 -0.088466726 -1.0737046
000260 ba 6a 6f 3f f5 b3 a8 3e 38 3b 9c be 0c e2 10 3f
       0.93522227 0.32949796 -0.3051393 0.5659492
000270 70 7c 2a bf ba ee 5d be 4d 8a 0a bf f3 bf 6b 3e
       -0.66596127 -0.21673098 -0.5411728 0.23022442
000280 9d 9e 10 3e ec aa 8d 3e 70 3e 99 3e 60 60 bf bd
       0.14123006 0.27669466 0.2993045 -0.09344554
000290 43 2f c7 3d 92 82 e6 be 19 10 7c bf 83 14 98 3d
       0.09725811 -0.45021492 -0.98462063 0.07425787
0002a0 0d b8 8d bf 1c 78 28 3f 91 0c 78 be 2b a2 63 bf
       -1.1071793 0.6580827 -0.24223544 -0.88919324
0002b0 a1 99 1d bf 6a bd e9 3e ac ad 7a 3d 42 11 ef 3d
       -0.61562544 0.45652324 0.061200783 0.116732135
0002c0 b5 6f 57 3f 3e 63 0e bc 3b 33 4f bf 79 6e 5d 3e
       0.84154826 -0.008690653 -0.80937546 0.21624173
0002d0 c5 b4 f3 be e4 c5 07 bf e9 bd c3 bf 59 9a e4 bf
       -0.47598854 -0.5303633 -1.5292331 -1.7859603
0002e0 a3 ec 02 3f 79 00 2d 3f 57 18 3d be 14 0f 5d 3e
       0.5114233 0.67578846 -0.18466316 0.21587783
0002f0 46 52 c3 bf 5b 3f 7f 3d ab 8e be 3e cc 4e ac 3e
       -1.5259483 0.06231628 0.37218222 0.33653867
000300 d6 ec 9a be e6 8f 86 be 42 61 1f 3f a6 4b 3c 3f
       -0.30258816 -0.2628166 0.6225778 0.7355293
000310 c9 61 a5 be 40 44 e0 be 78 82 2f be 1f 3b 0c bf
       -0.32301167 -0.4380207 -0.17139614 -0.5477771
000320 c7 7d 17 bf 6c 0e 28 3f ed 30 cc be ab 5f 1a be
       -0.59176296 0.65647006 -0.39881077 -0.15075557
000330 7f de d4 be 25 cd e5 3e 72 b7 f7 be f0 af 0a 3f
       -0.41576 0.44883075 -0.48382145 0.5417471
000340 9c 26 d8 3d c1 93 b1 3e bb 89 c9 3e e7 10 cd be
       0.10554239 0.3468304 0.39362893 -0.40051958
000350 35 0e 81 be 0f 7c b4 be b6 6f ef 3d 21 3b 8a 3e
       -0.25206152 -0.352509 0.11691229 0.26998237
000360 47 82 ac 3c 19 bf 60 3f 82 cb 4a be 7c c5 71 be
       0.021058215 0.8779159 -0.19804195 -0.2361049
000370 dc a6 24 be 38 40 a2 3e 77 2c 28 bf 97 d6 0e 3e
       -0.16079277 0.3168962 -0.6569285 0.13949047
000380 1d d7 1f be 01 aa 35 3e 88 b6 63 bf a7 43 68 3d
       -0.15609403 0.17740633 -0.88950396 0.056705143
000390 9e b4 45 be 8b b0 0c c0 5b bc 8d bf 79 f8 3c 3e
       -0.19307181 -2.1982753 -1.1073107 0.1845416
0003a0 66 4e c7 be 91 44 e2 3e 06 06 34 3f 1b 17 bd 3e
       -0.38927 0.44192937 0.7032169 0.3693169
0003b0 94 9d d8 3e 6c 82 4e be bd 53 0e bf a9 50 ca 3d
       0.42307723 -0.2016694 -0.55596524 0.09878666
0003c0 29 15 a1 be 58 2a 12 bf 4a 65 0c 3f 83 42 8b 3c
       -0.31461456 -0.5709586 0.54842055 0.016999489
0003d0 28 0d 04 bf 98 36 73 3f 33 b7 d7 3d 95 fc 95 bc
       -0.51582575 0.9500518 0.10532989 -0.018308917
0003e0 03 bc 99 3d a1 16 ce bd e2 85 81 3d 01 13 0f bf
       0.075065635 -0.1006291 0.06324364 -0.5588837
0003f0 c0 d8 35 3f e0 b8 e9 3d 12 db 55 3f 47 50 d4 3e
       0.7103386 0.11412215 0.835374 0.41467497

network.fc2.bias f4 [50]
000000 6b 9a f1 3d ce 81 ab bc 59 36 53 3f 6c fd 60 3f
       0.11797031 -0.02093592 0.825048 0.8788669
000010 a8 ae 0b 3f fc 77 95 bd ee ee 8d 3e b7 79 8e 3d
       0.5456338 -0.07298276 0.2772135 0.06956809
000020 44 bb 91 bd bc e6 1a bf 30 dc af 3e 33 0e a9 3e
       -0.07115796 -0.6050832 0.34347677 0.33018646
000030 dc 05 a2 3e 6a 53 66 3e 8b db 07 3f 21 23 7f 3f
       0.31645095 0.22492757 0.5306937 0.9966298
000040 a3 d9 e7 be a0 71 4a bf a6 54 84 3f b6 10 12 3f
       -0.4528323 -0.7907963 1.0338333 0.5705675
000050 1c 11 84 3d 90 c1 35 3f a4 9b 9f 3f 3c 35 63 bf
       0.06448576 0.7099848 1.2469373 -0.88753104
000060 12 bc 06 3f 68 44 96 be 93 99 86 bd e5 fa 2a 3f
       0.5263072 -0.29349065 -0.06572261 0.66789085
000070 b6 18 2b 3f b9 6e a8 be 3c 13 ad 3f 53 d3 dc 3e
       0.6683458 -0.32896975 1.3521495 0.43129978
000080 32 38 48 be d6 e6 4d 3f ae b7 1f 3a 60 5b a1 3d
       -0.19552687 0.8043035 0.0006092739 0.078787565
000090 1f 4d 66 be 0b e3 7b 3e 80 38 18 3e ef e4 83 3e
       -0.22490357 0.24598329 0.14865303 0.257606
0000a0 cb 91 6a 3f 39 19 65 3f 0a 0e 2f 3f ea 70 19 3f
       0.9162871 0.8949161 0.68380797 0.5993792
0000b0 4e 41 b6 3e ea dc b9 be 1b d5 8a be 3d 1f 90 3f
       0.355967 -0.36301357 -0.27115712 1.1259533
0000c0 90 0b 96 be d3 b9 64 3e
       -0.29305696 0.22336511

network.fc3.weight f4 [220, 50]
000000 26 a8 8e be 61 0d 2f be 84 dc c5 bd d6 96 33 3e
       -0.27862662 -0.17094947 -0.09661201 0.17538008
000010 aa 4e e1 3e 77 66 81 3e ab 91 ca ba ee 39 b4 bc
       0.44005328 0.25273487 -0.0015454789 -0.02200028
000020 49 34 7b 3e aa e7 80 3e d4 b8 1e bc 31 92 20 be
       0.24531664 0.25176746 -0.009687621 -0.15680768
000030 ee 54 9e bd a3 b5 38 3e d9 2a 1f 3e 37 2c 22 be
       -0.07731043 0.18038039 0.15543689 -0.15837179
000040 4a 1f 24 be 2c 22 f0 3e f9 23 30 3e 8d a3 5a be
       -0.16027561 0.4690107 0.17201222 -0.21351452
000050 6d 34 d7 bd ee dc fb 3d 7c f3 ae bd b8 b4 92 3d
       -0.10508046 0.12297998 -0.08542535 0.071633756
000060 b5 95 0f be d7 ee 63 bd 7e f7 46 3e 75 6b b1 bd
       -0.14021952 -0.055647697 0.19430348 -0.08663074
000070 bc ff 30 be 67 14 23 3e 37 84 2a 3e 68 c3 47 be
       -0.17285055 0.15925752 0.16651998 -0.19508135
000080 d6 5f a7 bd 0c 1c 3d 3e 9c 51 25 3e b0 46 70 be
       -0.08172576 0.1846773 0.16144413 -0.23464465
000090 14 81 e7 3d 74 c5 4c be 04 7f 86 be cd 08 26 be
       0.113039166 -0.19997197 -0.2626878 -0.16214295
0000a0 75 0b 03 be f2 be d2 3d 17 85 42 be 7e a0 16 be
       -0.1279734 0.10290326 -0.18996082 -0.1470966
0000b0 5f 31 66 3d 1b 9a 89 bc f0 aa e6 3d 08 14 f0 3d
       0.056199428 -0.016797116 0.112630725 0.11722571
0000c0 76 a3 07 be 8e b8 20 3e d3 6e 92 be af 90 32 be
       -0.13245949 0.15695402 -0.28600177 -0.17438005
0000d0 97 fd bf bd 70 f0 28 3e 5d 34 e8 3e c5 43 84 3e
       -0.0937454 0.1649797 0.4535245 0.25832954
0000e0 61 0c d3 3b 74 70 18 bc 5c b5 73 3e 18 37 8b 3e
       0.0064406847 -0.009304155 0.23799652 0.2719047
0000f0 8d b0 db 3a eb f2 25 be 12 47 9f bd d2 c9 46 3e
       0.001676099 -0.16205947 -0.077772275 0.19412926
000100 48 48 21 3e 34 99 1d be 10 53 23 be 91 97 f7 3e
       0.1575023 -0.15390474 -0.15949655 0.48357823
000110 e4 c3 2d 3e bd dc 61 be b5 3b eb bd 6d 7c 1c 3e
       0.16969258 -0.22056861 -0.114859976 0.1528184
000120 c7 88 8c bd 0b 8a 8c 3d 44 b5 12 be 65 61 59 bd
       -0.06862026 0.06862267 -0.1432696 -0.0530714
000130 5e 5e 4d 3e 22 db d9 bd 55 4b 2f be f6 ee 2b 3e
       0.2005553 -0.106374994 -0.1711858 0.16790375
000140 bc cc 30 3e ab 06 56 be 68 cd a8 bd ce 01 3f 3e
       0.172656 -0.20900981 -0.08242303 0.18653032
000150 29 8b 34 3e 34 0c 66 be 6f c3 e6 3d ed 0b 50 be
       0.1763121 -0.22465593 0.11267745 -0.2031705
000160 15 dc 8e be 22 cd 1f be a7 6f 12 be 44 8d c1 3d
       -0.27902284 -0.15605596 -0.14300404 0.094507724
000170 f1 4d 4e be 1d 19 20 be b3 0b 4c 3d f6 8e af bc
       -0.2014692 -0.1563458 0.049815845 -0.021430474
000180 2c 0d f9 3d a2 b8 03 3e 0f fe 17 be b6 af 20 3e
       0.121607155 0.128634 -0.1484301 0.15692028
000190 5f 7b 92 be e3 ef 2b be aa 63 ae bd 08 81 27 3e
       -0.2860975 -0.16790728 -0.08515103 0.16357815
0001a0 7c 4f ee 3e 36 8d 80 3e dc ac 8f 3c 0c f8 95 bc
       0.46545017 0.25107735 0.01753848 -0.018306755
0001b0 f5 bf 68 3e 9e ec 8c 3e 42 40 55 3b f5 ca 25 be
       0.22729476 0.27524275 0.0032539521 -0.16190703
0001c0 9e 07 8d bd 3f 5f 49 3e ab 90 26 3e 4b b3 1b be
       -0.068862185 0.1966524 0.16266124 -0.15205114
0001d0 e6 3d 1a be 16 4d f6 3e f3 c4 27 3e 64 0a 74 be
       -0.15062675 0.48105687 0.16383724 -0.23832089
0001e0 1d 5c f0 bd d7 ec 2a 3e bd 3a 6f bd 06 a2 92 3d
       -0.11736319 0.1669191 -0.058405627 0.0715981
0001f0 ac 32 24 be 3e 57 52 bd 17 7f 4a 3e f0 e2 ee bd
       -0.16034955 -0.051352732 0.19775043 -0.11664379
000200 21 c0 30 be 4c 4e 2b 3e 70 c2 2e 3e 0a 1e 6d be
       -0.17260791 0.16729087 0.1706636 -0.2315599
000210 8d b7 97 bd 04 29 4a 3e 80 3a 3f 3e f1 bf 61 be
       -0.074080564 0.19742209 0.1867466 -0.22045876
000220 cc 72 e3 3d 71 ae 50 be d9 e2 92 be ba 13 1f be
       0.1110588 -0.20379044 -0.28688696 -0.15534869
000230 5e 7a 13 be 4a d5 ce 3d 28 36 5e be 04 64 27 be
       -0.14402148 0.100992754 -0.21700346 -0.16346747
000240 48 36 44 3d 7f ff 7d bc 57 c6 01 3e e3 42 08 3e
       0.04790333 -0.01550281 0.12673317 0.13306765
000250 5e de 24 be 68 22 23 3e fd 9a 95 be 76 c4 22 be
       -0.16100451 0.15931094 -0.2921981 -0.15895256
000260 ee 56 a7 bd ac b3 2a 3e 7e d7 f3 3e 36 b9 80 3e
       -0.081708774 0.16670102 0.47625345 0.25141305
000270 a6 9c f0 3c d6 00 f7 bc 40 ff 5b 3e d7 27 8f 3e
       0.02937157 -0.030151766 0.21484089 0.27960083
000280 39 3e 4a 3b 34 fb 29 be cf b3 85 bd 56 82 4e 3e
       0.0030859841 -0.16599733 -0.065284364 0.20166907
000290 a1 00 2a 3e 83 c8 1a be d8 43 18 be 1f 18 f9 3e
       0.16601802 -0.15115552 -0.1486963 0.48651215
0002a0 e5 32 23 3e fa e0 82 be 0c 2f f9 bd e8 77 36 3e
       0.15937383 -0.25562268 -0.121671766 0.17819178
0002b0 a8 f2 4b bd 02 ec a0 3d 01 ac 33 be 24 90 50 bd
       -0.049791962 0.07857515 -0.17546083 -0.050918713
0002c0 2f c8 4a 3e 1c 8b 04 be ab 4d 36 be 99 6f 28 3e
       0.19802926 -0.12943691 -0.17803065 0.16448821
0002d0 9c 5c 30 3e 2f f2 79 be 4d 47 95 bd e6 a0 5e 3e
       0.17222828 -0.24408792 -0.0728899 0.21741065
0002e0 2d 14 4b 3e de 3c 5e be b4 a9 d3 3d 96 ab 5a be
       0.19831915 -0.21702906 0.10335103 -0.21354517
0002f0 9b 84 95 be f8 62 1d be 61 2a 1b be 83 76 ce 3d
       -0.29202732 -0.15369785 -0.15152885 0.10081198
000300 b0 ae 6f be 73 dc 2d be e7 de 2e 3d 86 e9 c0 bb
       -0.23406482 -0.16978626 0.042693045 -0.005887213
000310 4e ba 0d 3e 89 6b 09 3e 65 09 34 be 44 53 28 3e
       0.13840601 0.13419928 -0.17581709 0.16438013
000320 fb df 98 be 14 6a 1d be 5a e4 a0 bd 7d 57 2b 3e
       -0.29858384 -0.15372497 -0.078560546 0.16732593
000330 e8 de f4 3e 05 6d 80 3e 3a 7a 18 3d 7f 60 1a bd
       0.47826314 0.25083175 0.03722594 -0.037689682
000340 26 88 4d 3e 98 e2 91 3e 48 55 65 3b a2 f9 2f be
       0.20071468 0.2849319 0.0034993459 -0.17185071
000350 60 e6 6e bd 3a 7f 4d 3e 92 7f 2d 3e e0 67 19 be
       -0.05832517 0.20068064 0.16943195 -0.14981031
000360 91 47 12 be 2b 56 f9 3e 6b a4 20 3e 92 ba 8c be
       -0.14285113 0.48698553 0.1568772 -0.27486092
000370 ca fb f9 bd 1b c4 3d 3e 9a 56 37 bd 8e e3 b0 3d
       -0.12206228 0.1853184 -0.044760324 0.086371526
000380 c4 9c 42 be 3d b3 5e bd d4 9c 4b 3e 91 c9 09 be
       -0.19005114 -0.054370154 0.19884044 -0.13455798
000390 4d 3c 3b be 08 21 26 3e 96 85 32 3e f6 20 7e be
       -0.18284722 0.16223538 0.17433771 -0.24817261
0003a0 92 c0 8e bd fa 01 6e 3e 3c 25 58 3e 14 61 5c be
       -0.069703236 0.23242941 0.21107954 -0.21521407
0003b0 47 88 c2 3d 3f 35 5c be 12 99 98 be d0 94 1b be
       0.09498649 -0.21504687 -0.29804283 -0.15193486
0003c0 90 99 1e be a7 46 d4 3d 01 70 7f be b9 98 37 be
       -0.15488267 0.10365038 -0.2494507 -0.17929353
0003d0 8e 76 1a 3d 63 11 8d 3b ed 82 18 3e e7 8b 04 3e
       0.03771072 0.004305051 0.14893694 0.12943994
0003e0 36 08 3e be 22 44 2c 3e 3b 25 98 be 00 3a 13 be
       -0.1855782 0.16822866 -0.29715905 -0.14377594
0003f0 d2 cc 96 bd 7c 42 2c 3e 17 5a f6 3e c6 28 7b 3e
       -0.07363285 0.16822237 0.48115608 0.24527273

network.fc3.bias f4 [220]
000000 30 24 55 bc 9b bd 36 bd 89 6f 3a bd 76 d2 fa bc
       -0.013009116 -0.044614416 -0.045516524 -0.030617934
000010 80 fa 26 bc 78 59 a6 3c 11 47 5d 3d 42 47 9e 3d
       -0.01019156 0.020306334 0.054022852 0.07728435
000020 91 10 dd 3d 64 15 03 3e 93 3f 13 3e 2a 76 1c 3e
       0.107941754 0.12801129 0.1437972 0.15279451
000030 75 b4 1e 3e 61 ae 29 3e 15 7d 2e 3e 5b a8 2e 3e
       0.15498526 0.16570427 0.17039903 0.1705641
000040 f3 45 32 3e 2c e3 2e 3e b4 ce 2d 3e 72 60 2f 3e
       0.17409496 0.17078847 0.16973382 0.17126635
000050 7d 1d 2c 3e ac 36 2d 3e 89 a6 28 3e e4 33 22 3e
       0.16808124 0.16915387 0.16469778 0.15840107
000060 ca f2 1e 3e 0b cd 26 3e 43 e5 1a 3e 98 47 10 3e
       0.15522304 0.16289155 0.15126519 0.14089811
000070 19 d0 14 3e 80 9b 1b 3e 0f ca 0d 3e cd 6a 20 3e
       0.14532508 0.15196037 0.1384661 0.15665741
000080 68 80 1e 3e 90 ba 18 3e 5c ca 1c 3e 23 52 18 3e
       0.1547867 0.14914918 0.15311569 0.14875083
000090 c3 ee 04 3e 62 dc 11 3e bb 99 0d 3e 1b 7d 0b 3e
       0.12981705 0.14244226 0.13828175 0.13621943
0000a0 61 cb 12 3e b5 fe 14 3e 67 27 19 3e e9 ab 10 3e
       0.14335395 0.14550288 0.14956437 0.14128079
0000b0 1c 7b 14 3e 7c e8 1d 3e fc 36 28 3e b1 7a 27 3e
       0.14500087 0.15420717 0.16427225 0.16355397
0000c0 03 86 25 3e ed 20 2f 3e 49 e3 2f 3e 36 d7 46 3e
       0.16164403 0.17102404 0.17176546 0.19418034
0000d0 59 be 49 3e 46 f8 4a 3e b9 29 5e 3e 55 aa 5b 3e
       0.19701518 0.19821271 0.21695603 0.21451695
0000e0 bd 88 67 3e e7 57 7f 3e 72 09 7b 3e 8b 0f 85 3e
       0.22610755 0.24935876 0.24515322 0.2598842
0000f0 25 61 8e 3e 25 4a 9b 3e 09 35 a3 3e ed b9 ac 3e
       0.2780849 0.30330005 0.318764 0.337356
000100 0e 56 b2 3e 04 11 bb 3e 31 06 bd 3e d1 4c b8 3e
       0.3483128 0.3653642 0.36918786 0.35996106
000110 23 d9 ba 3e 1e bf bb 3e 4c 6e c2 3e 93 31 be 3e
       0.36493787 0.36669248 0.37974775 0.37147197
000120 cf 2f c1 3e 1b dc bb 3e ae fd b7 3e c0 4f b8 3e
       0.37731788 0.36691365 0.3593573 0.35998344
000130 2d d7 b4 3e e9 83 b6 3e 4c 15 ba 3e 16 a7 b6 3e
       0.35320416 0.35647514 0.36344373 0.3567435
000140 ce d8 a8 3e 1a 1f 99 3e c2 7a 8e 3e 6c b1 8c 3e
       0.3297791 0.2990654 0.27828032 0.27479112
000150 74 7f 85 3e f2 f6 86 3e ea e5 86 3e 45 5f 7e 3e
       0.26073802 0.2636028 0.26347286 0.2484103
000160 37 b0 71 3e 55 7f 56 3e d2 d3 4b 3e d2 14 46 3e
       0.23602377 0.20947011 0.19905022 0.1934388
000170 eb 1f 2e 3e 67 ce 18 3e a2 d5 07 3e b8 d0 f2 3d
       0.17004363 0.14922486 0.13265088 0.11856216
000180 ee 1a f4 3d b9 fa ce 3d bc 64 cf 3d fb 76 b4 3d
       0.11919199 0.10106415 0.101266354 0.08811756
000190 8e 83 d2 3d 0f 66 bd 3d 9f 00 bb 3d 1c 0c 9f 3d
       0.10278998 0.09247982 0.09130978 0.077659816
0001a0 be 0b 96 3d 13 c1 6c 3d 25 ab 28 3d f2 8c 4b 3d
       0.073264584 0.057801317 0.04117884 0.049694963
0001b0 b9 e2 02 3d 29 63 7a 3c b5 b5 78 3c 4c 4d fb 3b
       0.0319545 0.015282431 0.015180041 0.0076691266
0001c0 67 e5 7f bc 28 cb be bc 9a 12 26 bd 52 d6 2e bd
       -0.015618659 -0.023290232 -0.040545084 -0.04268486
0001d0 a8 dd 3e bd 74 cb 43 bd ae 1b 76 bd 8b a4 81 bd
       -0.046598107 -0.04780145 -0.06008499 -0.06330212
0001e0 a5 07 8f bd d3 39 a0 bd 53 2b b1 bd 60 ba b7 bd
       -0.0698388 -0.07823529 -0.086508416 -0.08971095
0001f0 8e 4b b9 bd fa d1 c9 bd 47 20 d4 bd be 1f d4 bd
       -0.09047614 -0.09854503 -0.10357719 -0.10357617
000200 3c 37 00 be db 80 f0 bd a9 c2 fd bd d0 4a 07 be
       -0.1252107 -0.11743327 -0.12390644 -0.13212132
000210 36 23 10 be f0 d0 06 be 15 50 0a be ca 77 04 be
       -0.14075932 -0.13165641 -0.13507111 -0.12936321
000220 ea eb 05 be a9 04 f8 bd 4a ca 03 be eb 27 f3 bd
       -0.13078275 -0.12110264 -0.12870136 -0.11872848
000230 77 8c f6 bd 31 15 05 be 4a f1 ec bd 49 50 e1 bd
       -0.1203851 -0.12996365 -0.1156946 -0.11001641
000240 0b c1 02 be 8a d2 fe bd fa f5 05 be 6f c3 09 be
       -0.12768953 -0.12442501 -0.13082114 -0.13453458
000250 7d 87 0c be 64 39 f9 bd c4 f8 01 be 58 85 0e be
       -0.1372356 -0.121691495 -0.12692553 -0.13918054
000260 79 14 06 be 7e dc 0e be 61 20 11 be 6b 68 06 be
       -0.13093747 -0.13951299 -0.14172508 -0.1312577
000270 cd b2 f7 bd f6 70 0e be 36 22 0c be e6 b0 09 be
       -0.120946504 -0.13910279 -0.13684925 -0.13446388
000280 13 62 0a be cd 72 02 be f7 88 19 be a4 a4 1f be
       -0.13513975 -0.12739106 -0.14993654 -0.15590149
000290 ae b9 14 be ab 14 12 be cf 12 09 be f5 72 0b be
       -0.14523956 -0.14265697 -0.13386081 -0.13618071
0002a0 47 26 10 be d2 62 12 be fb 50 14 be 1f 59 0e be
       -0.14077102 -0.1429551 -0.14484017 -0.13901184
0002b0 91 c4 0b be 5f 8d 09 be 5f 91 e8 bd 1a fe f6 bd
       -0.13649203 -0.13432835 -0.11355852 -0.12060185
0002c0 83 22 dd bd bf 01 de bd 9d 40 ff bd 22 6e 03 be
       -0.10797598 -0.10840177 -0.12463496 -0.12834981
0002d0 10 d1 00 be 55 e7 ef bd b0 67 ec bd 08 e0 de bd
       -0.12579751 -0.11714045 -0.11543214 -0.10882574
0002e0 04 ba e1 bd 36 c8 e2 bd d6 38 e1 bd bc 61 ec bd
       -0.11021808 -0.110733435 -0.10997169 -0.11542079
0002f0 e0 6d eb bd 67 eb e3 bd 25 25 03 be 44 bf f5 bd
       -0.11495566 -0.11128884 -0.12807138 -0.11999372
000300 e7 4e e5 bd 1d d3 d6 bd 27 62 bc bd 2d 3d d0 bd
       -0.1119669 -0.104894854 -0.091984086 -0.10167918
000310 a1 28 b0 bd 00 7c 9a bd 2a 17 a7 bd 60 ed b3 bd
       -0.08601499 -0.075431824 -0.08158715 -0.0878551
000320 18 2a a7 bd 38 4e aa bd 8c a6 ae bd 75 8d 91 bd
       -0.081623256 -0.083157 -0.0852786 -0.07107059
000330 cc 27 96 bd b4 db 8f bd 0b 8d b8 bd 10 dc a5 bd
       -0.073318094 -0.07024327 -0.09011277 -0.08098614
000340 e2 36 b3 bd fc b0 b3 bd c0 d5 b9 bd ce 0f 9a bd
       -0.087507024 -0.087739915 -0.09073973 -0.07522546
000350 8a e7 96 bd ea 99 8a bd 33 b8 b0 bd d4 5e ae bd
       -0.07368381 -0.06767638 -0.08628883 -0.08514181
000360 9b cf 88 bd 2c 4b a6 bd ab 9d bb bd 4d 1c bd bd
       -0.066802226 -0.08119807 -0.09160932 -0.092339136
