Week8/PBNN/model_for_FreqEnv_2000epoch.pth (torch, 65488 bytes, 6 tensors)

network.fc1.weight f4 [50, 6]
000000 68 d8 a5 3e ca db be 3d f5 a5 4d 3f d5 65 26 3f
       0.32391667 0.09319265 0.80331355 0.64999133
000010 5d 0e 01 3f c6 bc df bd f6 3e b7 bd f0 e3 a7 be
       0.5041254 -0.109246776 -0.08947556 -0.3279109
000020 78 82 47 bd a7 26 ce be f4 c6 50 3f 77 7f c1 be
       -0.04870841 -0.40263864 0.8155358 -0.3779256
000030 11 8b 89 be e7 53 a0 bf fa c0 c8 3e 0b b0 dc bd
       -0.26863912 -1.2525605 0.3920973 -0.10775765
000040 74 ca 00 3f 61 c8 40 3f 9e d0 dd bd e4 2a 03 3f
       0.5030892 0.75305754 -0.10830806 0.5123732
000050 c2 7e db 3e 5c 56 c9 3e 51 d6 99 be 2c b6 45 bf
       0.42870146 0.393237 -0.30046323 -0.772311
000060 83 c1 1d bf c0 75 42 bf 95 d7 de 3c ee be b0 bd
       -0.616234 -0.7596092 0.027202407 -0.08630167
000070 5d a5 64 3d 3d 67 21 3f b7 ee 45 bf b2 42 60 bf
       0.055821765 0.63048154 -0.77317375 -0.8760177
000080 1b 4f f2 bc cf 6e 7b bb 7d e1 89 3e 51 66 52 3e
       -0.029578736 -0.0038365608 0.26929846 0.20546843
000090 5d 0e 18 3e cf 47 d5 3e 4b b5 31 bf a1 8e 5d 3f
       0.14849229 0.41656348 -0.69417256 0.8654576
0000a0 27 99 0a bd 9c ba 8b 3b 89 4a e1 be 87 2b 10 bf
       -0.033837464 0.004264189 -0.44002178 -0.5631642
0000b0 ac ad e6 be e2 72 48 bf e3 79 14 bf 43 1a fa 3e
       -0.45054376 -0.783003 -0.57998484 0.4884816
0000c0 9b 84 ed 3c 01 89 c3 be bc 21 8f 3f a4 1f 6f bd
       0.028993895 -0.38190463 1.118217 -0.058379784
0000d0 25 df bc be 3a c6 6e bc 1a b1 03 be 33 e4 70 3e
       -0.36888996 -0.014573628 -0.12860528 0.23524551
0000e0 42 07 e5 be fa 39 4e 3e f0 59 cf 3e 4e 48 a4 3d
       -0.447321 0.20139304 0.40498304 0.080216035
0000f0 46 29 c9 3e ca 8b 35 bf 77 0e 1f 3f 1e 89 43 be
       0.39289302 -0.70916426 0.62131447 -0.19095275
000100 51 56 8b 3e 89 fc 0f 3f 6a 08 a5 bf 2e 3f c9 3e
       0.27214292 0.56244713 -1.2893193 0.39306015
000110 03 39 0f bd 27 90 17 be bb 8d 86 3f 3c 30 04 3f
       -0.03496648 -0.14801084 1.0512003 0.516361
000120 2c 1f db 3f 76 b4 74 be d2 c7 43 3e 17 39 6e bc
       1.7118888 -0.23896965 0.19119194 -0.0145399785
000130 03 cd 69 be 0b db 99 be 93 e1 d8 be 0a 1f 4b bf
       -0.22832112 -0.3004993 -0.423596 -0.79344237
000140 88 8b 54 3f 41 83 6e 3d 4f 27 c0 be 5d fc 90 3d
       0.8302541 0.058230642 -0.3752999 0.070793845
000150 12 48 39 bf b1 26 c5 bd 4d 72 1d 3f 34 08 8e 3e
       -0.72375596 -0.096265204 0.61502534 0.27740633
000160 78 ab 49 bf 9a f7 61 3e 03 f7 b4 3e 39 70 84 bf
       -0.78777266 0.22067109 0.35344705 -1.0346748
000170 f9 80 04 3f 53 10 0f 3f f5 af ad 3e c7 7e c6 be
       0.51759297 0.55884284 0.33923307 -0.38768598
000180 91 51 9a be c1 18 73 be 95 83 dd 3f 10 78 c2 be
       -0.30140355 -0.23739912 1.7305781 -0.37982225
000190 47 3f eb bd d8 cb e7 bd b8 6f 9b 3b 31 ba f6 be
       -0.114866786 -0.11318177 0.0047435425 -0.48188928
0001a0 64 9d 56 be 3a 45 9b 3d 9e 42 c6 be a6 a0 0f 3f
       -0.20958477 0.07581563 -0.387227 0.56104505
0001b0 30 2f 65 bd da 77 d2 bd c9 75 67 be 36 98 03 3e
       -0.055953205 -0.10276766 -0.22603525 0.12851033
0001c0 ab bf ec 3e 5b 84 bd 3e e3 42 61 3f 7f 53 c5 bc
       0.4623998 0.37015042 0.87992686 -0.024087666
0001d0 a8 e2 f5 bd 2c 7b 5f 3d 4a 83 dc be fc ed 9b 3d
       -0.12006122 0.054560825 -0.43068916 0.07613751
0001e0 5f a7 37 be 3c 9c 97 3e e4 20 7b 3f 98 7d 41 ba
       -0.17934941 0.29611385 0.9809706 -0.00073810806
0001f0 6c 4b d7 3e e1 72 78 bd d0 51 22 c0 89 ac 75 3e
       0.4204973 -0.060656432 -2.5362434 0.23991598
000200 87 31 58 3e 62 76 68 be 25 78 9f 3d 07 4f ac 3e
       0.21112643 -0.2270141 0.077865876 0.33654043
000210 34 db 7f 3f de 24 b1 3d 44 b9 da bd e2 74 2d be
       0.9994385 0.0864961 -0.10679868 -0.16939119
000220 de 4c 91 3f c5 7f 65 3f 1d b0 1a 3f ee 47 10 3e
       1.1351583 0.89648086 0.6042498 0.14089939
000230 e9 0f 8d 3d 47 6e 8f 3d 03 a5 ad bf 74 fc cd bd
       0.068878 0.070034556 -1.3565983 -0.10057917
000240 cb 0f fa 3e 8f de 9a be 18 7e be be 33 25 68 3e
       0.48840174 -0.30247924 -0.37205577 0.2267044
000250 00 bf 52 bd 58 f5 95 bf 8e f4 d2 3c d9 98 a0 be
       -0.051451683 -1.1715498 0.025751378 -0.31366614
000260 fb 7d b5 3d e1 57 c2 bc b5 9d 81 be eb ef 9f be
       0.088619195 -0.023723545 -0.25315633 -0.3123773
000270 01 40 bf bc f5 8c 8e 3f 50 8d 44 bf 45 57 44 bf
       -0.02334595 1.1136767 -0.76778126 -0.7669566
000280 33 39 e1 3d 44 d2 a8 be d4 cc 18 3f e5 92 ab bf
       0.10997238 -0.3297292 0.5968754 -1.3404204
000290 d5 c7 08 3f a9 37 8b bd 2b b2 ae be 0b 90 04 be
       0.5342992 -0.06797726 -0.34120306 -0.12945573
0002a0 38 f2 22 3f 30 b7 fd be 4f 80 40 3f a3 8c 6e 3c
       0.63650846 -0.49553823 0.75195783 0.014559898
0002b0 e1 a3 27 bd 63 19 68 bf d0 5e 28 bf 0a 6f 1e bd
       -0.04092777 -0.9066374 -0.6576967 -0.038680114
0002c0 30 bd 01 3f 46 b5 16 bf ab 0a b0 3e 4d 47 27 3d
       0.506793 -0.5887035 0.3438314 0.040839482
0002d0 fc 46 84 3f 61 eb 05 bf 21 d7 0d bf 38 20 17 be
       1.0334163 -0.52312285 -0.55406386 -0.14758384
0002e0 d0 8a 27 be 84 28 fd 3d 16 a9 63 bf 8f c7 c3 be
       -0.16361547 0.12361243 -0.8892988 -0.3823819
0002f0 69 a9 32 3f 9f c6 1d bf e0 33 7c be d0 61 a2 bf
       0.6978975 -0.61631197 -0.24629164 -1.26861
000300 78 ac 27 3e ed 63 13 be 98 ab 08 3d 25 f2 12 bf
       0.16374385 -0.14393587 0.03336677 -0.57400733
000310 4b 09 ce bd 0e 1b 47 3e dc fe 88 3f 11 24 01 bf
       -0.10060366 0.19443914 1.0702777 -0.5044566
000320 bd 6f e2 3e 4c 2d a5 3d 61 2b f5 be da 5b 96 3f
       0.44225875 0.0806528 -0.47884658 1.1746781
000330 f7 2c 26 3f 52 26 6c be 18 dc b0 3e ba e0 73 bd
       0.6491236 -0.23061493 0.34542918 -0.059540488
000340 6b a5 ce 3f af 4b ab 3e 3b e9 82 3e 6f 77 21 3f
       1.6144232 0.3345618 0.25568566 0.63072866
000350 c0 18 a6 be 99 6e ba bc 83 0e 9c bf 56 78 f2 be
       -0.32440758 -0.022757815 -1.2191929 -0.47357434
000360 f1 93 df bf 38 28 0d bf 6a 7f c5 bc 14 8b a5 3e
       -1.7467023 -0.55139494 -0.024108607 0.3233267
000370 ee 17 40 3e 1d 8a 6b 3c 75 61 18 3e 85 2e df be
       0.18759128 0.0143761905 0.14880927 -0.4359018
000380 f0 31 84 3e b4 f7 3a 3f 33 cd d6 be 01 b5 b1 be
       0.2581935 0.73034215 -0.4195343 -0.34708408
000390 17 c4 3b 3e 1d e6 68 be bc ae 42 3e 8e 8a 3d 3d
       0.18336521 -0.22744031 0.19011968 0.046274714
0003a0 33 c5 a7 3f 2c 2d 71 bf 90 a6 49 bf 44 fd 2a be
       1.3107055 -0.9420955 -0.7876978 -0.16698176
0003b0 cc 3a 93 3f 45 68 42 be 71 44 12 bf 9d df 75 3e
       1.1502318 -0.18985088 -0.57135683 0.24011083
0003c0 c6 79 d5 be 11 4e eb be 75 92 38 3f 68 c4 e4 3d
       -0.41694468 -0.45957997 0.72098476 0.11170274
0003d0 b5 e2 58 bc cb 6d 87 be df 36 fb 3c 30 44 11 3f
       -0.013237645 -0.26450953 0.030665813 0.5674467
0003e0 e3 bc d1 3d 52 40 0d be 3d da 2a bf 21 01 4f 3f
       0.102411054 -0.13794068 -0.66739255 0.808611
0003f0 a7 da ff 3c c1 5d 65 3f 25 c8 08 bf b6 9e cd bd
       0.031232191 0.8959618 -0.53430396 -0.10040037

network.fc1.bias f4 [50]
000000 ae 37 ff be 8f 30 2d 3e fe 2b 05 bf 2c 8b 7e bf
       -0.49847168 0.16913055 -0.5202025 -0.9943111
000010 ff 52 92 be 6e e9 77 3d b1 fb b6 be f0 91 51 bf
       -0.28578946 0.06052535 -0.357389 -0.8186331
000020 b9 71 14 bd b8 d6 78 3e 64 98 b6 3d 16 74 9f bf
       -0.036241267 0.24300659 0.08915785 -1.2457302
000030 d0 fd cd bf 9d e4 c7 3d 73 a6 35 bf 13 a4 ca 3d
       -1.6093082 0.097604014 -0.70957106 0.09894576
000040 01 0c 09 bf dd ee 78 3e ae c8 42 3e 7c ea 1a 3e
       -0.5353394 0.24309869 0.19021866 0.15128511
000050 5f 13 e4 be 03 ab a5 bf 4b 52 20 bf d5 d6 95 be
       -0.4454603 -1.2942814 -0.6262557 -0.29265466
000060 b9 42 02 bd 51 fd b7 3e 17 cd ed be bb 6b 14 be
       -0.031801913 0.35935453 -0.46445534 -0.14494221
000070 67 86 b4 bd 5a ca a5 3e 35 d4 b9 bd a7 68 49 bf
       -0.08814698 0.32380944 -0.090736784 -0.7867531
000080 d6 dc d8 3e 74 43 b7 bf a1 de 13 bf ef d6 03 bf
       0.42355984 -1.431746 -0.5776158 -0.5149984
000090 8f 0b 82 bf 35 1e 87 3e fd 60 c5 bf 40 15 85 be
       -1.0159777 0.26390234 -1.5420223 -0.25992775
0000a0 9e c7 ff 3d 9d 66 11 bf 60 cf c0 bf d3 52 b9 3e
       0.12489246 -0.567972 -1.5063286 0.36196002
0000b0 7f 44 f6 3e e7 40 52 3e 81 2c c1 bf 2a 50 3c 3f
       0.48099133 0.20532571 -1.5091707 0.7355982
0000c0 c1 c8 eb 3c 56 a6 e1 3e
       0.02878225 0.44072217

network.fc2.weight f4 [50, 50]
000000 70 cb b0 3e 7d f7 51 bf 8b 3c 0e bf 99 19 d7 bf
       0.3453021 -0.8201826 -0.5556113 -1.6804687
000010 b1 99 8a 3e 32 60 21 3f 25 55 c8 3d 56 ae 8b 3e
       0.27070382 0.6303741 0.09781865 0.27281445
000020 0c 04 92 be 2f 8a 42 bf c5 8a 7f 3f f6 a5 55 3f
       -0.28518713 -0.759921 0.9982112 0.8345636
000030 0f f4 37 3f 2b a6 ca be 56 0a 92 be bf dd 50 bf
       0.7185678 -0.395799 -0.2852351 -0.8158836
000040 e8 d3 00 c0 2f 8c cc bd b5 0f 33 3e f3 75 50 bd
       -2.0129337 -0.099876754 0.1748646 -0.050893735
000050 29 17 10 bf bb eb 58 3f e8 b3 33 3f fc da 80 3f
       -0.5628534 0.84734696 0.7019639 1.0066829
000060 db 91 30 be 65 c7 09 bf 76 63 00 bf 6d e2 3b bf
       -0.1724314 -0.53819877 -0.50151765 -0.73392373
000070 ac 23 63 be 02 e2 e1 be 19 70 5c be 19 23 9d bb
       -0.22181576 -0.44117743 -0.21527137 -0.0047954437
000080 1f ac ec be 63 b8 57 be 09 22 32 3f 29 6e 85 3f
       -0.46225068 -0.21066432 0.69583184 1.0424243
000090 a6 9b 03 3e dd df 7e 3f b3 e0 16 40 17 9e d4 3d
       0.12852344 0.9956034 2.3574646 0.10381716
0000a0 ed 9f 40 bf b0 c9 82 bf 1e 7f 81 bf 36 55 ba 3d
       -0.7524403 -1.02178 -1.0116918 0.09098284
0000b0 ec 06 ed be 36 c6 0e 3f 05 73 b7 be bd c7 47 be
       -0.46294343 0.55771196 -0.3582994 -0.19509788
0000c0 f4 32 04 3f ff 76 04 3f 24 55 5b 3f 85 95 f8 3e
       0.5164025 0.51744074 0.8567679 0.48551574
0000d0 54 8c 10 bf 8a b5 05 bf 27 00 15 c0 0c 46 b9 3d
       -0.56464124 -0.5223013 -2.3281343 0.090465635
0000e0 d6 19 8b bf 86 59 0a bf 4f 72 30 3e b0 2a 8c be
       -1.086726 -0.5404285 0.17231105 -0.27376318
0000f0 3a 8c 71 3c bb c0 87 be 40 18 26 bd 2f 78 f4 bf
       0.014742905 -0.2651423 -0.04055047 -1.9099177
000100 66 fb a4 be 75 95 d2 3f 3f 30 99 be 8e c8 47 bf
       -0.32223052 1.6451861 -0.2991962 -0.780404
000110 3d 88 4c 3f 15 fb 9d 3e 25 da 12 bd 26 fe c5 be
       0.79895383 0.30855623 -0.03585257 -0.38670462
000120 1e 3b b5 be 70 12 fd 3c 79 ac e5 3b c4 6e 2a 3f
       -0.35396665 0.03089258 0.0070090857 0.66575265
000130 2e 49 ed be 86 db 86 be 2a 3f 14 3e 40 a3 19 3f
       -0.46344894 -0.26339358 0.1447722 0.60014725
000140 cc 7f 5b bf 47 8d 3a bf ed 0e 6e be 4a 31 91 bf
       -0.8574188 -0.7287182 -0.23247881 -1.1343167
000150 67 73 83 be f2 0b 48 3f 08 94 6a bf 62 4f 1d bf
       -0.25673983 0.7814323 -0.9163213 -0.61449254
000160 98 75 69 3f 08 63 6e 3f 10 c0 21 bf d0 7d c9 be
       0.9119506 0.9311986 -0.6318369 -0.393538
000170 1d 2d 0e 3f 4f 74 f1 3e e6 f0 75 3e 91 f2 ba 3d
       0.5553759 0.4715905 0.24017677 0.09128297
000180 23 0a 42 be 39 c8 03 3f e7 0d 07 bf 37 b6 31 3f
       -0.1894918 0.5147739 -0.5275559 0.6941866
000190 5f de 93 3e 57 74 03 bf 15 af 45 3f 5a c6 b9 3e
       0.28880593 -0.51349396 0.7722028 0.36284143
0001a0 dd f6 80 3e 09 a7 3c 3f 96 7d 89 be 79 a8 41 bf
       0.25188342 0.73692375 -0.26853627 -0.75647694
0001b0 74 fc 59 3f db 16 78 3e e0 db f6 bd 84 f1 b4 3e
       0.8515084 0.24227469 -0.120536566 0.35340512
0001c0 96 59 2d 3f 5d d4 84 bf cd 4b 71 bf 4d 5b de be
       0.6771482 -1.0377308 -0.9425629 -0.43429032
0001d0 d4 cf 51 be ab 38 97 be 4a fa 28 bf 3f e5 a8 3f
       -0.20489436 -0.29535422 -0.6600691 1.319496
0001e0 11 bf fb be 32 21 bc 3f 68 f9 04 be 61 7d 14 be
       -0.4916921 1.469763 -0.12985766 -0.14500953
0001f0 b8 26 80 be 93 6d 7e 3e 18 7a f4 3e 74 8a 81 bf
       -0.2502954 0.24846487 0.477494 -1.0120378
000200 d3 55 87 3e 00 6c e0 bd 09 51 2c be b2 64 b1 3e
       0.26432666 -0.10958099 -0.16827787 0.34647137
000210 c0 5c 97 3d 4b 86 a9 bf 47 0d 73 bf 80 13 42 bf
       0.073907375 -1.3244108 -0.94942135 -0.75811005
000220 8a df c3 3f bd f1 e0 3e f2 6a 63 bf 73 cf 01 bf
       1.5302594 0.43934432 -0.8883506 -0.5070717
000230 fe cb 43 bd a0 1b 87 bd e4 8f 8d bf 91 2b 5f be
       -0.047801964 -0.06597066 -1.1059537 -0.21793963
000240 49 de 64 3e ef 64 8d bd ea 9a b9 bf de 61 0a be
       0.2235042 -0.06904017 -1.4500401 -0.13513896
000250 18 c0 ae 3d 23 f2 46 3f 4a 40 33 3f aa 7f 1c 3e
       0.08532733 0.7771322 0.7001997 0.15283075
000260 49 1e 42 3f 9b 64 fe be c4 64 df 3d 55 d1 d3 3c
       0.7582746 -0.4968613 0.109078914 0.025856653
000270 95 79 55 3e 42 ba 11 3f 79 8c fb 3e bc b9 25 bf
       0.20847161 0.5692483 0.4913061 -0.64736533
000280 60 9b 19 be 03 0c 24 3e 44 d9 72 3e d7 8c 39 bf
       -0.15000677 0.16020207 0.23715693 -0.7248053
000290 4a 4c 35 3f 0f 0d fd 3e 89 35 21 3e 46 34 52 bf
       0.7081953 0.49424025 0.15743078 -0.8211101
0002a0 86 d8 33 be cf f8 2f 3e e1 66 2a 3e 7d 3e 3d 3e
       -0.17563066 0.17184757 0.16640808 0.18480869
0002b0 1f 48 00 be 28 74 10 3e 8a 10 6a bf f5 07 50 be
       -0.12527512 0.1410681 -0.91431487 -0.20315535
0002c0 0b 16 51 3f 57 35 da 3f 0d 5f 1f bf 13 dc 5e be
       0.8167426 1.7047528 -0.6225441 -0.21763639
0002d0 08 af cb be 51 37 65 3e 58 78 a3 be 35 8c 18 bf
       -0.39781976 0.22384383 -0.31927752 -0.5958894
0002e0 e2 50 4f bf dc 83 ae be 26 48 c9 3d 5a 38 07 3f
       -0.8098279 -0.34084976 0.09828214 0.5282036
0002f0 ed a4 79 3f 9c 52 17 3e 8b fd 77 3e fa 59 ca 3d
       0.9751728 0.14777607 0.24217813 0.09880443
000300 f0 0b af bd 3a 3b cc 3d 97 8d 19 3f 44 4a 9b 3e
       -0.08547199 0.09972234 0.59981674 0.30330098
000310 d0 ca 33 bf 0c 49 ce bd 60 a3 5b bf eb 52 1c bb
       -0.7023134 -0.10072526 -0.85796165 -0.0023853134
000320 60 c7 05 bf 6d a5 6f 3e 88 86 1a 3f 26 1d 74 3c
       -0.5225735 0.23402949 0.6036153 0.014899528
000330 ce 30 0d be a1 cd a5 be 88 4a 44 3f 7f 6d 64 3f
       -0.13788149 -0.32383445 0.76676226 0.8922958
000340 6c 33 4d 3e ed 27 44 bc 5b 31 3b 3f 37 b1 3a bf
       0.20039147 -0.01197241 0.73122185 -0.7292666
000350 82 9d 71 bf 02 04 df bd 32 cd 40 3f dd 07 2e 3f
       -0.9438096 -0.10889436 0.75313103 0.6798075
000360 73 33 d3 3e cf 6c da 3e b2 18 5a bf 3f a5 6a be
       0.4125019 0.4266114 -0.8519393 -0.22914599
000370 3c b0 6e be 15 55 a9 be 49 5b 31 bf c2 9a 54 3f
       -0.23309416 -0.33072725 -0.69279915 0.8304864
000380 97 1d 85 bf 20 04 d6 be 7b e7 8b 3f 24 3c 84 3f
       -1.0399655 -0.41800022 1.0930017 1.0330853
000390 bd 47 07 be 27 a8 91 3e 57 1c 81 c0 50 5a 76 3e
       -0.1321096 0.28448603 -4.0347095 0.24057889
0003a0 8f f9 1a 3f 41 ef 1e c0 99 73 52 bf 7e fb 19 3e
       0.60537046 -2.483353 -0.8220764 0.15037343
0003b0 66 4b f8 3e 3d ea e8 be e0 e0 6e be 72 0e b1 be
       0.48495024 -0.4549121 -0.2332797 -0.34581333
0003c0 ab bf f8 3e 4d c7 f0 bd a3 b8 02 3f ae c7 f1 3f
       0.4858373 -0.117567636 0.51062983 1.8889062
0003d0 cc d9 fd 3e 0f 61 fb bd b6 90 c2 bf e9 46 18 bf
       0.49580228 -0.12274372 -1.5200412 -0.594832
0003e0 2f 60 5d 3e 6b 0b 7d bf bd 5b 95 be f4 58 b8 bf
       0.21618722 -0.9884555 -0.29171553 -1.4402146
0003f0 af 74 85 3d a7 c5 ca 3e 25 b8 eb 3e 20 f9 19 3f
       0.06516396 0.39603922 0.4603893 0.6014576

network.fc2.bias f4 [50]
000000 c8 b3 56 bb b0 a8 2b 3f a5 3f 11 3f 8d 75 ac 3e
       -0.0032760967 0.6705427 0.5673774 0.33683434
000010 60 47 dc 3e b6 02 04 be a4 e6 7b 3f 61 a7 2b 3f
       0.43023205 -0.12891659 0.98398805 0.67052275
000020 d0 89 98 3e 30 e3 e4 bd fd 62 28 be f8 b5 be bf
       0.29792643 -0.11176145 -0.16444011 -1.4899282
000030 48 8b e4 3c e6 1d 83 be ad 0a e8 3e fd 97 bc 3d
       0.027898446 -0.25608748 0.45320645 0.09208677
000040 c6 26 89 bd ea f8 fc bc 46 a6 37 3f 24 67 6a 3e
       -0.066968486 -0.03088041 0.7173809 0.22890908
000050 09 f2 24 3f 45 61 16 3f b9 a2 11 3f ec 20 95 be
       0.64431816 0.5874217 0.5688892 -0.2912668
000060 7f 06 a7 3d 5b 75 83 3f fb 7c 45 3f 84 d7 b2 bd
       0.08155536 1.0270189 0.7714383 -0.087325126
000070 24 a5 18 be 5b e4 51 3f a1 b2 e8 be 56 70 2f 3f
       -0.14906746 0.8198907 -0.45448783 0.68530786
000080 35 ad 81 3e b3 95 f5 3e 69 2a 96 3f 50 16 2c 3f
       0.2532746 0.47965774 1.1731693 0.67221546
000090 9b 2c f7 3e fd 09 b8 be 4d f7 c7 3d 3b c7 a8 3e
       0.4827622 -0.3594512 0.09763966 0.329645
0000a0 4a 9a 84 3e 06 79 00 bf 2e 40 45 3f 4f 11 b9 3d
       0.25898963 -0.5018467 0.77051055 0.090365045
0000b0 c9 1d 3a be e8 b1 b5 3e ab 18 31 3e 4f 85 59 3e
       -0.18175425 0.35487294 0.17294566 0.2124226
0000c0 2a 13 0c 3e e2 03 cd be
       0.13679186 -0.40042025

network.fc3.weight f4 [250, 50]
000000 e3 24 23 3d 7e a1 88 bd 30 89 4d bd 9c a5 41 bd
       0.0398301 -0.06671427 -0.05017966 -0.047277078
000010 e8 24 72 bd 8d 43 8a bd 53 0c c6 3c e6 5d 01 bb
       -0.059117228 -0.067511655 0.024175799 -0.0019739806
000020 da 1a 0e bd 05 2e 0c be d2 15 28 be 2b a8 15 3e
       -0.034693576 -0.1368943 -0.16414574 0.14614932
000030 b8 96 72 3d b2 c5 aa 3d ac 2b b3 3e 50 be d0 bd
       0.059225768 0.08338489 0.34994256 -0.10192549
000040 85 ae b2 3d 80 1e ba bb d3 ef 08 3c 5d 1a e7 bd
       0.08724693 -0.0056799054 0.00835796 -0.11284325
000050 d2 b1 9c bc d5 43 9f bd d3 20 9f 3d 7c 51 19 3e
       -0.01912776 -0.0777661 0.077699326 0.1497249
000060 ad 1c 81 3d 8b 8f c6 3d 7c 53 6c 3d 6a a1 13 bd
       0.063042976 0.096953474 0.057696804 -0.03604261
000070 f3 e8 75 3d c5 52 a0 bd e2 09 ee 3d 74 37 10 be
       0.06003661 -0.07828287 0.11622979 -0.14083654
000080 3b cf b3 3d 15 9b 04 3e 0b 9e fe 3d 1f 01 c6 3d
       0.087797605 0.12949784 0.12432488 0.096681826
000090 47 36 6e be cb 18 4d 3e 97 82 42 be c3 00 17 be
       -0.23262893 0.20028989 -0.18995129 -0.14746384
0000a0 34 ac ea bd cc 8b 4e bd 86 ab 93 bd ab 3b af bd
       -0.114586264 -0.05042629 -0.0721045 -0.08556303
0000b0 57 55 5e 3d 5d 0d 36 3d d9 7e f7 bd 1c 68 97 3d
       0.054280605 0.044446338 -0.12084741 0.07392904
0000c0 9b 0e 51 bd 48 a5 03 3d f1 22 16 3d 70 52 04 bd
       -0.05103932 0.032140046 0.036654416 -0.03230518
0000d0 56 2b d1 bc c2 a1 57 bd 11 69 54 bd 88 4f 48 bd
       -0.02553336 -0.0526445 -0.05185801 -0.048903972
0000e0 6b 46 ba 3a 89 29 f9 3b d2 5d ed bc 98 d4 ac bd
       0.001421166 0.0076038283 -0.028975401 -0.084389865
0000f0 2b bf 14 be ec 0d 1e 3e c9 c8 13 3d b1 46 8f 3d
       -0.1452605 0.15434998 0.036080156 0.06995905
000100 38 16 d4 3e f4 e5 b7 bd af da a5 3d 12 24 6c 3c
       0.41423202 -0.08979407 0.08098351 0.014412897
000110 8c 0f 1f bc f1 86 72 bd 34 d8 e6 bc ca 99 4a bd
       -0.0097082965 -0.05921072 -0.028179266 -0.04946307
000120 8b 77 67 3d 41 4f 12 3e c7 23 5d bc c4 f2 92 3d
       0.05651049 0.14288045 -0.0134972995 0.0717521
000130 2e 28 77 3d f5 48 a4 bc a1 e6 43 be c4 69 26 bd
       0.060341053 -0.02005432 -0.19130947 -0.04062821
000140 49 08 cd 3d 20 17 04 be c7 93 9e 3d 57 ea 9b 3d
       0.10011346 -0.12899446 0.0774303 0.07613056
000150 40 a3 0e 3e 53 08 47 3d 21 4d 7b be b0 2f 79 3e
       0.13929462 0.048591923 -0.24541141 0.24334598
000160 44 00 7e be 02 d3 32 be 3e 6c bc bd 38 56 05 bd
       -0.24804789 -0.17463306 -0.09200333 -0.032552928
000170 de 9f 4c bd d8 1a 7f bd 64 51 30 3d 34 d1 0c 3c
       -0.04995715 -0.06228146 0.04304637 0.0085948
000180 c2 7f d3 bd 60 5b 66 3d 53 4c 02 bd c4 4d 8f 3c
       -0.10327102 0.056239486 -0.03181107 0.017493136
000190 21 c2 06 3d ba cd 09 bd 1a a7 51 bc 64 24 55 bd
       0.03289998 -0.03364346 -0.012796188 -0.052036658
0001a0 7a 52 39 bd ce 24 69 bd ac b4 66 b8 9b a9 34 bc
       -0.04524467 -0.056919865 -5.5004537e-05 -0.011026765
0001b0 5d d8 18 bd ff f4 79 bd 4b e6 0e be 0b fe 15 3e
       -0.037315715 -0.061024662 -0.13955037 0.14647691
0001c0 dd 37 d2 3c 8b b6 79 3d 9e df d3 3e 9b f1 aa bd
       0.025661403 0.060965102 0.41381544 -0.08346864
0001d0 a5 96 a4 3d 0d 43 d6 3c 4c 46 63 bc dc 97 71 bd
       0.08036546 0.02615502 -0.013871741 -0.058982715
0001e0 e3 18 06 bd ef 1e 4e bd 67 9d 61 3d 45 46 13 3e
       -0.032738578 -0.05032247 0.05508175 0.14382274
0001f0 1b be 0c be 51 a5 a3 3d 78 64 15 3d 95 1c a3 bc
       -0.13744394 0.07990516 0.036472768 -0.01991109
000200 df b1 06 be 4c 65 bf bc fb 14 b0 3d 91 54 f1 bd
       -0.1315379 -0.023363732 0.08597752 -0.11783708
000210 f5 aa b4 3d 9c ee 88 3d 76 d2 1b 3e 54 61 46 3d
       0.0882167 0.06686136 0.15217003 0.048432663
000220 7e ec 79 be a9 1d 80 3e 46 1d 90 be 19 14 31 be
       -0.24406621 0.2502263 -0.28147334 -0.17292823
000230 04 f0 b5 bd b9 67 0c bd ea 2d 1a bd 2d c1 60 bd
       -0.0888367 -0.034278605 -0.037641443 -0.054871727
000240 65 e2 17 3d c1 d7 44 bb e5 af b6 bd 55 cb 62 3d
       0.03708114 -0.0030035826 -0.08920268 0.055369694
000250 be 46 ab bc 87 b0 c5 3c c0 13 ca 3c 79 ca 22 bd
       -0.020907756 0.024132026 0.02466762 -0.039743874
000260 54 6c 24 bc d5 54 5f bd 52 38 17 bd e5 44 75 bd
       -0.010035593 -0.05452426 -0.036918946 -0.059880156
000270 73 f5 b6 bb 07 7a d7 bc 13 27 07 bd 4e 61 74 bd
       -0.005583459 -0.026303304 -0.03299625 -0.05966311
000280 b0 45 09 be 8d e0 0e 3e 23 7c fb 3c 88 46 55 3d
       -0.1340549 0.13952847 0.030698841 0.052069217
000290 4a fb d4 3e 5e ba a0 bd d6 46 91 3d 50 b5 03 3d
       0.41597968 -0.07848047 0.07093589 0.032155335
0002a0 95 e2 ea bc 71 a8 74 bd 1b 10 00 bd 1b b2 5c bd
       -0.028672496 -0.05973095 -0.03126536 -0.053880792
0002b0 7f 1f 5a 3d 35 53 16 3e 27 84 f7 bd d2 11 9a 3d
       0.053252693 0.14680178 -0.12085753 0.0752293
0002c0 02 ad 3e 3d 44 37 66 bc 1d 9a 13 be d6 ed 74 bc
       0.04655171 -0.014051262 -0.14414258 -0.014949283
0002d0 0b eb 98 3d 5a 45 fa bd 45 eb d1 3d 5d b6 87 3d
       0.07466706 -0.12220259 0.10249952 0.0662658
0002e0 54 ef 2d 3e ae 7b 39 3d 09 fd 82 be ec 3c 73 3e
       0.16985828 0.045283966 -0.25583676 0.23753709
0002f0 5f b0 99 be 7b 7e 3e be 7d 14 99 bd 47 65 02 bd
       -0.30017373 -0.18602936 -0.07474611 -0.031834867
000300 69 8d b0 bc 77 07 52 bd 5c 47 0a 3d f9 2f 26 bc
       -0.021551805 -0.05127665 0.03375946 -0.0101432735
000310 9b bb 9a bd 32 72 3a 3d 4c c1 ef bb 70 77 ad 3c
       -0.07555314 0.04551906 -0.007316744 0.021175116
000320 6a 8f 96 3c de 15 1b bd 08 11 cf bb 87 6e 5e bd
       0.018378932 -0.03786265 -0.006319169 -0.054304626
000330 ff 79 e1 bc da f3 5f bd c2 b6 35 bc 05 b0 0d bd
       -0.027523993 -0.054675914 -0.011090936 -0.034591693
000340 c3 5c da bc e7 7d 8b bd c1 d5 05 be 5b d7 0f 3e
       -0.02665556 -0.06811123 -0.13069822 0.14046995
000350 7c 74 0a 3d 36 68 36 3d f6 35 d8 3e 9d 44 9f bd
       0.033802494 0.044532977 0.4222867 -0.07776759
000360 fa 9f 8f 3d 4c fb 0b 3d a8 ed 2f bd 61 37 6e bd
       0.07012935 0.034175202 -0.042951256 -0.058158282
000370 43 ec b8 bc 68 07 49 bd 62 d3 46 3d 90 88 1c 3e
       -0.022573596 -0.04907933 0.048541434 0.1528647
000380 0c 7e 0c be 07 2f 83 3d b9 27 82 3d 1c 61 97 bb
       -0.13719958 0.06405454 0.06355233 -0.0046197306
000390 5d 6b c5 bd 2b 1a 8b bc 42 3f 95 3d 44 92 ff bd
       -0.096396185 -0.016980251 0.07287456 -0.1247907
0003a0 1d 64 db 3d 58 4d 7c 3d c3 91 43 3e 71 cf 2b 3d
       0.107124545 0.0615972 0.19098572 0.04194588
0003b0 75 d9 89 be 01 f2 6f 3e bd c9 9e be f9 f7 42 be
       -0.2692372 0.23432161 -0.3101329 -0.19039907
0003c0 a5 7a 87 bd 9e 99 fa bc 19 7c 19 bc 84 27 31 bd
       -0.066151895 -0.030590829 -0.009367966 -0.043250576
0003d0 fe 32 fd 3c d3 2f 2e bc 35 13 83 bd 78 ef 1c 3d
       0.030908104 -0.010631519 -0.06400148 0.038314313
0003e0 e4 e5 db ba 2c bc 75 3c 15 92 80 3c 04 9f 0a bd
       -0.0016776887 0.014998477 0.015694657 -0.033843055
0003f0 23 f9 00 bc 2f 80 6e bd 43 14 e7 bc c1 c5 66 bd
       -0.007871899 -0.058227714 -0.028207904 -0.056340937

network.fc3.bias f4 [250]
000000 f4 68 6f be 1e 08 73 be f5 6f 6e be 2f 65 77 be
       -0.2337988 -0.23733565 -0.23284896 -0.24159692
000010 eb 39 85 be 95 b0 86 be b9 e4 88 be 71 e5 91 be
       -0.2602075 -0.26306596 -0.26737002 -0.28495362
000020 3f e6 97 be eb dc 96 be f4 4b 97 be 36 79 9b be
       -0.2966785 -0.29465422 -0.29550135 -0.30365914
000030 98 ef 9b be 1b c7 9b be 7e cf 9f be be a2 9e be
       -0.30456233 -0.30425343 -0.3121299 -0.30983537
000040 41 f9 97 be 30 87 97 be 38 71 98 be 6d 66 94 be
       -0.29682353 -0.29595327 -0.2977388 -0.28984395
000050 b2 a3 8e be c8 27 8d be 55 f8 89 be da e5 85 be
       -0.27859265 -0.27569413 -0.26947275 -0.26151925
000060 b7 e6 81 be e1 14 7f be 81 7f 7e be 37 c1 78 be
       -0.25371334 -0.24910308 -0.24853326 -0.24292456
000070 65 06 73 be 3b 07 6f be 6e 11 6d be 18 81 6c be
       -0.23732908 -0.23342602 -0.2315118 -0.2309612
000080 cb 8b 66 be 38 2c 5f be a0 02 5c be 74 dd 55 be
       -0.22514264 -0.21794212 -0.21485376 -0.20885259
000090 0b 34 50 be a3 1a 50 be 65 ed 4e be f9 5a 49 be
       -0.20332353 -0.20322661 -0.20207746 -0.1966361
0000a0 43 f4 44 be b2 59 3d be 6c b8 3a be b4 5e 37 be
       -0.19233803 -0.18491247 -0.18234414 -0.1790722
0000b0 f6 1f 39 be c4 63 31 be 0c 9c 35 be f9 64 31 be
       -0.18078598 -0.17323214 -0.17735308 -0.17323674
0000c0 c3 c3 2d be 21 75 2a be 49 33 1e be a1 a0 18 be
       -0.16969208 -0.16646244 -0.15449251 -0.14905025
0000d0 3e b9 17 be 32 d2 1e be 37 9d 17 be 17 bc 11 be
       -0.14816758 -0.1550987 -0.14806066 -0.14231907
0000e0 68 a0 06 be fe 43 12 be 6c e3 06 be 68 f1 09 be
       -0.13147128 -0.1428375 -0.13172692 -0.13470995
0000f0 97 e8 ed bd a3 8b ee bd d6 84 e6 bd ad a2 ea bd
       -0.116166286 -0.11647727 -0.11255805 -0.11456809
000100 c0 c4 e5 bd e6 0b d9 bd 57 a9 d5 bd 4d 3f c8 bd
       -0.11219168 -0.105979726 -0.1043269 -0.09777699
000110 e9 4d d4 bd cb 6d d3 bd af 94 bf bd 03 77 bc bd
       -0.10366423 -0.10323676 -0.09354531 -0.09202387
000120 84 36 d8 bd 71 fc c5 bd 63 1c b1 bd 48 cd b9 bd
       -0.10557273 -0.0966729 -0.086479925 -0.090723574
000130 0e 4b aa bd 91 f7 ac bd 09 45 9c bd 2c 88 a1 bd
       -0.08315097 -0.08445657 -0.07630355 -0.07887301
000140 ce 42 a3 bd cf ee a8 bd c2 1f b2 bd e9 02 9c bd
       -0.07971726 -0.08248674 -0.086974636 -0.076177426
000150 17 27 9d bd 4d 4c 96 bd 15 ab 9f bd f7 f5 82 bd
       -0.076734714 -0.07338772 -0.07796303 -0.0639457
000160 db 44 8c bd 11 3b 93 bd 74 07 92 bd 84 18 90 bd
       -0.06849071 -0.071890004 -0.07130328 -0.07035926
000170 e2 e8 82 bd f7 31 84 bd 32 fa 63 bd ee c3 6c bd
       -0.06392075 -0.064548425 -0.055658527 -0.05780404
000180 1e 13 45 bd ad 0c 58 bd 08 1c 58 bd 8b 0d 55 bd
       -0.048113935 -0.052746464 -0.052761108 -0.05201487
000190 6e 3a 4e bd 0c 84 2a bd 47 de 52 bd d4 03 48 bd
       -0.05034869 -0.041629836 -0.05148151 -0.048831776
0001a0 c1 02 5b bd 44 7a 29 bd 1e e1 5b bd 92 39 12 bd
       -0.053469423 -0.041376367 -0.053681485 -0.035699435
0001b0 0c f1 2c bd a3 1f 7d bd 6b 0f 22 bd 7b 01 35 bd
       -0.042222068 -0.06179775 -0.039565485 -0.044190865
0001c0 78 6c 47 bd 1a 7a 25 bd 43 cf 2b bd 74 e5 25 bd
       -0.04868743 -0.04039965 -0.041945707 -0.040502027
0001d0 85 7e 23 bd b7 b3 4c bd 37 b7 42 bd 64 2b 12 bd
       -0.03991558 -0.049976077 -0.04753801 -0.03568591
0001e0 c9 27 2f bd fe e3 3f bd b5 93 2a bd 26 c4 1e bd
       -0.04276255 -0.04684829 -0.04164477 -0.03876128
0001f0 8d 15 79 bd b5 05 2e bd 67 0f 36 bd aa c1 32 bd
       -0.060811568 -0.04248591 -0.044448283 -0.043641724
000200 f8 8d 32 bd 17 14 42 bd 5b 26 7c bd b9 9f 08 bd
       -0.043592423 -0.04738244 -0.061560016 -0.03335545
000210 86 cf 36 bd af 6c 74 bd 2d de 3d bd 4f 5a 32 bd
       -0.044631504 -0.05967396 -0.04635446 -0.043543156
000220 5f af 19 bd 23 70 3d bd 02 d8 14 bd b2 c6 08 bd
       -0.037520763 -0.04624952 -0.036338814 -0.033392616
000230 67 94 5a bd 41 e2 2b bd 62 f8 38 bd a3 6b 5c bd
       -0.053364184 -0.04196382 -0.04515875 -0.053813588
000240 27 73 68 bd 3f c0 3e bd 10 e8 2f bd 89 9a 3a bd
       -0.056750443 -0.04657006 -0.04294592 -0.045557532
000250 b1 5f 5e bd 83 22 6d bd 04 ed 3e bd 29 47 6d bd
       -0.054290477 -0.05789424 -0.046612754 -0.05792919
000260 ec 9f 71 bd 32 30 a2 bd 29 f3 40 bd 4e ff 76 bd
       -0.058990404 -0.07919349 -0.047106896 -0.06030207
000270 9e 5f 6c bd b4 12 40 bd 28 c7 7e bd ff 5b 67 bd
       -0.057708375 -0.046892837 -0.06220165 -0.05648422
000280 a0 31 40 bd 14 84 42 bd 1a 5d 73 bd 53 cf 94 bd
       -0.046922326 -0.04748924 -0.05941496 -0.072661065
000290 68 e4 98 bd 49 58 31 bd 9f e5 98 bd 49 d9 77 bd
       -0.0746544 -0.043297086 -0.07465672 -0.060509954
0002a0 f7 7c 80 bd 8b f0 90 bd 9f 1f 84 bd 28 96 8f bd
       -0.06273835 -0.0707713 -0.06451344 -0.07011062
0002b0 66 ce 83 bd 20 bd 8b bd b5 04 88 bd 94 5a 4d bd
       -0.06435852 -0.06823182 -0.06641523 -0.05013521
0002c0 4d 6b 59 bd 8f 71 af bd 8a 50 72 bd 27 be 8d bd
       -0.053080846 -0.085665815 -0.05915884 -0.06921034
0002d0 9d 0b 99 bd 74 5e 9d bd 1d 43 79 bd ef f3 bf bd
       -0.07472918 -0.07684031 -0.06085502 -0.093726985
0002e0 bb b1 9c bd e7 e1 96 bd 89 c1 87 bd a0 20 99 bd
       -0.07651087 -0.07367306 -0.06628711 -0.07476926
0002f0 06 b7 7c bd 5e 84 96 bd 64 d7 9e bd 4e 1b a7 bd
       -0.061697982 -0.07349466 -0.07755926 -0.08159505
000300 d4 b5 b2 bd b9 36 77 bd 48 a0 a7 bd 0f 50 8b bd
       -0.08726087 -0.060354922 -0.08184868 -0.06802379
000310 0c 04 91 bd f6 fb 8f bd 9b f0 d9 bd 5d 19 9c bd
       -0.0708085 -0.070304796 -0.10641595 -0.07622025
000320 27 4a a0 bd 2a 1a da bd 08 04 cf bd 76 3e 65 bd
       -0.078266434 -0.10649522 -0.10108191 -0.05596777
000330 a6 60 aa bd a2 45 98 bd 99 99 90 bd 57 1b 9a bd
       -0.083192155 -0.074351564 -0.070605464 -0.07524746
000340 e6 36 b6 bd cf 18 b4 bd 85 23 ca bd a8 bf 85 bd
       -0.0889719 -0.08793794 -0.09870056 -0.06530696
000350 af 4a a7 bd fb d8 ae bd a8 ba a8 bd 8b a8 c4 bd
       -0.08168542 -0.085374795 -0.08238727 -0.096024595
000360 2c 16 a7 bd fd 15 ca bd 44 8a 9f bd cb 51 a5 bd
       -0.08158526 -0.09867475 -0.07790044 -0.080722414
000370 38 e4 a4 bd 3f 62 b4 bd 7c e8 b8 bd a5 9b 9f bd
       -0.08051342 -0.088078015 -0.09028718 -0.07793359
000380 f0 38 ad bd a4 3e af bd 99 a8 bb bd ba 6e d2 bd
       -0.084581256 -0.085568696 -0.09163017 -0.10275026
000390 3e 27 b8 bd 56 16 a1 bd 8b a1 bc bd 36 51 c8 bd
       -0.0899186 -0.07865588 -0.092104994 -0.09781115
0003a0 a6 a7 f8 bd b8 fa cd bd 5e 28 b5 bd 65 02 cc bd
       -0.121413514 -0.100575864 -0.0884559 -0.09961394
0003b0 94 76 ba bd 43 14 dc bd d1 35 da bd 04 b8 b4 bd
       -0.09104648 -0.10746052 -0.10654796 -0.08824161
0003c0 a1 88 b7 bd 46 76 dd bd 0c ed f4 bd bd 16 ec bd
       -0.08961607 -0.108135745 -0.119592756 -0.115277745
0003d0 cb b2 e9 bd 26 f7 d6 bd 22 ff dd bd ba 88 e1 bd
       -0.11411055 -0.104963586 -0.10839678 -0.11012407
0003e0 43 0a da bd c6 3b f4 bd
       -0.106464885 -0.119254634
