Week8/BNNresult/BNNModel_Response_Spectra.pth (torch, 49952 bytes, 4 tensors)

network.fc1.weight f4 [100, 6]
000000 a1 3f 4a bf 15 a9 83 3e b1 dc b7 bc 65 bc a9 bd
       -0.7900334 0.25714937 -0.022444101 -0.082878865
000010 00 64 b4 3e 38 e8 8c 3d 70 76 f8 3e 87 ef 85 3c
       0.35232544 0.0688023 0.4852786 0.016349567
000020 a5 31 db 3d c3 70 45 3e ba b0 d0 be 05 4f 77 3e
       0.10702828 0.19281296 -0.40759832 0.24151237
000030 cb de 16 bf 53 c9 98 3e c0 67 be 3d 66 a7 c6 be
       -0.58933705 0.29841098 0.092971325 -0.3879959
000040 01 d7 22 bf ff fe 98 3e 21 03 5e 3f e0 cd 73 3d
       -0.6360932 0.29882047 0.86723524 0.05952251
000050 b6 4c 1d bc 8d e3 8f ba 78 bf 8e bc 37 7f c8 bc
       -0.009600809 -0.001097785 -0.017425284 -0.024474723
000060 14 f1 c6 3d cd 41 ce be 64 b9 f0 be af 44 54 be
       0.09713951 -0.40284577 -0.47016442 -0.20729326
000070 75 5f 52 3e b6 74 26 be 80 f4 75 bf 04 ca fe 3e
       0.20544226 -0.16255459 -0.960762 0.497635
000080 19 e6 07 bd a0 81 aa 3b 32 10 3c 3d ff 1f 55 bc
       -0.033178423 0.005203441 0.045913883 -0.013008117
000090 14 da 3e 3f 9d fd 59 3d c1 39 be 3e 98 49 d5 3d
       0.7455151 0.05322038 0.37153438 0.104144275
0000a0 c1 40 90 bc 4d 62 d4 bd 06 92 f8 be 57 08 d0 bd
       -0.017609002 -0.10370312 -0.48548907 -0.10157841
0000b0 b1 f9 7b bd 98 f0 39 be a9 d4 81 be 02 77 04 3e
       -0.06151742 -0.18158185 -0.2535756 0.12936023
0000c0 8e 0a 3b 3e 9d db 07 3f a8 a4 0e bf fd 48 26 bd
       0.18265745 0.5306948 -0.55719995 -0.04059695
0000d0 f9 cf c9 3d d7 10 90 3e 51 cc 02 3e 8f 64 40 3e
       0.09854121 0.28137848 0.12773253 0.1878836
0000e0 81 31 f6 3e 43 e8 3d 3e 8f 41 b1 be 89 6c 00 bf
       0.48084643 0.18545632 -0.3462033 -0.5016561
0000f0 f8 9a 6b 3d fa a4 27 bd 87 72 85 bd 67 16 d9 3d
       0.057520837 -0.04092882 -0.06515985 0.10599976
000100 a5 0d 55 3b 47 50 45 bd 5e 04 8f be e4 e6 b0 bc
       0.0032509353 -0.04817226 -0.2793302 -0.021594472
000110 c2 c9 82 bf 56 36 56 3e 4d d8 bf 3e e3 84 a2 be
       -1.0217822 0.20919165 0.37469712 -0.3174201
000120 e6 41 69 bf ba 8a 41 bf b4 d1 8d 3d 8e 7d 0a bc
       -0.9111618 -0.75602305 0.06924763 -0.008452786
000130 43 d6 25 bd 83 87 55 bb 26 d7 27 3f 9e 35 d4 be
       -0.04048754 -0.0032581992 0.65562665 -0.41447157
000140 f1 da 6c be ca 70 18 3e 91 8c 37 be 86 9c 93 3e
       -0.23130395 0.14886776 -0.17924716 0.28830355
000150 a4 9a 0e bf 25 44 dc bd 8e 9d 71 3e 6a 8b b7 be
       -0.5570471 -0.10755185 0.23595259 -0.35848552
000160 8c 77 33 be fa d4 07 3e 9f 87 19 bd af af 54 bf
       -0.17526072 0.13264838 -0.037482854 -0.8308057
000170 95 d8 9c 39 04 ca 36 bd 31 4d 3e bd 4d 57 80 3d
       0.00029916005 -0.04462625 -0.046460334 0.06266651
000180 82 62 90 bc b1 2c 25 3e 0b 55 24 be 8a fd 14 be
       -0.017625097 0.1613033 -0.16048066 -0.14549842
000190 d0 2d 76 3a a4 40 01 3f 3b a4 bd 3e 10 ef aa 3d
       0.0009390982 0.5048926 0.3703936 0.08346379
0001a0 4a 47 e6 3d 54 32 aa 3e de 4c 72 3e 42 ce 84 be
       0.11244066 0.33241522 0.23662135 -0.25938612
0001b0 d0 f9 34 bf 7a de e2 3e f7 15 1c bd 11 76 a5 be
       -0.70693684 0.4431036 -0.038106885 -0.3231664
0001c0 8e 96 e7 bd 6b 1f df 3e 82 8b 40 bc 71 4b 1a bc
       -0.11308013 0.43578658 -0.011752011 -0.009417401
0001d0 a6 25 ec 3a 10 7b 0b bd 51 bc 0b b8 47 81 d1 3c
       0.0018016591 -0.03405291 -3.3315566e-05 0.02557434
0001e0 03 70 64 bf fa 23 24 bc 34 ee 4d 3e 61 11 28 bd
       -0.89233416 -0.010018343 0.20110399 -0.0410322
0001f0 f2 fb 41 be 04 f7 85 3d 63 1e 15 3c fe ea f9 ba
       -0.18943766 0.06541255 0.009101483 -0.0019067226
000200 d5 ff 5f bd 6f 7c 30 be 21 6c 38 3d 00 34 32 3e
       -0.05468734 -0.17234968 0.045024995 0.17402649
000210 cb e0 b2 bf 9f 4d 1a bb cf b0 cd bc 2a c6 b7 3c
       -1.3974851 -0.00235448 -0.025108723 0.02243336
000220 1f 18 f6 bd 3f 03 16 bd 84 5b 8e be 14 8d fb bd
       -0.120163195 -0.03662419 -0.27804196 -0.12282768
000230 b3 d9 9b bd 17 4c 3d be d3 34 24 3e 07 39 4a 3e
       -0.07609882 -0.18486057 0.16035776 0.19748317
000240 8a 9a 52 bf fb c5 a0 3c 42 f3 8b bd 8e 0d 64 3d
       -0.8226706 0.019625654 -0.06833507 0.05567699
000250 c1 d5 fc 3d 94 cd 50 bd 46 d0 bc be 19 e1 8d 3e
       0.12345458 -0.050977305 -0.3687765 0.27710798
000260 d7 e9 c9 be b4 e5 11 3e 3a 51 c8 3e c8 64 2f be
       -0.39436218 0.14247781 0.3912447 -0.17128289
000270 b2 a7 d7 3e 7b 6a a7 3d 04 f7 95 bd ee 91 fa 3c
       0.4212013 0.081746064 -0.07322505 0.030587163
000280 dd b4 5f 3e 08 7a f5 bc dc 20 dd 3e 86 88 ec 3e
       0.21846338 -0.029965416 0.43189132 0.4619791
000290 3d b2 b5 be c1 67 e1 3e bb e7 0d 3c 10 12 0c bf
       -0.35487548 0.4402447 0.008661206 -0.5471506
0002a0 2a ca 57 3f 38 e4 e8 3e fc 39 82 3e a3 18 b8 3d
       0.8429285 0.45486617 0.25434864 0.08989074
0002b0 93 16 31 3d d4 32 70 bd 2c 6a 18 be e2 48 01 bf
       0.04323442 -0.058642223 -0.14884251 -0.50501835
0002c0 79 26 df 3e 00 83 15 be 3c 41 5c be 99 94 fb 3d
       0.4358404 -0.14600754 -0.2150926 0.12284202
0002d0 27 8e ff 3d 8b 35 21 be 0c e1 51 3e b0 30 00 be
       0.12478285 -0.15743081 0.20496005 -0.12518573
0002e0 58 2d 80 3d 44 3c 3a 3d c1 d4 17 be 02 6b e3 3d
       0.06258649 0.04546763 -0.14827253 0.111043945
0002f0 85 d6 5b be ba fa 0b bf b2 8d 68 3e e2 3a fc 3e
       -0.21468551 -0.54679453 0.22710302 0.49263674
000300 31 d5 40 3f d7 42 26 bf 67 f8 80 3e 59 5d 17 be
       0.75325304 -0.6494574 0.25189516 -0.14781703
000310 3d 1e a6 3e 38 6b b1 3d 14 da 31 3e 81 f9 fd bd
       0.32444945 0.086630285 0.17368346 -0.12401105
000320 ca c5 d7 3c 74 ee d5 be 5c a0 50 bb 3b 2d 81 be
       0.02633943 -0.41783488 -0.0031833863 -0.2522982
000330 1e b8 b8 be 9e 43 90 3c 96 ad 07 bd 6a 1d 90 be
       -0.3607797 0.017610367 -0.03312453 -0.2814744
000340 cd 5c 11 be 80 d3 de 3d 9a 69 b0 3e 59 8b ea bd
       -0.14195557 0.10880184 0.34455568 -0.1145236
000350 cc 9f bb 3e bb e1 08 3e c9 3e 0f bf 67 50 2b be
       0.36645353 0.1336736 -0.5595518 -0.1672989
000360 f5 ab d4 3e d8 a5 93 3e ca 7d f8 bd b6 24 18 be
       0.41537443 0.28837466 -0.12133367 -0.14857754
000370 0c 94 00 3f 73 b3 8d 3e e3 8b 13 be 32 1c a3 bd
       0.502259 0.2767597 -0.14408831 -0.07964362
000380 8d 56 b4 bc b3 5a d9 bd 71 b5 a9 3d ee 1f 5f 3e
       -0.022013927 -0.10613003 0.0828656 0.21789524
000390 3b 03 89 3e 36 09 43 3d 5d 32 c2 bd f7 c0 bf 3c
       0.26760277 0.047616206 -0.09482262 0.023407442
0003a0 7a bd 2e be fc d3 01 3f 1c a9 e4 be e4 40 16 3e
       -0.17064467 0.5071409 -0.4466027 0.14673191
0003b0 94 2d ad bc 78 16 4a bd b4 08 62 3e 07 6f 07 3d
       -0.021139897 -0.049337834 0.22073632 0.03306487
0003c0 85 61 e0 3d 2f 74 a2 3c 94 4c 58 be 4e 54 8f be
       0.109561004 0.019830791 -0.21122962 -0.27994007
0003d0 ec 6d 53 3e aa 47 88 3e 7a b6 65 be 30 00 e7 bd
       0.206474 0.26617175 -0.2243289 -0.11279333
0003e0 1a 51 9a bc 85 b8 10 bd be 18 21 be 65 43 f4 3e
       -0.0188375 -0.03533222 -0.15732095 0.47707668
0003f0 2c 8a 87 3d a0 ae 1b be c2 8a 83 be fd ec fa be
       0.06618151 -0.15203333 -0.256918 -0.49008933

network.fc1.bias f4 [100]
000000 7e 48 b0 3e b0 83 74 bf c4 5a c0 be 4e 2a 8d bf
       0.34430307 -0.9551344 -0.3756925 -1.1028535
000010 22 6e 64 3e d9 69 ab bf 39 f6 47 bd 88 6d 2c 3f
       0.22307637 -1.3391677 -0.0488188 0.6735463
000020 3a a0 00 bd e0 e9 c4 be 2a 65 c3 bd c8 7f 05 bf
       -0.031402804 -0.38459682 -0.0954078 -0.52148104
000030 3e 91 6b 3e ae 93 c6 be c5 09 8d bf 68 24 47 bf
       0.23004624 -0.38784546 -1.1018606 -0.77789927
000040 f0 3f 99 3e 1e 86 67 3e 34 9a d7 be cd 78 4b bd
       0.29931593 0.22609755 -0.42109835 -0.04967575
000050 74 9b 78 be b8 3e a0 bd 9e a6 81 3f 64 9e 76 3e
       -0.2427805 -0.07824463 1.0128973 0.24083859
000060 5a 3a 24 bf 89 ac ab 3e 52 3d d2 3e a8 87 2d bd
       -0.6415154 0.3353007 0.4106241 -0.0423657
000070 53 ce b9 bf 9a bd 37 bf 9c 27 38 3e 25 76 56 be
       -1.451609 -0.71773684 0.1798386 -0.20943506
000080 9f 05 08 bf 86 96 4e be 7c 01 a1 3e fe 35 6c 3d
       -0.5313358 -0.20174608 0.31446445 0.05766868
000090 85 20 ec be 8c 54 41 3e 80 39 e7 bd 9f 84 44 3e
       -0.4611856 0.18879908 -0.11290264 0.19191216
0000a0 c8 87 44 3d ae d5 8e be 16 87 28 bf 91 50 e2 3d
       0.047981054 -0.278974 -0.65831125 0.11050523
0000b0 4f da 0d 3f 96 1d 5f bd 58 d1 ac bf c6 a3 2a 3d
       0.5541124 -0.054471575 -1.3501387 0.041660093
0000c0 1d bb 89 be ef f9 15 bf 58 16 44 be 83 3a f5 be
       -0.2690057 -0.58584493 -0.19149148 -0.47896203
0000d0 5e c3 04 be af 60 13 3f b0 eb a4 3e 9e 61 81 be
       -0.12965152 0.575694 0.32211065 -0.25269789
0000e0 d4 1d b0 3d c4 8b 04 be 0e 52 cb be f3 ac 29 be
       0.08599439 -0.12943941 -0.3971104 -0.16569881
0000f0 3b 1d c7 be cf f8 af be 3f 0a 89 3e b4 d5 18 bf
       -0.3888949 -0.34369513 0.2676563 -0.59701085
000100 14 b8 44 bf 1d fa 92 be af 88 1b bf 73 b2 7a 3d
       -0.7684338 -0.28706446 -0.6075544 0.06120534
000110 3a 00 48 3f 17 3d 4d bf cd 85 8b be a0 fc 92 3d
       0.78125346 -0.8017134 -0.2725052 0.07177091
000120 a2 e8 75 be 02 a5 2a bd 51 fe bb 3e d9 0e cc 3c
       -0.24014524 -0.04166127 0.36717466 0.024909424
000130 ad 61 b1 bc ad a3 21 be af 10 64 bf 94 3f 90 3b
       -0.02165302 -0.15785094 -0.8908796 0.0044021104
000140 60 7b 19 bf b2 77 cb 3e a1 8c 7f be ab 33 b8 be
       -0.5995388 0.39739758 -0.2495599 -0.3597692
000150 7b b2 e4 3e 71 72 d3 3e 8a b4 13 3e ce 60 24 be
       0.4466742 0.4129825 0.14424339 -0.16052553
000160 50 58 24 bf 91 3b 63 3d b1 ec 6a 3e 2c 9a 85 be
       -0.64197254 0.05547673 0.22941853 -0.26094186
000170 8a c0 54 bd 23 33 aa be 3f dd 12 be d1 cd 02 bf
       -0.051941432 -0.3324214 -0.14342211 -0.510953
000180 97 b9 72 3e 0c 0b 17 be 10 43 90 be 59 28 b0 be
       0.2370361 -0.14750308 -0.28176165 -0.34405783

network.fc2.weight f4 [111, 100]
000000 9d ec a6 be aa 7e 5f be 4d 37 9c 3e cd 39 18 bf
       -0.32602397 -0.21825662 0.3051094 -0.59463197
000010 50 ba 38 3e f2 59 c3 bf e1 a6 c1 3e 63 84 bc 3d
       0.18039823 -1.5261824 0.3782263 0.09204938
000020 21 2a 5a 3e 4d a6 84 be f5 2d 9a 3b 7c 59 c4 be
       0.21305133 -0.25908127 0.0047051855 -0.3834952
000030 b5 23 7a 3d 23 84 26 3e 26 80 cd 3f 3c 9f 2d bf
       0.06106921 0.16261344 1.6054733 -0.678211
000040 70 7c fa 3d 3f cf 53 be 76 a3 85 be be 40 59 bd
       0.12230766 -0.20684527 -0.26101273 -0.05304026
000050 d3 a7 95 bd 78 1d 3d bc 8e 58 8b 3d 73 b4 2a bd
       -0.073074006 -0.01154267 0.06804 -0.041675996
000060 f8 d3 35 3e a6 e3 72 3e 2f 37 64 be 87 20 4d 3e
       0.17756641 0.23719653 -0.22286676 0.2003194
000070 ff 4c 35 3f 20 24 c7 bb cb 63 d1 bd 0a f8 71 bc
       0.7082061 -0.0060773045 -0.10224112 -0.01476861
000080 37 26 af be 47 e2 3a bd 5e e7 2e bd e4 9c bf b9
       -0.34208843 -0.04562595 -0.042701118 -0.00036547252
000090 ff 31 25 be 68 c7 48 bd 48 4f c8 3d 98 72 a4 3c
       -0.16132353 -0.049018294 0.09780747 0.020074174
0000a0 16 48 cd 3d 07 e3 99 3d 6c 12 56 be 65 08 d1 bc
       0.10023515 0.07514005 -0.20905465 -0.025516698
0000b0 bf 6a 5f 3e 23 65 79 3d 01 38 00 40 71 4d 50 be
       0.21818064 0.060887467 2.0034182 -0.20342042
0000c0 2d c2 c2 be 97 10 1f 3e 47 10 c0 bd 73 23 79 be
       -0.3803877 0.15533672 -0.09378105 -0.24329929
0000d0 66 ac 7e 3e 26 be 4a be f3 48 1b be 6f 69 b3 3d
       0.24870452 -0.19799098 -0.15164547 0.08760344
0000e0 e3 4d 88 3e df 4f ac be ee 6d ef 3e 59 b2 5e be
       0.26621923 -0.33654687 0.46763557 -0.21747722
0000f0 97 49 0f 3e 1e 7b 59 be e1 db e4 bd 7e 35 34 3d
       0.13992916 -0.21238372 -0.11174751 0.043996327
000100 3a c5 25 3f dc 26 23 3e 26 5f 98 be 72 81 1d be
       0.6475407 0.15932792 -0.29760092 -0.1538141
000110 af 03 9d 3e 0e 7e 16 3f bd bf de 3c 74 4e b4 bc
       0.30666873 0.58786094 0.027191037 -0.022010066
000120 9c 0d 46 be b8 d0 b7 3c d2 ae 03 bc 1d ed ff bd
       -0.19341129 0.022438392 -0.008037286 -0.12496398
000130 09 34 90 3d 50 23 c9 bd 61 21 a3 be ec 7c a8 be
       0.07041175 -0.098211884 -0.31861404 -0.32907808
000140 ff c7 9a 3e 54 1f 2c be d1 5a dd 3e 8c 74 16 3f
       0.3023071 -0.16808826 0.4323335 0.58771586
000150 0f ea bd 3e d6 22 e2 bd f7 65 5e be f3 e2 8a 3e
       0.37092635 -0.11041801 -0.21718584 0.27126274
000160 35 f8 33 bf 80 78 1d 3e 0d 46 8c be 04 13 f8 bd
       -0.7030061 0.15377998 -0.27397195 -0.12113002
000170 c0 96 a1 3d ab 3a 4e be 59 a3 58 be 2f 55 c5 be
       0.078900814 -0.20139568 -0.21156062 -0.38541552
000180 9c 3f d3 bd 4e 35 3f 3d 22 f9 bc be 14 9b 5f bc
       -0.10314867 0.046681695 -0.36908823 -0.013647813
000190 69 d1 86 be db cd 5b be 13 75 9c 3e 9d dc 1b bf
       -0.26331642 -0.21465246 0.3055807 -0.60883504
0001a0 96 5b 33 3e 58 72 c4 bf b9 6f c3 3e 06 83 d9 3d
       0.17515406 -1.5347395 0.38171175 0.10620694
0001b0 38 42 55 3e 53 9b 81 be e5 d1 bc 3c 77 e3 c6 be
       0.20826042 -0.25313815 0.023049304 -0.38845417
0001c0 ad af 96 3d 7e b6 26 3e 4f c4 cd 3f 4d f6 2d bf
       0.07357726 0.16280553 1.6075534 -0.6795395
0001d0 66 af 03 3e 68 9d 59 be e6 51 82 be a5 86 00 3d
       0.12859878 -0.21251452 -0.2545311 0.031378407
0001e0 a8 0c a2 bd 5c 9f 48 3c 68 35 73 3d ed 9e 91 bd
       -0.0791257 0.0122450255 0.059377104 -0.07110391
0001f0 ec b2 4f 3e 26 f4 71 3e f4 97 5f be 20 23 48 3e
       0.20283097 0.23628291 -0.2183531 0.19544649
000200 80 4c 34 3f 43 43 58 bc b4 34 ba bd 12 99 d3 bc
       0.7042923 -0.01319963 -0.090920836 -0.025829826
000210 ca a9 af be c7 ed 2e bd b3 a7 54 bd 2c 22 23 bc
       -0.34309226 -0.04270723 -0.051917743 -0.009956878
000220 f0 21 21 be be b9 0b bc 79 e7 d3 3d 8c 6f a6 bd
       -0.15735602 -0.008528171 0.10346884 -0.08126745
000230 97 ef d3 3d 8f 75 93 3d a2 54 59 be a7 10 87 bc
       0.103484325 0.07200157 -0.21223691 -0.016487433
000240 59 5b 68 3e 73 4c 75 3d 26 a0 00 40 56 7c 4e be
       0.22691096 0.05988736 2.0097747 -0.20164618
000250 a3 5f bc be 85 16 22 3e a6 82 de bd 51 15 7d be
       -0.36791715 0.15828903 -0.10864763 -0.24715163
000260 ca 4b 7f 3e ac 4a 2a be 81 95 22 be 75 07 d9 3d
       0.24931255 -0.16630048 -0.15877344 0.105971254
000270 98 54 83 3e 22 3a ab be fe 15 f0 3e 3f f4 5b be
       0.25650477 -0.3344279 0.4689178 -0.21479891
000280 01 53 10 3e ef 34 59 be ca 4f cb bd 24 53 23 3d
       0.14094163 -0.21211599 -0.09927328 0.03987421
000290 c3 ce 22 3f 15 1a 25 3e 62 bf 97 be 7d f0 44 be
       0.63596743 0.16123231 -0.296382 -0.19232364
0002a0 fa 86 a0 3e 0e de 16 3f 7c 13 c3 3c 26 4c d0 bc
       0.3135298 0.5893258 0.023813002 -0.025426935
0002b0 43 5f 45 be c4 55 25 3d be f9 53 bc 10 b1 fa bd
       -0.1927462 0.040364996 -0.012937961 -0.12240803
0002c0 2b 0d ac 3d 88 76 c7 bd 58 b0 a8 be b7 7b a8 be
       0.08400949 -0.09739405 -0.3294704 -0.32906887
0002d0 79 c5 9d 3e ec 97 14 be 61 b6 dd 3e e5 7b 15 3f
       0.30814722 -0.14511079 0.43303207 0.58392173
0002e0 ac ac c2 3e 02 9e e1 bd d5 0d 5d be df e6 90 3e
       0.38022363 -0.11016466 -0.21587308 0.2830114
0002f0 d2 45 36 bf 55 a7 25 3e bd 83 84 be 65 43 f3 bd
       -0.7120029 0.16177113 -0.25881758 -0.11878089
000300 81 03 94 3d e2 12 4f be ac 73 56 be 3d f4 c5 be
       0.07227231 -0.20222047 -0.20942563 -0.38662902
000310 ba c7 02 be 81 25 3b 3d 1b ea bb be 91 48 be bb
       -0.12771502 0.045690063 -0.36702046 -0.0058069904
000320 5b e6 8c be 50 bf 59 be 72 bf 9c 3e 44 f9 1c bf
       -0.27519497 -0.21264386 0.3061481 -0.6131785
000330 93 63 36 3e 04 00 c3 bf a9 e8 c0 3e 35 6d c5 3d
       0.17811422 -1.523438 0.37677506 0.0963997
000340 90 ec 50 3e 54 90 7e be 9c d1 d9 3c 7e 72 c7 be
       0.20402741 -0.24859744 0.026589207 -0.38954538
000350 86 9f 96 3d 56 14 28 3e c5 c1 ce 3f d1 85 2f bf
       0.073546454 0.16414008 1.6152884 -0.6856356
000360 bf 9f ff 3d 6f b0 5a be 6b f6 7d be 71 6b 75 bd
       0.12481641 -0.21356367 -0.24801032 -0.059916917
000370 97 52 94 bd aa fd bc ba a5 4f 6c 3d b7 7e 8f bd
       -0.07242315 -0.001441886 0.057693142 -0.07006591
000380 0c 71 4c 3e 47 8f 6b 3e 2f 79 78 be 44 15 49 3e
       0.19964999 0.23003875 -0.24264978 0.19637018
000390 a0 05 36 3f 93 c8 8c bc 9d 6f bf bd 7b 8b 2a bd
       0.71102333 -0.017185485 -0.093474604 -0.041636925
0003a0 de 47 af be 43 f9 24 bd 49 75 67 bd 5d 8c 05 bc
       -0.34234518 -0.040276777 -0.056508336 -0.008151141
0003b0 21 e7 19 be 97 38 a3 bc 1a 0a dd 3d 93 27 82 bd
       -0.15029575 -0.019924445 0.10792942 -0.063552044
0003c0 ee a4 d0 3d 29 33 8a 3d 61 ff 57 be 31 79 93 bc
       0.10187708 0.06748039 -0.21093513 -0.018002125
0003d0 0e 87 64 3e 4b d4 82 3d a1 cd ff 3f 5c 1e 50 be
       0.22317144 0.06388148 1.9984628 -0.20324081
0003e0 7b c2 c1 be 77 ec 1e 3e e4 bd cc bd 94 7f 7d be
       -0.3784369 0.15519892 -0.09997156 -0.24755698
0003f0 4d 5d 7b 3e 76 57 24 be 2e 72 21 be da 9f e4 3d
       0.2454731 -0.16048989 -0.15766212 0.11163302

network.fc2.bias f4 [111]
000000 30 62 49 3d 5d 91 d5 3a 24 38 1e 3d 83 ad 22 3d
       0.049165905 0.0016293932 0.03862776 0.039716255
000010 93 d4 26 3d 54 46 2f 3d 9c 2d c7 3c 51 4c d4 3c
       0.04073007 0.04279168 0.02431374 0.025915297
000020 dc 18 52 3d a4 3f 73 3d 14 0d 87 3d 1d f4 99 3d
       0.05129324 0.059386864 0.06594291 0.07517264
000030 fe 17 a6 3d da ac b5 3b 74 3b 8c 3d 0a 5b df 3c
       0.08110045 0.005544287 0.06847277 0.02726509
000040 26 1e f0 3d 7f c9 cb 3d 91 1c f8 3d e7 b7 a1 3d
       0.117245 0.09950542 0.121148236 0.07896405
000050 92 5e f6 3d 01 33 a9 3d d5 77 94 3d 94 8b ad 3d
       0.120297566 0.08261681 0.07249419 0.08473888
000060 cc 75 03 3e 80 55 f1 3d a1 2e db 3d 5b 92 0a 3e
       0.12837905 0.11783886 0.10702253 0.13532393
000070 ec 09 d2 3d 0a 27 77 3d b2 fe a2 3d 54 b8 b5 3d
       0.10255799 0.060339965 0.079587355 0.088730484
000080 04 a4 d0 3c d8 1e 2d 3c a5 62 f5 3c 5f a5 b4 bc
       0.025468834 0.010566436 0.029954264 -0.022051511
000090 72 e0 b0 bc 00 13 a8 bc 7b 8d 77 bc e1 85 8e bd
       -0.021591399 -0.020516872 -0.015109415 -0.06959129
0000a0 1a 43 61 bd cb 88 5f bd c4 4f b3 bd 5f 8e b6 bd
       -0.054995634 -0.054573815 -0.087554485 -0.08913874
0000b0 c3 22 c8 bd 6c 96 e4 bd ff c7 be bd 45 8e 6d bd
       -0.09772255 -0.11161503 -0.0931549 -0.057997007
0000c0 88 d6 8e bd fc f2 01 be 6c f7 e2 bd c7 3e f3 bd
       -0.06974512 -0.12690347 -0.11082348 -0.11877208
0000d0 37 d5 f6 bd 6a f4 e4 bd 51 bb d8 bd c1 a0 cc bd
       -0.12052386 -0.11179431 -0.10582603 -0.09991599
0000e0 f0 a2 87 bd 7d cc ce bd 3c 5e 2b be a7 67 23 be
       -0.06622875 -0.10097597 -0.16735166 -0.15957509
0000f0 5d 5c 38 be d7 7e 22 be 76 20 25 be 5d de d8 bd
       -0.18003984 -0.15868698 -0.16125664 -0.105892874
000100 2b a4 ca bd 55 7c ce bd 74 3b b9 bd 7b b9 8d bd
       -0.09894594 -0.10082308 -0.09044543 -0.06920143
000110 68 85 7c bd b1 40 4b bd 67 f1 99 bd 62 2f 81 bb
       -0.061650664 -0.04962224 -0.07516747 -0.003942416
000120 53 46 45 3c c2 00 79 bb e2 47 4f 3d d1 66 3f 3d
       0.012040692 -0.0037994836 0.050605662 0.046728913
000130 a6 e0 5f 3d 93 56 dd 3b 4c af 01 3d 4b 66 7e 3d
       0.0546576 0.006754705 0.031661317 0.062109273
000140 f6 39 96 3d 84 37 bb 3d 77 3e b2 3d 9d f9 d5 3d
       0.07335274 0.09141448 0.087033205 0.104480006
000150 38 78 8d 3d 53 36 bd 3d ff 43 d9 3d 5b be dd 3d
       0.069076955 0.09238877 0.10608672 0.10827323
000160 f5 36 d9 3d 9d ff e9 3d e2 fe ec 3d a1 23 a4 3d
       0.10606185 0.114257075 0.115720525 0.08014608
000170 dd 3e d0 3d bf f0 e2 3d a0 70 b5 3d c8 4f 6c 3d
       0.1016824 0.11081075 0.08859372 0.057693273
000180 91 38 ad 3d 6e 47 8d 3d d6 46 56 3d c3 5f 29 3d
       0.08458055 0.0689839 0.05231365 0.04135109
000190 f4 5b 67 3d c0 4f a9 3d 98 31 9c 3d c0 05 85 3d
       0.056484178 0.08267164 0.07626647 0.06495237
0001a0 37 1a 3a 3d e2 77 20 3d c6 f7 ab 3c 0b 06 15 3d
       0.045435157 0.03917683 0.020992171 0.036382716
0001b0 95 94 83 3c d6 9d 40 3d 5a 07 93 3a
       0.01606206 0.047025524 0.0011217401
