Week8/BNNresult/model_for_freqEnv_500epoch.pth (torch, 45096 bytes, 4 tensors)

network.fc1.weight f4 [100, 6]
0	0xbf06cb39	-0.52653843
1	0x3eee263b	0.46513543
2	0xbe33e49a	-0.17567673
3	0x3ebd91f1	0.37025407
4	0xbe6c63e3	-0.23084979
5	0xbf062200	-0.5239563
6	0x3ec2cfe2	0.38049227
7	0x3e876b9b	0.26449284
8	0x3d9c096e	0.07618986
9	0xbeaf3a59	-0.34224203
10	0xbf270f65	-0.65257865
11	0xbeaccd22	-0.33750254
12	0x3ea6edc1	0.32603267
13	0xbf4a88af	-0.7911481
14	0xbdeaf506	-0.11472516
15	0xbe7ad03f	-0.24493502
16	0xbd6d81cf	-0.057985123
17	0x3ee2fcc0	0.44333458
18	0xbef521e6	-0.47877425
19	0x3e6161ca	0.2200996
20	0xbe01fca2	-0.12694028
21	0x3c58b709	0.013227233
22	0x3e3ffe8d	0.18749447
23	0x3f271e03	0.6528017
24	0x3e972ff0	0.2952876
25	0x3e93a6d3	0.28838214
26	0xbdc6b5ed	-0.09702668
27	0x3dd68fdb	0.10476657
28	0x3ef1ad5d	0.47202578
29	0xbe44cb20	-0.19218111
30	0x3eb89d23	0.36057386
31	0x3ee8a69c	0.45439613
32	0xbcaa86f6	-0.020816308
33	0x3e837f7a	0.25683194
34	0x3ec18ddd	0.37803546
35	0x3bf3a97c	0.0074359756
36	0x3f4964e2	0.7866956
37	0xbec40306	-0.38283557
38	0x3c476173	0.01216923
39	0x3c8c56e0	0.017131269
40	0xbea59b70	-0.32345152
41	0x3c9bdd5b	0.019026449
42	0xbf7a9454	-0.9788258
43	0x3e6ca2d7	0.23108993
44	0xbeb2984c	-0.34881818
45	0xbda2e387	-0.07953554
46	0x3eb9d630	0.36296225
47	0x3e6751f6	0.2258986
48	0x3f3942ae	0.7236737
49	0xbeb5bc4d	-0.35495225
50	0xbdead14a	-0.114657
51	0xbb17d1b0	-0.0023165755
52	0xbe63bbc9	-0.22239603
53	0xbec6653a	-0.38749105
54	0xbf2cc2a9	-0.6748453
55	0xbe45fa18	-0.19333684
56	0xbf1c41d5	-0.6103795
57	0x3d8c906c	0.06863484
58	0x3f1ae44e	0.60504615
59	0xbdc85bd6	-0.09783141
60	0x3f21c5df	0.6319255
61	0xbf3abf20	-0.72947884
62	0xbde0d7c4	-0.10978654
63	0x3e5bd646	0.21468458
64	0x3ea6f38b	0.32607684
65	0x3e6c5aff	0.23081587
66	0x3e49a164	0.19690472
67	0x3ed98534	0.42484438
68	0xbd2166ce	-0.039404683
69	0x3e9f95c0	0.31168938
70	0x3eb06596	0.34452504
71	0x3f1d42a2	0.614298
72	0xbea0828c	-0.313496
73	0x3e88677f	0.2664146
74	0xbd07caad	-0.03315227
75	0xbef5c44d	-0.48001328
76	0xbe72ce64	-0.23711544
77	0x3f6e7d10	0.9315958
78	0x3edcbea0	0.43114185
79	0xbf4a05a1	-0.7891484
80	0xbbd580fc	-0.0065156203
81	0x3f1c0ea6	0.6095985
82	0xbdeef548	-0.116678774
83	0xbf77440e	-0.9658822
84	0xbf110567	-0.5664887
85	0x3e57902b	0.2105109
86	0x3d8c64ed	0.068551876
87	0xbc94ae1a	-0.018149424
88	0x3fac8337	1.3477544
89	0xbf70423f	-0.93851084
90	0xbf487dc9	-0.7831693
91	0x3e8226ac	0.2542013
92	0xbab6de56	-0.0013951759
93	0x3d36b7f4	0.044609025
94	0x3e8d855e	0.27640814
95	0xbfa24073	-1.2675918
96	0x3f08bfc3	0.53417605
97	0xbc0f78e0	-0.008756846
98	0xbdd69786	-0.104781196
99	0xbefde579	-0.49589136
100	0xbeef99d7	-0.46797058
101	0x3ef1e4d0	0.47244883
102	0xbe220017	-0.15820347
103	0xbf5b66de	-0.8570384
104	0x3c80da2b	0.01572903
105	0x3e305bca	0.17222515
106	0x3eacad8f	0.33726165
107	0x3e5fd47d	0.21858402
108	0x3f003fcb	0.5009734
109	0xbf1545f4	-0.58309865
110	0xbe021587	-0.12703525
111	0xbef8b2f3	-0.48574027
112	0x3b5d41b0	0.0033761077
113	0x3f1374ad	0.5759991
114	0x3f5f85dd	0.87313634
115	0xbe104760	-0.14089727
116	0xbd5512b4	-0.05201979
117	0x3d39739d	0.045276273
118	0x3e7fdd2c	0.24986714
119	0xbd1844a1	-0.037174825
120	0xbf212f31	-0.62962633
121	0x3f381302	0.71904004
122	0xbd04a2c9	-0.032381807
123	0xbf080365	-0.5313018
124	0x3e567bcc	0.20945662
125	0xbeaae8f9	-0.3338087
126	0x3e93f795	0.28899828
127	0xbdc972ce	-0.098363504
128	0xbd9d41e5	-0.07678584
129	0xbeaa86e4	-0.33306038
130	0x3e55d71f	0.20882843
131	0x3e79f213	0.2440875
132	0xbf67bba5	-0.905207
133	0x3e8f7e3d	0.28026
134	0xbdc3a944	-0.09553769
135	0x3edd7f9d	0.43261424
136	0x3c90cf09	0.017676847
137	0x3ef1935a	0.47182733
138	0x3e2083b4	0.15675241
139	0xbed4cd27	-0.4156277
140	0xbde83d33	-0.11339798
141	0x3e3b3fcc	0.18286055
142	0x3f643bab	0.89153546
143	0x3e82db8f	0.25558135
144	0xbe4b74cf	-0.19868778
145	0x3e2ef08d	0.1708395
146	0xbdce112e	-0.100618705
147	0xbeca69e6	-0.3953392
148	0xbed9a6b1	-0.42509988
149	0x3eed8bee	0.4639582
150	0xbfb9706a	-1.4487431
151	0x3f476d1b	0.77900857
152	0xbe837fb8	-0.2568338
153	0x3e560988	0.20902073
154	0xbdae1c87	-0.08501535
155	0xbcad2739	-0.021136867
156	0x3e8d28c2	0.27570158
157	0x3ec5aaba	0.38606817
158	0x3cddfcfa	0.027098168
159	0xbf21fa8c	-0.6327293
160	0x3d81f74f	0.063459985
161	0xbd19900a	-0.037490882
162	0x3f0e865a	0.55673754
163	0x3e929dd5	0.2863604
164	0xbe1cb23c	-0.15302366
165	0xbdbcd2cb	-0.09219893
166	0xbe8af650	-0.27141047
167	0xbeb70331	-0.35744622
168	0xbfb517a0	-1.4147835
169	0x3f031689	0.5120626
170	0x3d505220	0.05085957
171	0x3d24e5ab	0.04025809
172	0xbef4f748	-0.4784491
173	0x3e5d7547	0.21626769
174	0xbeedb18d	-0.46424523
175	0x3e47017e	0.19434163
176	0x3bdf845e	0.0068211993
177	0xbd299627	-0.041402962
178	0xbecad2ce	-0.39613956
179	0x3f110107	0.5664219
180	0x3e91d1db	0.2848042
181	0xbe811a0c	-0.25215185
182	0xbdb03e22	-0.08605601
183	0x3d62c889	0.055367026
184	0xbfc1b5a3	-1.5133556
185	0x3f5d2360	0.863821
186	0x3f021c62	0.5082456
187	0xbe62a9c2	-0.2213507
188	0xbe1d8e18	-0.15386236
189	0x3e9ccd43	0.30625352
190	0xbd98c1f5	-0.07458869
191	0xbe2b6c25	-0.16740473
192	0x3e93940c	0.28823888
193	0x3efbe4ae	0.49197906
194	0xbec57a70	-0.38569975
195	0xbe033545	-0.1281329
196	0xbf4f1801	-0.80896
197	0x3e055091	0.13019015
198	0xbdad9cee	-0.084771976
199	0xbac93ec1	-0.0015353785
200	0xbd2fda56	-0.04293283
201	0x3e8b41d5	0.27198663
202	0xbedb19ce	-0.42793125
203	0xbf81b133	-1.0132202
204	0x3e4c8bfa	0.19975272
205	0x3f5090db	0.8147103
206	0xbd2f2084	-0.04275562
207	0xbec7f898	-0.3905685
208	0x3cf17d1c	0.029478602
209	0xbeafcfdd	-0.34338275
210	0x3f082d85	0.5319446
211	0xbec09755	-0.37615457
212	0xbe63c1ba	-0.2224187
213	0x3e0ea339	0.13929452
214	0x3f74eea7	0.95676655
215	0xbf12589a	-0.57166445
216	0x3e42abf5	0.19010909
217	0xbf5445f5	-0.82919246
218	0xbe279e65	-0.16369016
219	0xbd4878e5	-0.04894342
220	0x3f38735f	0.7205104
221	0xbe7d89a1	-0.24759533
222	0xbe39f66a	-0.18160406
223	0x3ddfb8e5	0.10923938
224	0xbeca46e4	-0.3950721
225	0xbebcfb14	-0.36910307
226	0xbdb784d5	-0.089608826
227	0x3f9b5d53	1.2137855
228	0x3d324157	0.043519344
229	0x3f05be25	0.5224326
230	0x3a535d1c	0.00080628856
231	0x3dd433ae	0.103614196
232	0xbeb30478	-0.34964347
233	0xbf0851a5	-0.5324958
234	0x3eab1b2f	0.33419177
235	0x3caa37c2	0.02077854
236	0xbd81c806	-0.063369796
237	0xbea64e7e	-0.3248176
238	0xbef3d36a	-0.47622234
239	0x3e9430f5	0.289436
240	0xbf9a5438	-1.2056952
241	0x3ebb31f4	0.3656155
242	0x3d9d866a	0.07691653
243	0x3e2a1150	0.16608167
244	0xbd96e5fa	-0.07368083
245	0xbe4d7330	-0.20063472
246	0xbb228503	-0.002479852
247	0x3d8bd8c2	0.06828453
248	0xbe939476	-0.28824204
249	0x3eb3fd31	0.35154107
250	0xbdb8dc7a	-0.090264276
251	0xbd062723	-0.032752167
252	0x3ea068d0	0.31329966
253	0x3ec4a11d	0.3840417
254	0xbcb66b47	-0.02226795
255	0xbf21ca1c	-0.6319902

network.fc1.bias f4 [100]
0	0xbcf3e505	-0.029772291
1	0xbed62f24	-0.4183284
2	0xbf64934a	-0.89287245
3	0xbea484ed	-0.32132664
4	0xbee15db9	-0.44016817
5	0xbf566ed2	-0.8376285
6	0xbce4ca8c	-0.027928613
7	0x3f0b54f4	0.54426503
8	0xbeb8677e	-0.36016458
9	0x3f25b7f9	0.64733845
10	0xbea2e9b5	-0.3181893
11	0xbe766c39	-0.24064721
12	0xbf46160a	-0.7737738
13	0xbf6e952e	-0.9319638
14	0xbf16b1d7	-0.5886511
15	0xbf0e35cd	-0.55550843
16	0xbef8e9ca	-0.48615867
17	0xbe661403	-0.22468571
18	0xbf04f75b	-0.51939934
19	0xbf8459d4	-1.0339913
20	0xbea458ba	-0.32098943
21	0xbe85051f	-0.2598047
22	0x3ee00255	0.4375178
23	0xbfcbee2c	-1.5932059
24	0xbdddcc0e	-0.10829936
25	0x3ee36eef	0.44420573
26	0xbf4740d4	-0.77833295
27	0x3e57eabb	0.21085636
28	0x3ededc26	0.43527335
29	0xbf62649b	-0.8843476
30	0x3e80c6ed	0.25151768
31	0x3bc64f16	0.0060519082
32	0x3e30efb4	0.1727894
33	0xbf0d1387	-0.5510792
34	0xbe557be7	-0.20848046
35	0xbe24bb02	-0.16086963
36	0xbf39e22c	-0.72610736
37	0x3e94e3b4	0.29079974
38	0xbf0fa4fb	-0.56111115
39	0xbed8d62f	-0.4235091
40	0x3f2da9b4	0.6783707
41	0x3ec9d3eb	0.39419493
42	0xbf712fa5	-0.94213325
43	0xbf2e809e	-0.68165004
44	0x3d402a62	0.04691542
45	0x3f194c9f	0.5988254
46	0xbdee241e	-0.116279826
47	0x3ed9efbb	0.42565712
48	0xbf55558a	-0.8333365
49	0x3ec5aeef	0.38610026
50	0x3e5b5cb7	0.21422087
51	0x3e781cc1	0.24229719
52	0xbf8bcbd6	-1.0921581
53	0xbed753f4	-0.4205624
54	0xbf1a1e48	-0.60202456
55	0xbf8d0db1	-1.1019803
56	0x3df2ea83	0.11861136
57	0xbf31317c	-0.6921613
58	0xbf30d10c	-0.6906898
59	0x3ebcfe68	0.36912847
60	0xbdd97083	-0.10617163
61	0xbf974a12	-1.181948
62	0xbf6098d5	-0.87733203
63	0xbdc9aa16	-0.098468944
64	0x3e84ff4a	0.2597602
65	0x3f363927	0.7118096
66	0xbe54ba8a	-0.20774284
67	0xbf9cebca	-1.2259457
68	0x3efd723d	0.4950122
69	0xbecae7c9	-0.39629963
70	0x3f029538	0.5100894
71	0xbf6fb7dd	-0.9363993
72	0xbf0678a8	-0.52527857
73	0xbf9a6035	-1.206061
74	0xbeaa6d9b	-0.33286747
75	0xbe98eb92	-0.29867226
76	0xbf15aca3	-0.5846655
77	0xbe62249c	-0.22084278
78	0xbf7f1e87	-0.99655956
79	0xbf37d080	-0.7180252
80	0x3cba1d6b	0.022719106
81	0x3de61b44	0.11235669
82	0xbf021461	-0.50812346
83	0x3f3174d5	0.69318897
84	0xbdcd7a07	-0.100330405
85	0xbea7ff2d	-0.3281187
86	0x3e911136	0.28333443
87	0xbf80b1c5	-1.0054251
88	0xbf182f9a	-0.59447634
89	0x3f54eda6	0.8317512
90	0x3e181284	0.14850813
91	0xbebef5f2	-0.37297016
92	0xbf43d58f	-0.7649774
93	0xbe06e13e	-0.1317186
94	0x3f1f1328	0.62138605
95	0xbefef31d	-0.49794856
96	0xbeb3fb7e	-0.3515281
97	0xb8831e88	-6.252254e-05
98	0xbf7ed816	-0.9954847
99	0xbf1755ac	-0.591151

network.fc2.weight f4 [99, 100]
0	0xbee3d01f	-0.4449472
1	0x3e92c77a	0.28667814
2	0xbfa2728a	-1.2691205
3	0x3c811269	0.015755849
4	0xbe57cf60	-0.21075201
5	0x3de8b9a2	0.11363532
6	0x3e7fcd24	0.24980599
7	0xbf896548	-1.0734034
8	0xbfaefc85	-1.3670813
9	0x3f080408	0.5313115
10	0x3eef60b1	0.46753457
11	0x3ccf5fd4	0.02531425
12	0x3d237f3d	0.039916266
13	0x3e8cd254	0.27504218
14	0x3fc40c84	1.531632
15	0xbe743f97	-0.23852383
16	0x3f2ed5d5	0.6829503
17	0xbf3002a2	-0.6875402
18	0x3e5b8851	0.2143872
19	0xbf1acd4d	-0.60469514
20	0xbe824ba5	-0.25448337
21	0x3c4183b4	0.011811186
22	0x3ee51e27	0.44749567
23	0x400e54f9	2.2239363
24	0xbf139a75	-0.5765756
25	0xbb7b73b3	-0.0038368523
26	0xbec40fcf	-0.3829331
27	0x3f3d56ed	0.73960763
28	0xbeec08e5	-0.46100536
29	0xbf1913e4	-0.59795976
30	0xbfdb3202	-1.7124636
31	0x3e70a565	0.23500593
32	0xbf6638bf	-0.8993034
33	0x3cf1c9e9	0.029515224
34	0xbf127992	-0.5721675
35	0x3ecb13a2	0.39663416
36	0xbfdafad5	-1.7107798
37	0x3ea4760a	0.32121307
38	0x3e832746	0.256159
39	0xbed16ad9	-0.4090183
40	0x3e0cdeef	0.13756917
41	0xbf346fc3	-0.70483035
42	0xbf48e8ba	-0.7848011
43	0x3ee57579	0.44816187
44	0x3ea1cc74	0.31601298
45	0xbd3ee195	-0.04660185
46	0xbfa8df6a	-1.319318
47	0x3f291602	0.66049206
48	0xbf1e0aac	-0.61735034
49	0xbeafd5ea	-0.3434289
50	0x3f55dc3a	0.83539164
51	0x3cdedce2	0.027204935
52	0x3fa2238b	1.2667097
53	0x3b8e2bac	0.004338702
54	0x3f8f73ae	1.1207178
55	0xbe8b7ccd	-0.27243653
56	0xbe201443	-0.15632729
57	0x3f0c6435	0.54840404
58	0x3f17c78a	0.5928885
59	0xbec34f7d	-0.38146582
60	0xbf6c315d	-0.9226282
61	0x3f43718c	0.76345134
62	0xbfc6ae4c	-1.5521941
63	0xbd34f563	-0.04417933
64	0x3dafbf43	0.08581402
65	0x3f0e822d	0.5566738
66	0xbefb238e	-0.49050564
67	0xc053f201	-3.3116457
68	0x3f6e18ed	0.93006784
69	0x3eec9391	0.46206334
70	0xbedbb65b	-0.42912564
71	0xbc5cb3c2	-0.013470592
72	0x3ed27479	0.41104487
73	0x3fb22651	1.3917943
74	0x3e60e999	0.2196411
75	0x3f9d1777	1.2272786
76	0x3e0e03ab	0.13868587
77	0xbf4305ae	-0.7618054
78	0x3f5cd8d8	0.8626838
79	0xbf6af450	-0.9177904
80	0x3e832e3e	0.25621217
81	0xbcf50f38	-0.029914483
82	0x3caf4eeb	0.021399936
83	0xbf90d4f1	-1.1314985
84	0x3e19f440	0.1503458
85	0x3ef0d991	0.4704099
86	0x3ebd431d	0.36965266
87	0x3f20e7c6	0.6285366
88	0x3ebdeeca	0.37096244
89	0x3f25311f	0.6452808
90	0x3f03909a	0.5139252
91	0xbd6c8cb8	-0.057751387
92	0xbf87127b	-1.0552515
93	0xbef2b0b3	-0.47400436
94	0xbea29420	-0.31753635
95	0x3e8d75dc	0.27628982
96	0xbe517420	-0.20454454
97	0xbec0e1d9	-0.37672308
98	0x3f650d9b	0.89473885
99	0x3f19fceb	0.6015155
100	0xbdd56cb6	-0.104211256
101	0x3d8fd420	0.070228815
102	0xbe95ea8a	-0.29280502
103	0x3efabe7a	0.48973447
104	0x3e7b99a6	0.24570331
105	0xbce22e86	-0.027610075
106	0x3ee7dabd	0.45284072
107	0xbf3753d0	-0.7161226
108	0x3e60e63e	0.2196283
109	0x3e6d46ba	0.23171511
110	0x3e06bf1e	0.13158843
111	0xbdcd29f1	-0.10017765
112	0xbd88d7e2	-0.066818014
113	0x3dcf9022	0.10134913
114	0xbeb43466	-0.35196227
115	0x3e9d3dd0	0.30711222
116	0xbe102337	-0.14075933
117	0x3e8c4e96	0.27403706
118	0xbd49128b	-0.04908995
119	0xbfaf08b5	-1.3674532
120	0xbcff7e99	-0.031188296
121	0x3e2d2bfd	0.16911311
122	0xbd47217a	-0.04861591
123	0x3dbeae0f	0.09310543
124	0x3dc87287	0.09787469
125	0xbde98c3f	-0.11403703
126	0x3d587a10	0.052850783
127	0x3e3c43e1	0.18385269
128	0x3dba6bc5	0.09102587
129	0x3ed0175e	0.40642828
130	0x3df8fd06	0.121576354
131	0x3e7447d0	0.2385552
132	0xbe10251d	-0.14076658
133	0xbee9a98b	-0.45637164
134	0x3dee5a33	0.11638298
135	0x3e1a0c41	0.15043737
136	0xbe11a99c	-0.14224857
137	0x3cfd9dc8	0.030959025
138	0x3dcdd585	0.10050491
139	0x3ec646c7	0.38725874
140	0x3ef287c6	0.47369212
141	0xbe039e07	-0.12853251
142	0xbe528dac	-0.20561856
143	0xbdbd749b	-0.09250756
144	0xbd217c4e	-0.039425187
145	0xbd0f4029	-0.034973297
146	0x3d91fcd1	0.07128299
147	0xbd8032cd	-0.062596895
148	0x3e2ad514	0.16682845
149	0x3f3d421f	0.7392902
150	0x3de3ef5a	0.11129637
151	0xbecd720e	-0.4012608
152	0xbd738a0b	-0.05945782
153	0xbd8cf60f	-0.068828695
154	0x3e930c93	0.2872053
155	0x3f4e6b7d	0.80632764
156	0xbcbcdeed	-0.023055518
157	0xbe67f041	-0.22650243
158	0x3e32dcf5	0.17467101
159	0xbe02c3b5	-0.12769969
160	0xbe9c7717	-0.30559608
161	0x3d77d717	0.06050786
162	0x3f007fe3	0.5019514
163	0xbe072db0	-0.13201022
164	0x3dc4ab55	0.096029915
165	0x3e603f45	0.21899135
166	0x3e9351f6	0.2877347
167	0x3f0199dd	0.506254
168	0xbeb469dd	-0.35237017
169	0x3c3ec225	0.011642967
170	0xbecf7151	-0.4051614
171	0xbe8e7042	-0.2782002
172	0x3e453f15	0.19262345
173	0xbe19aeb6	-0.15008053
174	0xbe91e3da	-0.2849415
175	0x3d6cc76f	0.057807382
176	0xbda85dfa	-0.082210496
177	0x3e085a81	0.13315775
178	0x3efdf31a	0.49599534
179	0xbe7147c0	-0.23562527
180	0x3df80557	0.121103935
181	0xbdb34076	-0.08752529
182	0x3d4cd753	0.050010037
183	0xbe5a37d7	-0.21310364
184	0xbe599057	-0.21246468
185	0x3efeab02	0.49739844
186	0x3ec657d8	0.38738894
187	0xbe2a930f	-0.16657661
188	0x3f134125	0.5752128
189	0xbe64f96a	-0.22360769
190	0x3e0bc737	0.13650213
191	0x3e5e39e3	0.2170177
192	0x3e3544d9	0.17702045
193	0x3e21b385	0.15791138
194	0x3e781b2b	0.24229114
195	0xbd8bb163	-0.06820943
196	0x3cc108b9	0.02356373
197	0x3c4a9303	0.012364152
198	0xbf7a2d24	-0.9772513
199	0xbf40e393	-0.7534725
200	0xbe6db39d	-0.23213048
201	0x3e158e2f	0.1460502
202	0xbf235e82	-0.6381608
203	0xbcaf634e	-0.021409657
204	0xbe57308b	-0.21014611
205	0xbf2a1913	-0.6644451
206	0x3e880760	0.26568127
207	0xbfaf90cd	-1.3716065
208	0xbb573415	-0.003283744
209	0x3f2e2ba5	0.68035346
210	0xbe768ae7	-0.24076425
211	0x3d8e4b49	0.06947953
212	0x3e8d4602	0.27592474
213	0x3e33d9f2	0.17563608
214	0x3ea79a5e	0.3273496
215	0xbef49c0c	-0.47775304
216	0x3e9f5d1c	0.31125724
217	0xbe9a020e	-0.30079693
218	0x3ee64b29	0.44979218
219	0x3f9d241b	1.2276644
220	0xbeed859a	-0.46390992
221	0xbeaa9549	-0.3331702
222	0x3e8b5ba3	0.2721835
223	0x3d838bdd	0.06423161
224	0xbd374836	-0.0447466
225	0x3f8e5d78	1.1122274
226	0x3d891dfe	0.06695174
227	0x3e5b98e5	0.21445043
228	0x3fb460ac	1.4092002
229	0xbcbfa972	-0.023396228
230	0xbe37da70	-0.17954421
231	0xbf277798	-0.6541686
232	0xbe574b4e	-0.2102482
233	0x3d36a11c	0.04458724
234	0xbe626656	-0.2210935
235	0x3e142db9	0.14470567
236	0x3d5ffcfe	0.05468463
237	0x3d7cea41	0.06174684
238	0x3c1a1903	0.009405377
239	0xbc33143b	-0.010930116
240	0xbf26bbf7	-0.6513056
241	0x3e922301	0.2854233
242	0xbee662a9	-0.44997147
243	0x3ed0fd39	0.40818194
244	0x3e265da6	0.16246662
245	0xbfd1b23b	-1.6382517
246	0xbed18a1d	-0.40925685
247	0x3ebfeb5e	0.37484258
248	0xbf6201a7	-0.8828377
249	0x3f03eeb6	0.5153612
250	0x3e03afb9	0.12860002
251	0x3d580bc5	0.0527456
252	0x3f96563f	1.174507
253	0xbeafaa90	-0.34309816
254	0xbe2a502a	-0.16632143
255	0xbfba35c4	-1.4547658

network.fc2.bias f4 [99]
0	0x3f1e6fc1	0.6188927
1	0xbe1aa61a	-0.15102425
2	0xbd10bfc5	-0.035339136
3	0x3e90fa3b	0.2831591
4	0x3f19bcab	0.6005351
5	0x3f1f0247	0.6211285
6	0x3eba8598	0.3643005
7	0xbc87ebc2	-0.01659191
8	0xbe8273bc	-0.25478923
9	0x3e69de6b	0.22838752
10	0x3eee17c4	0.46502507
11	0x3b3ba6d1	0.0028633366
12	0x3e00f30b	0.12592714
13	0x3ebe0f34	0.37120974
14	0x3dd5971a	0.10429211
15	0xbd4bd453	-0.049763035
16	0x3eb07fa5	0.34472385
17	0x3f1488b2	0.5802108
18	0x3ebf9752	0.37420136
19	0xbe88474b	-0.26616892
20	0x3dd2220a	0.10260399
21	0x3e496455	0.1966718
22	0x3f099101	0.53736883
23	0x3e7cd347	0.24689971
24	0x3e6ca697	0.23110424
25	0x3e0ad8d3	0.13559274
26	0x3e75ad8e	0.23991987
27	0x3db04c69	0.08608324
28	0x3d1c5bc2	0.038173445
29	0x3ebc8ce6	0.36826247
30	0x3eef3325	0.46718708
31	0x3e97ec84	0.29672635
32	0x3ed8374b	0.42229685
33	0x3e14684e	0.14492914
34	0x3ee93907	0.4555132
35	0x3dc7432b	0.09729608
36	0x3f461b3f	0.77385324
37	0x3e2c2833	0.1681221
38	0x3e0c8d87	0.13725863
39	0x3f1f1952	0.6214801
40	0x3e92ae5f	0.2864866
41	0x3e68955c	0.22713226
42	0x3db56d86	0.088587806
43	0xbdff24f6	-0.124582216
44	0x3e996491	0.2995954
45	0x3f1b3f4c	0.6064346
46	0x3e724371	0.2365854
47	0x3f4a78e2	0.790907
48	0xbe0d2c97	-0.13786541
49	0x3e4374c5	0.19087513
50	0x3f257e04	0.6464541
51	0x3e31a536	0.17348179
52	0x3f237051	0.63843256
53	0x3eb4fc06	0.3534853
54	0x3e2f0119	0.17090262
55	0x3dadc4ca	0.084848
56	0x3e29fd57	0.16600548
57	0x3eec4dd0	0.46153116
58	0x3eff1a69	0.49824837
59	0x3eded47b	0.43521485
60	0x3e39da02	0.1814957
61	0xbe1e4a7a	-0.15458098
62	0x3edae686	0.42754
63	0xbcf80679	-0.030276524
64	0x3dd4404c	0.10363826
65	0x3e87efe3	0.26550207
66	0x3e1154bb	0.14192478
67	0x3e0364ba	0.12831393
68	0x3e98a2e1	0.29811767
69	0xbd14b51f	-0.036305543
70	0x3e91ad6f	0.28452632
71	0x3e9c56a2	0.30534846
72	0xbe7b31d6	-0.2453073
73	0x3e984218	0.29737926
74	0x3e453ccf	0.19261478
75	0x3ed6d4d4	0.4195925
76	0x3d227bc5	0.039668817
77	0x3dfb537c	0.12271783
78	0x3e6a02c6	0.2285262
79	0x3dbf199c	0.093310565
80	0x3e6309cf	0.2217171
81	0x3eae3218	0.34022593
82	0xbd41a645	-0.047277708
83	0x3e29ddb8	0.16588485
84	0x3e8faf25	0.28063312
85	0x3d783df3	0.060605954
86	0x3d4a1c01	0.049343113
87	0xbe9e5832	-0.30926663
88	0x3e85096c	0.2598375
89	0x3e7c37c0	0.24630642
90	0xbc8e678b	-0.017383358
91	0xbd7b1876	-0.061302625
92	0x3ee0c86d	0.43902913
93	0x3e240180	0.16016197
94	0xbe26c71d	-0.16286893
95	0x3eb0d37d	0.34536353
96	0xbd71b1f8	-0.059007615
97	0x3e1b3b79	0.15159406
98	0x3e58fcab	0.21190135
